project4/assets/part_1_img/freq_10_width_256/model.pth (torch, 839964 bytes, 10 tensors)

network.0.weight f4 [256, 42]
0	0xbe8b044d	-0.2715172
1	0xbd5f963c	-0.054586634
2	0xbf0a1a85	-0.53946716
3	0xbec0e4d8	-0.37674594
4	0xbd8aa342	-0.0676942
5	0xbf0c445c	-0.5479181
6	0x3e8fde6d	0.28099385
7	0x3dee28cf	0.11628877
8	0x3eafdf0f	0.34349868
9	0x3d858295	0.06519047
10	0x3f05d608	0.5227971
11	0x3ea04244	0.31300557
12	0x3e3d65c0	0.18495846
13	0xbdafa751	-0.08576835
14	0xbf3093aa	-0.6897532
15	0x3e35e67d	0.17763706
16	0x3d4f9413	0.050678324
17	0x3e931926	0.28730124
18	0x3ab3fd3c	0.0013732086
19	0xbd3e0be2	-0.04639805
20	0x3e6da839	0.23208703
21	0xbd8e695d	-0.0695369
22	0x3df3778e	0.118880376
23	0xbe87c5f5	-0.26518217
24	0x3e9d21f2	0.3068996
25	0x3d821932	0.06352462
26	0x3dc045bd	0.093883015
27	0xbea5a25f	-0.32350442
28	0x3e952f23	0.29137525
29	0x3cd9e015	0.026596108
30	0x3d0f3c48	0.034969598
31	0x3e69b9b6	0.2282475
32	0xbe3b65d8	-0.18300569
33	0x3cf10b89	0.029424446
34	0x3d2a031b	0.041506868
35	0x3d9d157c	0.076701134
36	0xbd2f6b91	-0.042827193
37	0x3d5a6478	0.05331847
38	0x3c9627b0	0.018329471
39	0x3cd702b3	0.026246404
40	0x3d17c7d3	0.0370558
41	0x3b818f02	0.0039538154
42	0xbeca6443	-0.3952962
43	0xbda5f3b7	-0.081031255
44	0xbef8df4d	-0.48607865
45	0xbe88544a	-0.26626807
46	0x3ea8fa7d	0.33003607
47	0xbe9829ec	-0.29719484
48	0x3e98edee	0.29869026
49	0xbe1f575c	-0.15560669
50	0x3eb91a00	0.3615265
51	0xbdcbb204	-0.09946063
52	0x3eb8b818	0.36077952
53	0x3ec0ac75	0.37631574
54	0x3ec60517	0.38675758
55	0xbf08f9dc	-0.53506255
56	0xbed48b2b	-0.41512427
57	0xbd7991f7	-0.06093022
58	0x3d91acc1	0.07113028
59	0x3e52ff38	0.2060517
60	0xbf1d9158	-0.615499
61	0x3e8ebb56	0.278773
62	0xbe0c27d9	-0.13687076
63	0xbdf35362	-0.118811384
64	0xbd8d8d03	-0.069116615
65	0xbd36d897	-0.04464015
66	0xbdafea50	-0.085896134
67	0xbe449ae0	-0.19199705
68	0xbe94db17	-0.29073402
69	0xbd3313a0	-0.043719888
70	0x3dd76c50	0.10518706
71	0xbe039193	-0.12848501
72	0xbd9cc1de	-0.07654165
73	0x3e8af606	0.27140826
74	0xbca67c9a	-0.020323087
75	0x3d55ac79	0.052166436
76	0x3df7fb01	0.12108422
77	0xbd32938a	-0.043597735
78	0xbcfecfeb	-0.031105002
79	0xbc4d1d1f	-0.01251915
80	0xbcfcfe18	-0.03088288
81	0x3c0e1a88	0.008673318
82	0x3bc10f16	0.005891691
83	0x3d13a11e	0.036042325
84	0xbec13832	-0.37738186
85	0xbd6d7c30	-0.057979763
86	0xbe3df955	-0.18552144
87	0xbd779b2c	-0.060450718
88	0x3f13e202	0.57766736
89	0x3e16b3df	0.14717053
90	0xbc768973	-0.015047419
91	0xbdd7e1a9	-0.10541088
92	0x3cd7e504	0.02635432
93	0x3e86707b	0.2625769
94	0x3e69f6e2	0.22848085
95	0xbe5fb564	-0.21846539
96	0x3de7079d	0.11280749
97	0x3ef4ff1d	0.47850886
98	0x3ec44af9	0.3833845
99	0x3dbf19ad	0.09331069
100	0xbe32a77b	-0.17446701
101	0xbedaf347	-0.4276373
102	0xbf1d4e8b	-0.6144797
103	0xbed417da	-0.41424447
104	0xbe1fd882	-0.15609935
105	0xbee8c0b7	-0.4545953
106	0xbef50109	-0.47852352
107	0x3de104ae	0.10987221
108	0x3cc30838	0.02380763
109	0xbdd8efb0	-0.10592592
110	0x3e88a410	0.2668767
111	0x3db2d36d	0.087317325
112	0x3e431942	0.19052604
113	0xbd9c5734	-0.0763382
114	0xbd11b3d5	-0.03557189
115	0xbdc64f99	-0.09683151
116	0xbd769541	-0.060200933
117	0x3db95095	0.09048573
118	0x3d1fc0ca	0.039002217
119	0x3d0e9458	0.03480944
120	0x3d2330a3	0.039841305
121	0xbbfe63a5	-0.0077633434
122	0x3c4bf7ec	0.012449246
123	0xbd05dd4a	-0.03268174
124	0x3c040943	0.008058849
125	0x3cbf32d1	0.02333966
126	0xbe03bfb7	-0.12866102
127	0xbe8a2792	-0.26983315
128	0xbe8604c3	-0.26175508
129	0xbe3e837e	-0.18604848
130	0x3d71f1bc	0.059068426
131	0xbe1035fb	-0.14083092
132	0x3ce51481	0.027963879
133	0xbef513a1	-0.47866538
134	0x3e0c309b	0.13690417
135	0xbe6ea1cc	-0.23303908
136	0xbea8da64	-0.3297912
137	0x3ee7b06b	0.45251784
138	0xbf299856	-0.6624807
139	0xbe94fa2f	-0.29097125
140	0xbd827316	-0.06369607
141	0xbeb9c212	-0.36280876
142	0xbeac3ad3	-0.3363863
143	0xbe6126de	-0.21987483
144	0xbe3a8132	-0.18213347
145	0x3e0990bd	0.1343412
146	0xbbb1c414	-0.0054249857
147	0xbd7a25e6	-0.0610713
148	0x3dc56cff	0.0963993
149	0x3e8480db	0.2587956
150	0xbee43df9	-0.4457853
151	0x3e40e3c6	0.18836889
152	0x3edd072d	0.43169537
153	0xbd950d07	-0.072778754
154	0xbe53e98f	-0.20694564
155	0xbf05415b	-0.5205285
156	0xbe1c468d	-0.15261288
157	0xbd6b8023	-0.057495248
158	0x3e49998d	0.19687481
159	0xbd86831e	-0.06567977
160	0xbdc14c29	-0.094383545
161	0x3d924320	0.07141709
162	0xbcb9184d	-0.022594595
163	0xbcd46e2b	-0.025931438
164	0xbcddc0e1	-0.02706951
165	0x3cc499a7	0.023999048
166	0x3b123ce3	0.0022314123
167	0xbcaed9c5	-0.021344075
168	0xbe57a6ba	-0.21059695
169	0x3def9493	0.1169826
170	0xbe65194a	-0.22372928
171	0xbdbbe9c0	-0.09175444
172	0x3e864961	0.2622786
173	0xbe94a9ce	-0.290358
174	0x3e877248	0.26454377
175	0x3e8f7397	0.28017876
176	0x3ee50a03	0.447342
177	0x3eae421d	0.34034815
178	0x3f0cd722	0.55015767
179	0xbec629fc	-0.38703907
180	0xbefb1e19	-0.490464
181	0x3e370d77	0.1787623
182	0xbf0011fd	-0.5002745
183	0x3b7c05f9	0.0038455708
184	0xbbb0c2df	-0.005394324
185	0xbeecfd5b	-0.46287045
186	0xbdfe65d7	-0.12421768
187	0xbcad7d90	-0.021178037
188	0xbe48e93b	-0.1962022
189	0xbcd90012	-0.026489291
190	0x3d844abe	0.064595684
191	0xbe28291d	-0.16421933
192	0x3dc6e3a9	0.097113915
193	0x3d982116	0.07428186
194	0xbd5a6890	-0.053322375
195	0x3d023c0e	0.031795554
196	0x3d2dfc4a	0.04247693
197	0x3d811167	0.06302147
198	0xbcc5acfe	-0.02413034
199	0xbbafba2e	-0.0053627705
200	0xbcffc5d9	-0.03122227
201	0x3d78c5b8	0.060735434
202	0x3cea6d39	0.028616535
203	0xbd56658c	-0.052342936
204	0x3c96e444	0.018419392
205	0xbc5162fc	-0.012779947
206	0x3bb384cc	0.005478477
207	0x3c87651d	0.016527707
208	0x3bbc8e86	0.005754295
209	0xbba16a64	-0.004926013
210	0xbe4e0319	-0.20118369
211	0xbec5d38e	-0.38637966
212	0xbea44f3d	-0.32091704
213	0xbdfe4fdf	-0.12417578
214	0xbeb7da48	-0.35908723
215	0x3e2ec749	0.17068209
216	0xbec9755c	-0.3934735
217	0x3e65ede8	0.22454035
218	0x3ec6e210	0.38844347
219	0xbed573ea	-0.41689998
220	0xbed790a6	-0.42102545
221	0x3e1effc1	0.1552725
222	0xbec278dd	-0.37982836
223	0xbedea72e	-0.43486923
224	0x3e9fd8a5	0.31219974
225	0xbe47e449	-0.19520678
226	0x3ec846be	0.39116472
227	0xbe052069	-0.13000645
228	0x3e75ce5c	0.24004501
229	0xbd1cde19	-0.038297746
230	0xbe66119b	-0.22467653
231	0x3ea6d7d8	0.3258655
232	0xbd9d25ee	-0.0767325
233	0xbd3fdf66	-0.04684391
234	0xbe622d85	-0.22087677
235	0x3e34fc6c	0.17674416
236	0x3e5d0606	0.21584329
237	0xbd82bd3b	-0.06383749
238	0x3e3071ff	0.17230986
239	0x3d3f0c97	0.046642866
240	0xbc9882ae	-0.018617
241	0xbd061f0b	-0.03274445
242	0x3d775820	0.060386777
243	0x3d39b3a2	0.045337327
244	0x3d00c0dc	0.031433925
245	0x3d5596f6	0.05214592
246	0x3c8dc992	0.01730803
247	0xbc3504de	-0.011048524
248	0xbca4bd5e	-0.020109829
249	0xb9f314c8	-0.00046364055
250	0xbcb7e1b8	-0.022446498
251	0x3c247873	0.010038483
252	0xbe6d4935	-0.23172458
253	0x3d715aab	0.05892436
254	0xbe368bdd	-0.17826791
255	0xbe8e7c21	-0.27829078

network.0.bias f4 [256]
0	0xbea134dc	-0.3148564
1	0xbea3428e	-0.31886715
2	0xbd5f9eb1	-0.0545947
3	0xbec291b3	-0.38001785
4	0xbe3aeaac	-0.18253583
5	0xbed9132f	-0.42397448
6	0x3c68e723	0.014215264
7	0xbe1a96ad	-0.15096541
8	0xbe9338de	-0.28754324
9	0xbe8b5efb	-0.27220902
10	0xbe4c0121	-0.19922306
11	0xbcf5814c	-0.02996888
12	0xbda745bf	-0.081676
13	0xbe766e9e	-0.24065635
14	0xbf1462d8	-0.57963324
15	0xbe201837	-0.15634237
16	0xbe9cf082	-0.30652243
17	0xbca15898	-0.019695565
18	0xbec5623b	-0.38551506
19	0xbd92438f	-0.07141792
20	0xbd47478f	-0.048652228
21	0xbe994291	-0.299336
22	0xbf1fb4df	-0.6238536
23	0xbea537f6	-0.32269257
24	0xbecca629	-0.3997052
25	0xbec7822c	-0.389665
26	0xbe6e28fb	-0.2325782
27	0xbec55651	-0.38542417
28	0xbe919882	-0.28436667
29	0xbec60fba	-0.38683873
30	0xbe3efb69	-0.18650593
31	0xbebc4162	-0.36768633
32	0xbefe39ed	-0.4965357
33	0xbddfdf60	-0.10931277
34	0x3e32633f	0.17420672
35	0xbe7f295b	-0.2491812
36	0xbe69f70f	-0.22848152
37	0xbcbf2790	-0.023334295
38	0xbeea80f9	-0.45801523
39	0xbe95668b	-0.29179797
40	0xbe0e7268	-0.1391083
41	0xbe50b62a	-0.2038199
42	0xbe1486b1	-0.14504506
43	0xbd485f54	-0.048919037
44	0xbea772a2	-0.32704645
45	0xbedebafb	-0.4350203
46	0x3c6357e3	0.013875934
47	0xbdab9195	-0.08377377
48	0xbf16208c	-0.5864341
49	0xbeade765	-0.33965603
50	0xbea87a1c	-0.32905662
51	0xbdad02c8	-0.08447796
52	0xbedc27b7	-0.4299905
53	0xbf4d220c	-0.80130076
54	0xbebe1f34	-0.3713318
55	0xbe902c75	-0.28158918
56	0xbe97f912	-0.29682213
57	0xbf0bc584	-0.5459826
58	0xbe85fd59	-0.2616985
59	0xbe89f7b2	-0.2694679
60	0xbeee53ad	-0.46548215
61	0xbed04c07	-0.40683004
62	0xbe54afc3	-0.20770173
63	0xbe302e80	-0.17205238
64	0x3dcf4dcf	0.10122263
65	0xbe557db8	-0.20848739
66	0xbeaf65ee	-0.34257454
67	0xbe8aaa87	-0.27083227
68	0xbe075c18	-0.13218725
69	0xbe6d7ed9	-0.2319292
70	0xbe71ed78	-0.23625743
71	0xbed9cf29	-0.42540863
72	0xbe13e09a	-0.14441147
73	0xbe286d4d	-0.16447945
74	0xbec52610	-0.38505602
75	0xbe9b99a3	-0.30390653
76	0xbecc5194	-0.3990599
77	0xbdade86c	-0.084915966
78	0xbed55fa8	-0.41674542
79	0xbe0ea48b	-0.13929956
80	0x3dbc189a	0.0918438
81	0xbdf28169	-0.11841089
82	0xbe4a5148	-0.19757569
83	0xbe999722	-0.29998118
84	0xbed96480	-0.42459488
85	0xbe94f834	-0.29095614
86	0xbea4d232	-0.32191616
87	0xbdeb8f78	-0.11501974
88	0x3b76d911	0.0037666003
89	0xbe3d2b6c	-0.18473595
90	0xbea392c6	-0.31947917
91	0xbd6e5877	-0.058189835
92	0xbe3e0182	-0.18555263
93	0xbf31db31	-0.69475085
94	0xbe8bc98c	-0.27302206
95	0xbead53b1	-0.33852914
96	0xbe996d2e	-0.2996611
97	0xbd9f0387	-0.07764345
98	0xbef9937d	-0.48745337
99	0xbe38b9a9	-0.18039574
100	0xbeb26303	-0.34841165
101	0xbe8f7afd	-0.2802352
102	0xbe2e01e0	-0.16992903
103	0xbe18bf72	-0.1491678
104	0xbe6e9a0a	-0.23300949
105	0xbe7dd19c	-0.24786991
106	0xbef084f4	-0.46976435
107	0xbf27c310	-0.65532017
108	0xbf09e757	-0.5386862
109	0xbf469159	-0.7756553
110	0xbe8dc384	-0.2768823
111	0xbe6abbc9	-0.22923197
112	0xbd5a9e7b	-0.053373795
113	0xbe0a6d4d	-0.13518257
114	0xbe9c5b69	-0.3053849
115	0xbe6a33fa	-0.2287139
116	0xbee666ff	-0.45000455
117	0xbda633bd	-0.08115337
118	0xbdbb38bc	-0.091416806
119	0xbe5d4f99	-0.21612395
120	0xbe977f92	-0.29589516
121	0xbe48c537	-0.19606481
122	0xbf09b3f4	-0.5379021
123	0xbe840724	-0.25786698
124	0xbee956f4	-0.45574152
125	0xbea1075b	-0.31450924
126	0xbe9735ed	-0.2953333
127	0xbde35def	-0.11101901
128	0xbd2f550b	-0.042805713
129	0xbe0b4373	-0.13599949
130	0xbe90934c	-0.2823738
131	0x3c845a70	0.016156405
132	0xbe8970f4	-0.2684399
133	0xbe40562f	-0.18782876
134	0xbe9127b9	-0.28350618
135	0xbdc96fe1	-0.09835792
136	0xbec45cba	-0.38351995
137	0xbe4452a6	-0.19172153
138	0xbe6d74fa	-0.23189154
139	0xbe78f510	-0.24312234
140	0xbe5afb75	-0.21384986
141	0xbe922fff	-0.28552243
142	0xbe796e6e	-0.24358532
143	0xbe576be7	-0.21037255
144	0xbe6a1fb5	-0.22863658
145	0xbe00da75	-0.12583335
146	0xbe272feb	-0.16326873
147	0xbe81ebd0	-0.25375223
148	0xbe9fb8fa	-0.31195813
149	0xbeadb968	-0.33930516
150	0xbd5296b3	-0.05141325
151	0xbce425f1	-0.027850123
152	0xbe0800ff	-0.1328163
153	0xbe5d65c4	-0.21620852
154	0xbdbaf0a3	-0.09127929
155	0xbe00a41e	-0.12562606
156	0xbde49081	-0.111603744
157	0xbe85aaa3	-0.26106748
158	0xbea19e30	-0.31566
159	0xbcf57424	-0.029962607
160	0xbe2f61e9	-0.17127194
161	0xbdcc59df	-0.09978079
162	0xbe94f030	-0.290895
163	0xbe18c59b	-0.1491913
164	0xbea082cc	-0.3134979
165	0xbf2076a8	-0.62681055
166	0xbdd9ce48	-0.10635048
167	0xbec3191a	-0.38105088
168	0xbed00c11	-0.40634206
169	0xbe8cfc0e	-0.27536052
170	0xbec9feb0	-0.39452124
171	0xbcad50a7	-0.021156622
172	0xbc8821cb	-0.016617676
173	0x3d7144c1	0.05890346
174	0xbe448e9c	-0.19195026
175	0xbe20bf0d	-0.1569788
176	0xbecb8340	-0.39748573
177	0xbe76a4cd	-0.24086304
178	0xbe462331	-0.19349362
179	0xbeb80b62	-0.35946184
180	0xbec1830a	-0.37795287
181	0x3c9fc85b	0.019504717
182	0xbeebff0b	-0.4609302
183	0xbea4c6d2	-0.32182938
184	0xbf097230	-0.5368986
185	0xbd21f5bf	-0.039541002
186	0xbe904c7c	-0.28183353
187	0xbf072714	-0.52794003
188	0xbe54911c	-0.2075848
189	0xbe148f81	-0.14507867
190	0xbf295441	-0.66144186
191	0xbe678501	-0.2260933
192	0xbebc5101	-0.3678055
193	0xbe48d072	-0.19610766
194	0xbe55759a	-0.20845643
195	0xbe43632b	-0.19080798
196	0xbe17762f	-0.14791177
197	0xbedc945e	-0.43081945
198	0xbe3d9987	-0.18515597
199	0xbe8a3496	-0.26993245
200	0xbe66b857	-0.22531258
201	0xbe952324	-0.29128373
202	0xbe4a0347	-0.19727813
203	0xbec3609a	-0.3815964
204	0xbee2d8c9	-0.4430602
205	0xbe6ed16d	-0.23322077
206	0xbb281a56	-0.0025650463
207	0xbe8a9823	-0.27069196
208	0xbe8f068b	-0.2793468
209	0xbe707e2a	-0.23485628
210	0xbe214c5b	-0.15751784
211	0xbed230f6	-0.4105298
212	0xbe9ffeeb	-0.31249174
213	0xba9640b8	-0.001146338
214	0xbeaf62d6	-0.34255093
215	0xbec0bfdb	-0.37646374
216	0xbd826a98	-0.063679874
217	0xbb48be56	-0.0030631027
218	0xbebda5d7	-0.37040588
219	0xbf1bba16	-0.6083082
220	0xbf1cb825	-0.6121848
221	0xbd2f088e	-0.042732768
222	0xbed3c6e6	-0.41362685
223	0xbe9303b6	-0.2871377
224	0x3dcf42f5	0.10120193
225	0xbd8d07c3	-0.06886246
226	0xbd297b30	-0.041377246
227	0xbefa6446	-0.48904628
228	0xbec2213d	-0.37915984
229	0xbe9608d9	-0.29303625
230	0xbeaa6245	-0.332781
231	0xbecff6f9	-0.40618113
232	0xbe12611a	-0.14294854
233	0xbe5f2379	-0.21790875
234	0xbe9a8a7d	-0.30183783
235	0xbd825fec	-0.06365952
236	0xbe4f60d0	-0.20251775
237	0xbe72ad68	-0.23698962
238	0xbecc27c0	-0.39874077
239	0xbe84c243	-0.2592946
240	0xbe99a37d	-0.30007544
241	0xbd92164e	-0.071331605
242	0xbeac1de3	-0.33616552
243	0xbe5c52fa	-0.21516028
244	0xbed8b8bd	-0.42328444
245	0xbdd5084d	-0.10401974
246	0xbf1a7bc9	-0.6034513
247	0xbd0b3ef8	-0.0339956
248	0xbeb0e3ce	-0.345488
249	0xbea47610	-0.32121325
250	0xbed45b4c	-0.41475904
251	0xbe8d8c5f	-0.27646157
252	0xbedfcae1	-0.43709472
253	0xbd6813f2	-0.056659646
254	0xbe1b0489	-0.15138449
255	0xbe20dffd	-0.15710445

network.2.weight f4 [256, 256]
0	0xbd8bfafb	-0.0683498
1	0xbd1884b5	-0.037235934
2	0xbdb48b2a	-0.08815606
3	0xbc8f0194	-0.017456807
4	0xbdd4d4c9	-0.10392148
5	0xbd98053c	-0.074228734
6	0xbd943bbc	-0.07237956
7	0xbd51f966	-0.051263236
8	0xbdd37c40	-0.10326433
9	0xbd9cf910	-0.076646924
10	0xbd31c345	-0.043399114
11	0xbdddaa4d	-0.10823498
12	0xbdb539b6	-0.08848898
13	0xbd48428f	-0.0488916
14	0xbdad10bc	-0.084504575
15	0xbdc39cb0	-0.0955137
16	0xbdeeb229	-0.11655075
17	0xbdea800c	-0.11450204
18	0xbd6647c7	-0.056220796
19	0xbe090b7e	-0.1338329
20	0xbd3a8662	-0.045538314
21	0xbce7da67	-0.028302385
22	0xbdb34ede	-0.08755277
23	0xbc3f2002	-0.011665346
24	0xbd74b5e2	-0.05974377
25	0xbce4f551	-0.027949007
26	0xbd96363c	-0.07334563
27	0xbdbb9f2f	-0.09161221
28	0xbde49a26	-0.11162214
29	0xbd9a0f61	-0.075224645
30	0xbd9e8e9d	-0.07742045
31	0xbdf3b812	-0.11900343
32	0xbd9d73a2	-0.07688071
33	0xbd8aa007	-0.06768804
34	0xbd2ed4ac	-0.04268329
35	0xbd942d1f	-0.07235169
36	0xbdb6d773	-0.089278124
37	0xbdb8c9cc	-0.09022865
38	0xbd13e754	-0.036109284
39	0xbd4892d4	-0.04896815
40	0xbda5b5d4	-0.080913216
41	0xbd2c0ffe	-0.04200744
42	0xbddf262e	-0.10895954
43	0xbdc6533e	-0.09683846
44	0xbd7ce091	-0.0617376
45	0xbd209ceb	-0.03921215
46	0xbdf8b8a6	-0.12144594
47	0xbd3c30f2	-0.045945115
48	0xbdb9624f	-0.09051954
49	0xbd81cf9f	-0.06338429
50	0xbc749f34	-0.014930535
51	0xbd34f023	-0.044174325
52	0xbd938eaa	-0.072049454
53	0xbda059bf	-0.07829618
54	0xbdcf747d	-0.1012964
55	0xbcebd793	-0.028789317
56	0xbdb71d3b	-0.08941122
57	0xbd80a602	-0.062816635
58	0xbdde263c	-0.108471364
59	0xbcb0d4da	-0.02158587
60	0xbd92e1cf	-0.07171976
61	0xbcd5025f	-0.026002107
62	0xbdf0e221	-0.11761881
63	0xbd9a93f4	-0.07547751
64	0xbdc70eef	-0.09719645
65	0xbddaccd0	-0.10683596
66	0xbd622dde	-0.055219524
67	0xbd41d1b7	-0.04731914
68	0xbd843feb	-0.06457504
69	0xbdd6e5c6	-0.104930446
70	0xbc96011a	-0.018311072
71	0xbd70bc2f	-0.058773216
72	0xbc3f83fc	-0.011689182
73	0xbdabc4b6	-0.08387129
74	0xbdfeffc2	-0.12451126
75	0xbdb7d9b7	-0.08977073
76	0xbd01ce40	-0.031690836
77	0xbd8da16b	-0.06915554
78	0xbdcf5476	-0.101235315
79	0xbd92661f	-0.07148384
80	0xbdf830c3	-0.121186756
81	0xbda64370	-0.081183314
82	0xbd619f3c	-0.0550835
83	0xbd427226	-0.04747214
84	0xba94f130	-0.0011363383
85	0xbdad2329	-0.08453972
86	0xbdfd6aa6	-0.12373857
87	0xbd8614b2	-0.06546916
88	0xbdad02a8	-0.08447772
89	0xbdb0ab38	-0.086264074
90	0xbd4403ca	-0.047855176
91	0xbd821d1c	-0.063532084
92	0xbd6b76fe	-0.057486527
93	0xbde4a662	-0.111645475
94	0xbc26dc2b	-0.010184328
95	0xbcb27b8a	-0.021787424
96	0xbd2773d9	-0.040881965
97	0xbddef3ff	-0.10886382
98	0xbddb801b	-0.107177936
99	0xbd429165	-0.04750194
100	0xbd217464	-0.03941764
101	0xbdfc98ad	-0.12333808
102	0xbd4acc4a	-0.04951123
103	0xbcb1b6fc	-0.021693699
104	0xbd1c7306	-0.038195632
105	0xbde37457	-0.111061744
106	0xbddffc8f	-0.109368436
107	0xbc8305e6	-0.015994024
108	0xbd9cbc8e	-0.076531515
109	0xbdf0790e	-0.11741839
110	0xbcd3a506	-0.025835525
111	0xbd75c9cc	-0.0600069
112	0xbdc711c1	-0.09720183
113	0xbddefd96	-0.108882114
114	0xbd67da01	-0.05660439
115	0xbd8f24c4	-0.06989434
116	0xbc090e13	-0.008365172
117	0xbd8a728a	-0.06760128
118	0xbd781a1a	-0.060571767
119	0xbdf1a75f	-0.11799502
120	0xbd9b78b9	-0.075913854
121	0xbd99fc24	-0.07518795
122	0xbdd10711	-0.10206426
123	0xbce91720	-0.02845341
124	0xbbd01550	-0.006350197
125	0xbd132f5a	-0.03593383
126	0xbd1bb628	-0.038015515
127	0xbcfc0045	-0.030761847
128	0xbd2d0769	-0.042243395
129	0xbc84ed90	-0.01622656
130	0xbd0be47c	-0.034153447
131	0xbce5ef9e	-0.02806836
132	0xbdd908a6	-0.10597353
133	0xbcd735d6	-0.026270788
134	0xbcc6c68d	-0.024264598
135	0xbdaf6795	-0.085646786
136	0xbcfd4255	-0.030915419
137	0xbd033fcb	-0.03204326
138	0xbd5a94e3	-0.053364646
139	0xbd581ced	-0.05276196
140	0xbd1d5aea	-0.03841678
141	0xbd4b7706	-0.049674056
142	0xbd969164	-0.0735195
143	0xbd80bce0	-0.06286025
144	0xbdee54b2	-0.11637248
145	0xbde21c3d	-0.11040542
146	0xbdb732ec	-0.089452595
147	0xbd4c327c	-0.049852833
148	0xbcdb3d63	-0.02676267
149	0xbdf0333e	-0.11728524
150	0xbd2a7bbf	-0.04162192
151	0xbe00908c	-0.1255514
152	0xbdc2942d	-0.095009185
153	0xbdeffec9	-0.11718518
154	0xbda1d73c	-0.07902381
155	0xbdb43721	-0.087995775
156	0xbcf77085	-0.03020502
157	0xbd3fe048	-0.04684475
158	0xbd8f570f	-0.06999027
159	0xbd50faa2	-0.051020272
160	0xbdf9f488	-0.12204844
161	0xbc98f621	-0.01867205
162	0xbd4b0da1	-0.049573544
163	0xbd53af00	-0.051680565
164	0xbc501f24	-0.012702737
165	0xbc2a2951	-0.010385827
166	0xbc5bd46d	-0.0134173455
167	0xbd88f5b4	-0.06687489
168	0xbd8822cb	-0.06647261
169	0xbdebe393	-0.11518016
170	0xbd5ddf35	-0.054167945
171	0xbd8625e6	-0.06550197
172	0xbcb34542	-0.02188361
173	0xbd260a3f	-0.040537115
174	0xbd7e2b58	-0.062053055
175	0xbd95fd2b	-0.073236786
176	0xbdf8f634	-0.121563345
177	0xbd9a4560	-0.075327635
178	0xbc7ad27e	-0.015308974
179	0xbe074423	-0.13209586
180	0xbd0bc785	-0.034125824
181	0xbd9e14ab	-0.07718786
182	0xbd15936c	-0.036517546
183	0xbbfd15d2	-0.0077235484
184	0xbd1e3820	-0.038627744
185	0xbdb21c36	-0.08696787
186	0xbda9cc31	-0.082908995
187	0xbc425f20	-0.0118635
188	0xbd8a5545	-0.06754545
189	0xbdebe13c	-0.115175694
190	0xbdcd80be	-0.10034321
191	0xbdccbe01	-0.09997178
192	0xbb577011	-0.0032873193
193	0xbbef9dc0	-0.0073125064
194	0xbc85c639	-0.016329871
195	0xbd56d903	-0.052453052
196	0xbd7908a0	-0.06079924
197	0xbd8d5185	-0.06900314
198	0xbd855f80	-0.06512356
199	0xbe012ad0	-0.12613988
200	0xbd2fd637	-0.0429289
201	0xbd9ef2ad	-0.077611305
202	0xbcac6f76	-0.021049242
203	0xbd4b9497	-0.049702253
204	0xbd8aaf10	-0.06771672
205	0xbc9e96a0	-0.019358933
206	0xbe0500f0	-0.12988639
207	0xbda06472	-0.078316584
208	0xbd78fbc1	-0.060786966
209	0xbce71166	-0.028206538
210	0xbdd43cd2	-0.10363163
211	0xbdd41512	-0.10355581
212	0xbd512552	-0.051060982
213	0xbd35830e	-0.044314437
214	0xbddd2653	-0.107983254
215	0xbc886a2d	-0.016652191
216	0xbdcc6555	-0.09980265
217	0xbcf12510	-0.029436618
218	0xbd2f1ef4	-0.04275413
219	0xbd962545	-0.07331327
220	0xbca50d5c	-0.020147972
221	0xbdcbc18d	-0.09949026
222	0xbcc2ecac	-0.023794495
223	0xbd7baf21	-0.061446313
224	0xbd7a5d96	-0.061124407
225	0xbdd9ff54	-0.10644403
226	0xbd1f923d	-0.038957823
227	0xbdac82c0	-0.08423376
228	0xbdcc61e8	-0.09979612
229	0xbd1e01b4	-0.038575843
230	0xbd17f766	-0.037101172
231	0xbdaf246c	-0.08551869
232	0xbe04bb0b	-0.12961976
233	0xbc9c923b	-0.019112697
234	0xbce5347a	-0.027979124
235	0xbd8ce95c	-0.06880447
236	0xbcaba09e	-0.020950612
237	0xbc86afe8	-0.0164413
238	0xbdc73cfe	-0.0972843
239	0xbda39aac	-0.07988486
240	0xbd95b551	-0.07309974
241	0xbdf246c6	-0.11829905
242	0xbd624a5f	-0.055246707
243	0xbce1d525	-0.027567456
244	0xbc8c130a	-0.017098922
245	0xbc691e97	-0.014228485
246	0xbcd195fb	-0.025584212
247	0xbd873e7f	-0.06603717
248	0xbdba0f89	-0.09084994
249	0xbd2f6a99	-0.04282627
250	0xbccaaa37	-0.024739368
251	0xbcd91ea7	-0.026503874
252	0xbd941c32	-0.0723194
253	0xbd70cc8c	-0.05878882
254	0xbde15b1e	-0.11003707
255	0xbcc95d26	-0.02458055

network.2.bias f4 [256]
0	0xbd6920be	-0.05691599
1	0xbdc6fc2d	-0.097160675
2	0xbc8f18dc	-0.017467909
3	0xbdab44b8	-0.083627164
4	0x38786276	5.9219507e-05
5	0xbced3853	-0.028957522
6	0xbdffcbd9	-0.12490053
7	0xbd8a63be	-0.067573056
8	0xbd947fcb	-0.07250937
9	0xbdc309e8	-0.09523374
10	0xbcef33f8	-0.029199585
11	0xbdb7b71e	-0.08970474
12	0xbdb90747	-0.09034591
13	0xbd021768	-0.031760603
14	0xbd483591	-0.04887921
15	0xbd846b04	-0.06465724
16	0x3b9b2d25	0.0047356063
17	0xbdc264f4	-0.094919115
18	0xbd3b0c4e	-0.04566603
19	0xbe01f9ee	-0.12692997
20	0xbd8a51ee	-0.06753908
21	0xbd9e5715	-0.07731453
22	0xbdb8b7a2	-0.090194
23	0xbda4685e	-0.08027719
24	0xbdcc54cf	-0.099771135
25	0xbdb2e6e6	-0.08735447
26	0xbcbbfab2	-0.02294669
27	0xbba7387d	-0.0051031695
28	0xbd74d746	-0.059775613
29	0xbd91843e	-0.07105301
30	0xbc91be69	-0.01779099
31	0xbdda1c1c	-0.10649893
32	0xbd8d2cf0	-0.06893337
33	0xbd5696a8	-0.05238977
34	0xbd6a535b	-0.0572084
35	0xbdd5f44c	-0.104469866
36	0xbde1211d	-0.10992644
37	0xb9a99f7b	-0.00032353014
38	0xbd43e754	-0.047828034
39	0xbccfb8ee	-0.025356736
40	0xbdab7ad0	-0.08373034
41	0xbdb5bd36	-0.0887398
42	0xbc8c0af0	-0.01709506
43	0xbca35d54	-0.019941963
44	0x3ae458bc	0.0017421464
45	0xbdf16cf5	-0.1178836
46	0xbd8e0327	-0.06934195
47	0xbcefdc34	-0.029279806
48	0x3c9d34cc	0.019190215
49	0x3bccea1e	0.006253495
50	0xbd9e2cfc	-0.07723424
51	0x3b5aa2b2	0.0033361134
52	0xbd87d11d	-0.06631682
53	0xbd092d05	-0.0334902
54	0xbd93f96e	-0.07225309
55	0xbc29fa85	-0.01037467
56	0xbccbf09e	-0.024895009
57	0xbc7c49e1	-0.0153984735
58	0xbd9804a6	-0.074227616
59	0xbd7c0fed	-0.061538626
60	0xbb6b377b	-0.0035891223
61	0xbdb8467d	-0.089978196
62	0xbdd4794c	-0.10374698
63	0xbd2b7c6a	-0.041866697
64	0xbc67284d	-0.01410873
65	0x3b9a615b	0.0047113127
66	0xbd6d8fd4	-0.057998493
67	0xbce7e867	-0.02830906
68	0xbd06ed77	-0.032941308
69	0x3a374cbf	0.0006992332
70	0xbd66dfce	-0.05636578
71	0xbd29391b	-0.041314226
72	0xbd59a25c	-0.053133354
73	0xbdef2181	-0.11676312
74	0xbc2381b0	-0.00997965
75	0xbd226fd5	-0.039657433
76	0xbba60296	-0.0050662262
77	0x3c3d133c	0.01154023
78	0xbdb82c68	-0.08992845
79	0xbdbc7a54	-0.0920302
80	0xbddf7fa6	-0.10913019
81	0xbda42912	-0.08015646
82	0xbe0195bf	-0.1265478
83	0xbd12974f	-0.03578883
84	0xbd817e25	-0.06322888
85	0x3dffbc09	0.12487037
86	0xbde619a8	-0.11235362
87	0xbcd7951f	-0.026316224
88	0xbdcd71e8	-0.100314915
89	0xbd6275ed	-0.055288244
90	0xbdbea2e9	-0.093084164
91	0x3bb2f978	0.005461868
92	0xbd3b1229	-0.045671616
93	0xbdae92d5	-0.085241
94	0xbdf0c65d	-0.11756585
95	0x39291057	0.00016123183
96	0xbd9bef96	-0.07614057
97	0xbde6c80e	-0.11268626
98	0xbd97ad7a	-0.07406135
99	0xbdb5e79e	-0.08882068
100	0x3c83810f	0.01605275
101	0xbd01172e	-0.031516246
102	0xbc9f3ede	-0.019439157
103	0xbd29dad8	-0.04146847
104	0xbdfe4b73	-0.124167345
105	0xbd87afb7	-0.06625312
106	0x3e792fe3	0.24334674
107	0xbdb540c8	-0.08850247
108	0x3ba08f6a	0.004899909
109	0xbcb3139a	-0.021859933
110	0xbd59f462	-0.053211577
111	0xbd43cd54	-0.047803238
112	0xbd8946ce	-0.06702958
113	0xbd1257b5	-0.035728175
114	0xbd756edd	-0.05992018
115	0xbd98b5a0	-0.07456517
116	0x3b4d99ca	0.0031372183
117	0x3c252224	0.010078941
118	0xbd0bb18c	-0.03410487
119	0xbd59014d	-0.052979756
120	0xbccabc9a	-0.024748135
121	0xbdb40d0e	-0.087915525
122	0xbdda853d	-0.106699444
123	0xbd2b613a	-0.04184077
124	0xbdb59f83	-0.08868315
125	0xbdadd09b	-0.08487054
126	0xbd7271c5	-0.05919053
127	0xbd456bdf	-0.048198577
128	0xbd954477	-0.07288449
129	0xbd926e56	-0.07149951
130	0xbd1621ab	-0.036653202
131	0xbd1d68de	-0.038430087
132	0xbdb406ed	-0.087903835
133	0xbda9c0d4	-0.08288732
134	0xbc1e50f6	-0.009662857
135	0xbc7e2383	-0.015511396
136	0xbc4c5d84	-0.012473468
137	0xbc1765b2	-0.009240555
138	0xbda0d1a5	-0.078524865
139	0xbc932320	-0.017961085
140	0xbd84327f	-0.06454944
141	0xbd1046d0	-0.035223782
142	0xbe01c826	-0.12674007
143	0xbcb04dd6	-0.02152149
144	0xbd5aafc1	-0.05339027
145	0xbddceece	-0.10787736
146	0xbdbd1e46	-0.0923429
147	0xbd9b157f	-0.075724594
148	0xbda89264	-0.08231047
149	0xbc849193	-0.016182696
150	0xbd17d28a	-0.03706602
151	0xbca3ba11	-0.019986184
152	0x3c6bcf4e	0.014392687
153	0xbd7e5d8a	-0.062100925
154	0xbd957785	-0.07298187
155	0xbcf6138d	-0.03003862
156	0xbdb79d24	-0.08965519
157	0xbc4b46fd	-0.012407062
158	0xbdd53da6	-0.10412149
159	0xbcbb5a59	-0.02287023
160	0xbd94b858	-0.07261723
161	0x3c7282c9	0.014801689
162	0xbdd72049	-0.10504205
163	0xbdb872bc	-0.09006259
164	0xbd2b7562	-0.04185999
165	0x3cefe3e8	0.029283479
166	0xbc89009d	-0.016723925
167	0xbdb38d3c	-0.08767173
168	0xbd934f89	-0.071929045
169	0xbda0aae8	-0.07845098
170	0xbcd908f8	-0.026493534
171	0xbc652f93	-0.013988393
172	0xbc8d9ffa	-0.017288197
173	0xbdaf8ab6	-0.08571379
174	0xbd873236	-0.06601374
175	0xbcb994c7	-0.02265395
176	0xbde58c97	-0.11208456
177	0xbdf1ee51	-0.11813033
178	0xbdbcdd7d	-0.09221933
179	0xbdde891c	-0.10865995
180	0xbde584f9	-0.11207003
181	0xbd72c0b4	-0.059265807
182	0xbd379728	-0.04482189
183	0xbdc65969	-0.096850224
184	0xbd955c9a	-0.07293053
185	0x3c25da32	0.010122823
186	0xbdc91156	-0.0981776
187	0xbdf5fbd4	-0.12010923
188	0xbd338a98	-0.043833345
189	0x3ca4c7a7	0.020114733
190	0xbcf9a53f	-0.030474303
191	0xbdb9b231	-0.090671904
192	0xbd2ceaea	-0.04221622
193	0xbdccf092	-0.10006823
194	0xbd9d1e44	-0.07671788
195	0xbc5d8855	-0.013521274
196	0xbd0ed3bc	-0.034869894
197	0xbd6b198b	-0.057397407
198	0xbcc4ae16	-0.024008792
199	0xbd65c5f3	-0.056096982
200	0xbb948083	-0.0045319214
201	0xbd3fc267	-0.046816256
202	0xbc403a5b	-0.011732663
203	0xbd3f153b	-0.046651106
204	0xbd40928d	-0.04701476
205	0x3a94db9e	0.0011356955
206	0xbd68c517	-0.056828585
207	0xbdc04afc	-0.09389302
208	0xbd01868e	-0.031622462
209	0xbd93b5e6	-0.07212429
210	0xbd97578f	-0.07389747
211	0xbdf3c86a	-0.1190346
212	0xbd85a979	-0.06526465
213	0xbde5db54	-0.11223474
214	0xb9246ca1	-0.00015680726
215	0xbd985037	-0.07437175
216	0xbd186d4e	-0.037213616
217	0xbd07ae90	-0.03312546
218	0xbdedb4bf	-0.1160674
219	0xb988c453	-0.00026086214
220	0xbd63ae04	-0.055585876
221	0xbc234e52	-0.0099674035
222	0xbd9eb651	-0.07749618
223	0xbde4c250	-0.11169875
224	0xbdc5c137	-0.096559934
225	0x3af831ed	0.0018935777
226	0x3b413085	0.0029478383
227	0x3c31c957	0.010851226
228	0xbda0fe68	-0.07861024
229	0xbdd3f543	-0.10349514
230	0xbc247d17	-0.010039589
231	0xbd8657e2	-0.06559731
232	0xbc4c40a8	-0.012466587
233	0xbdd567ed	-0.10420213
234	0xbda9ac6f	-0.08284842
235	0x3c527370	0.012844905
236	0xbdb2a3d7	-0.08722656
237	0xbda1ba08	-0.07896811
238	0xbdf72116	-0.120668575
239	0xbda56072	-0.08075036
240	0xbd3cc901	-0.04609013
241	0xbdfc4e61	-0.12319637
242	0xbd8a6eed	-0.06759439
243	0xbbf1eda3	-0.007383065
244	0xbe522d82	-0.20525172
245	0xbd44f328	-0.048083454
246	0xbc78df12	-0.015189903
247	0xbd9db836	-0.07701151
248	0x3cdbf5ec	0.026850663
249	0xbd83f139	-0.06442494
250	0xbd929cd5	-0.071588196
251	0xbcb97dd5	-0.02264301
252	0xbc42fea1	-0.011901529
253	0xbcbde4df	-0.023180423
254	0xbc579d0d	-0.013160002
255	0xbdb50da9	-0.08840496

network.4.weight f4 [256, 256]
0	0xbdd3c489	-0.103402205
1	0x38bfa922	9.139093e-05
2	0xbdad99f7	-0.08476632
3	0xbd8d0f3c	-0.06887671
4	0xbd14b5ce	-0.036306195
5	0xbd40c758	-0.04706511
6	0xbdda0ef9	-0.10647387
7	0xbd34da73	-0.044153642
8	0xbd9be48a	-0.0761195
9	0x3a9fdc59	0.0012196406
10	0xbcf9f463	-0.03051204
11	0xbd853f48	-0.065062106
12	0xbd42bb43	-0.047541868
13	0xbd551a20	-0.052026868
14	0xbb81a68d	-0.003956622
15	0xbd85844c	-0.06519374
16	0xbd692327	-0.05691829
17	0xbc53cffa	-0.012928003
18	0xbce87489	-0.02837588
19	0x3c7addcb	0.015311669
20	0xbc51e69c	-0.012811329
21	0xbdc0d90f	-0.09416401
22	0xbcb345e1	-0.021883907
23	0xbdaa94b5	-0.08329145
24	0xbdaab02b	-0.083343826
25	0xbd7ef820	-0.06224835
26	0xbd836c2c	-0.064171165
27	0xbd5f4130	-0.054505527
28	0xbd9eb0c0	-0.07748556
29	0xbd49af3e	-0.04923939
30	0xbd0f49c5	-0.03498246
31	0xbd81ca8a	-0.063374594
32	0xbdc51b2d	-0.09624324
33	0xbd85abfb	-0.06526943
34	0xbc169156	-0.009189924
35	0xbca80abd	-0.020512933
36	0xbdc021a6	-0.09381418
37	0xbcd7a713	-0.026324784
38	0x3cf5059e	0.029909905
39	0xbd39e80b	-0.04538731
40	0xbd40bb32	-0.047053523
41	0xbce70493	-0.028200423
42	0xbb5480c9	-0.0032425395
43	0xbd8bcd08	-0.06826216
44	0xbd4647cc	-0.048408315
45	0xbd83a959	-0.06428785
46	0xbaea3f96	-0.0017871733
47	0xbd931590	-0.07181847
48	0xbdd2abbb	-0.10286661
49	0xbdd92f87	-0.10604768
50	0xbd7ec73d	-0.062201727
51	0xbbcc42de	-0.006233557
52	0xbdb17ad6	-0.08666007
53	0xbd273bda	-0.040828563
54	0xbcba978c	-0.022777341
55	0xbd1590ab	-0.03651492
56	0xbccb6b8c	-0.024831556
57	0xbde69ee6	-0.11260776
58	0xbdf37f79	-0.11889548
59	0xbd234f03	-0.039870273
60	0xbd1ad29a	-0.0377985
61	0xbdcde076	-0.10052578
62	0xbc28ea47	-0.010309762
63	0xbd2542fc	-0.040347084
64	0xbc7b2b37	-0.015330127
65	0xbdaf4fb2	-0.085601225
66	0xbd188a51	-0.037241284
67	0xbcad27a1	-0.02113706
68	0xbca5b5c7	-0.02022828
69	0xbd5f3f10	-0.0545035
70	0x3931b0b3	0.00016945861
71	0xbded144a	-0.115761355
72	0xbd3ca6ef	-0.046057638
73	0xbd4cd316	-0.050005995
74	0xbdf03669	-0.11729128
75	0xbd87d704	-0.06632808
76	0xbcad98f3	-0.021191096
77	0xbdfaf3bf	-0.12253522
78	0xbd4875cc	-0.048940465
79	0xbcbd00f3	-0.023071742
80	0xbd21bb72	-0.039485402
81	0xbdede523	-0.1161597
82	0xbdab9914	-0.08378807
83	0xbc930308	-0.017945781
84	0xbdc186a9	-0.094495125
85	0xbdb8f464	-0.09030989
86	0xbdd2c66e	-0.10291754
87	0xbd03e389	-0.032199416
88	0x3ac8e09f	0.0015325731
89	0xbd1d9da6	-0.038480423
90	0xbdeea49a	-0.11652489
91	0xbd169ea7	-0.036772396
92	0xbda7b542	-0.08188869
93	0xbdd59f8c	-0.10430822
94	0xbdae262d	-0.08503375
95	0xbcd20c5d	-0.02564066
96	0xbd592ddc	-0.05302225
97	0xbd02f14f	-0.03196841
98	0xbddd41af	-0.10803544
99	0xbd72b95e	-0.05925881
100	0x38c07814	9.17764e-05
101	0xbb9c02e1	-0.0047610854
102	0xbc595c14	-0.013266582
103	0xb9fd69a3	-0.00048334626
104	0xbcb83dd3	-0.022490418
105	0xbc19fd44	-0.009398762
106	0xbd72dbe8	-0.05929175
107	0xbd85331b	-0.06503888
108	0xbdcb3e2b	-0.09923967
109	0xbd972a4e	-0.07381116
110	0xbd60fac9	-0.054926667
111	0xbab804c8	-0.0014039511
112	0xbdebd1ff	-0.11514663
113	0xbd84a02e	-0.06475864
114	0xbda14756	-0.078749344
115	0xbcd97424	-0.026544638
116	0xbd83677b	-0.06416222
117	0xbce40801	-0.027835848
118	0xbd0d7557	-0.034535732
119	0xbd9bff1c	-0.076170176
120	0xbd8dd573	-0.06925478
121	0xbdf3c25b	-0.11902305
122	0xbdb64519	-0.08899898
123	0xbd40febc	-0.047117934
124	0xbd1ebbf9	-0.038753483
125	0xbc8a96d6	-0.016917627
126	0xbd64be3c	-0.055845484
127	0xbddbd0f5	-0.10733215
128	0xbd07d065	-0.033157725
129	0xbdbf4db2	-0.09340991
130	0xbcb56c5b	-0.022146394
131	0xbdf61b5e	-0.120169386
132	0xbd964517	-0.073373966
133	0xbce23b9a	-0.02761631
134	0xbd5f5101	-0.05452061
135	0xbc9f31ea	-0.01943298
136	0xbd426b82	-0.04746581
137	0xbdb51714	-0.088422924
138	0xbd848f70	-0.06472671
139	0xbcf8621e	-0.030320223
140	0x3d916b6e	0.07100569
141	0xbaf23fd4	-0.0018482157
142	0xbddc099b	-0.107440196
143	0xbdc11324	-0.09427479
144	0xbd1aef9a	-0.037826158
145	0xbdd7c186	-0.105349585
146	0xbdd29234	-0.10281792
147	0xbdcd25a9	-0.10016949
148	0xbd4fa999	-0.05069885
149	0xbd3d45ff	-0.04620933
150	0xbd0ae0c2	-0.033905752
151	0xbd9cad59	-0.07650251
152	0xbda4125d	-0.08011315
153	0xbdbbb166	-0.091646954
154	0xbc273171	-0.010204659
155	0xbd743c37	-0.059627738
156	0xbdab6a1a	-0.08369847
157	0xbc272c54	-0.01020344
158	0xbd64bfe3	-0.05584706
159	0xbc234c4f	-0.009966924
160	0xbdb76fba	-0.08956857
161	0xbc10a3d1	-0.008828119
162	0xbda92faf	-0.08261048
163	0xbd847651	-0.064678796
164	0x3d34a4ab	0.044102352
165	0xbdd559f7	-0.1041755
166	0xbcf5a58b	-0.029986164
167	0xbc93c5f1	-0.018038722
168	0xbcc1e3e4	-0.023668237
169	0xbdee35b2	-0.11631335
170	0x3abdd778	0.001448377
171	0xbd9bd032	-0.076080695
172	0xbd6ed197	-0.05830535
173	0xbd78137d	-0.06056546
174	0xbd970f5a	-0.07375975
175	0xbc569bdf	-0.013098686
176	0x3d2cb062	0.0421604
177	0x3cf8eb46	0.030385625
178	0xbab01c88	-0.0013436237
179	0xbda5253d	-0.08063743
180	0xbd9a1368	-0.07523233
181	0xbc95ecd5	-0.018301407
182	0xbdcd3a49	-0.10020883
183	0xbb55e48e	-0.003263745
184	0xbdd8e80a	-0.10591133
185	0xbdee54d2	-0.11637272
186	0xbc1b7712	-0.009488838
187	0xbdae0c27	-0.084984116
188	0xbb3a491b	-0.0028424922
189	0xbdc9a9a1	-0.09846807
190	0xbd95f4d4	-0.07322088
191	0xbdd7ba42	-0.10533573
192	0xbd3b5662	-0.045736678
193	0xbd92a9c7	-0.07161289
194	0xbd804d7a	-0.062647775
195	0xbda8f74a	-0.08250292
196	0xbdcedf72	-0.101012126
197	0xbc55d9d5	-0.0130524235
198	0xbc8079d5	-0.015683094
199	0xbdc0ea15	-0.094196476
200	0xbcef77db	-0.029231956
201	0xbbb51347	-0.0055259797
202	0xbdb72873	-0.08943262
203	0xbdcfb183	-0.101412795
204	0xbbd94ebc	-0.0066317003
205	0xbd1ed634	-0.0387785
206	0xbd73ae98	-0.059492677
207	0xbddc30f1	-0.10751522
208	0xbd2f52bb	-0.042803507
209	0x3d6add95	0.057340223
210	0xbdb36d3a	-0.08761068
211	0xbd601d92	-0.0547157
212	0xbd1cc348	-0.038272172
213	0xbc3fa466	-0.0116969105
214	0xbde7884e	-0.11305295
215	0xbb9e5b57	-0.004832666
216	0xbc02ac0e	-0.007975591
217	0xbd290efc	-0.041274056
218	0xbc440f30	-0.011966512
219	0xbdd7196b	-0.10502895
220	0xbc4efc9c	-0.012633469
221	0xbdea34ad	-0.11435828
222	0xbd904c5f	-0.07045817
223	0xbdbf636e	-0.093451366
224	0xbda359b5	-0.07976095
225	0xbdc72e1a	-0.0972559
226	0xbda59cf8	-0.0808658
227	0xbdc200ee	-0.094728336
228	0xbd4ac779	-0.04950664
229	0xbabb943e	-0.0014311147
230	0xbdf480fe	-0.11938666
231	0xbd8b01d1	-0.06787456
232	0xbcf2d3a2	-0.02964193
233	0x3dc4b6de	0.09605192
234	0xbdd2c441	-0.10291339
235	0xbdb018e9	-0.08598501
236	0xbd9e0f50	-0.077177644
237	0xbda7490e	-0.08168231
238	0xbdeb1b2b	-0.11479791
239	0xbc9efb2f	-0.019406883
240	0xbc394761	-0.011308522
241	0xbdf19648	-0.11796242
242	0xbd97a111	-0.07403768
243	0xbd0ae6de	-0.03391158
244	0x3c8e02c0	0.017335296
245	0xbd8e2a79	-0.06941695
246	0xbca6ec52	-0.020376358
247	0xbd95473e	-0.07288979
248	0xbd468ab2	-0.048472114
249	0xbdb438db	-0.08799907
250	0xbd15382f	-0.036430534
251	0xbd0d1e10	-0.034452498
252	0xbce45fe9	-0.027877765
253	0xbdcf257c	-0.101145715
254	0xbda8bfac	-0.082396835
255	0x3dbc05dd	0.09180806

network.4.bias f4 [256]
0	0xbd7753a4	-0.0603825
1	0xbd99340a	-0.07480629
2	0xbd9b8e69	-0.07595522
3	0xbda2bba4	-0.07945946
4	0xbdb1831a	-0.08667584
5	0xbdc48535	-0.0959572
6	0xbdc9c405	-0.09851841
7	0xbdbcf471	-0.09226311
8	0xbd04ba42	-0.03240419
9	0xbd8cbbef	-0.06871783
10	0xbcd47133	-0.025932884
11	0xbdb77803	-0.08958437
12	0xbdacb81a	-0.08433552
13	0xbed1f385	-0.41006103
14	0xbd40f06e	-0.04710429
15	0xbd8d2c55	-0.06893221
16	0x3dda17e7	0.1064909
17	0xbe87b890	-0.26507998
18	0xbe1ee51f	-0.1551709
19	0xb9e4bb25	-0.00043626982
20	0xbdab31d4	-0.08359113
21	0xbdfe928b	-0.124302946
22	0xbd9b5b73	-0.07585802
23	0xbc4ce60d	-0.01250602
24	0xbd576b00	-0.052592278
25	0xbd055577	-0.03255221
26	0xbd205164	-0.03914012
27	0xbe863fcf	-0.26220557
28	0x3d9b805d	0.07592843
29	0xbdbf5b19	-0.093435474
30	0xbdbb69fe	-0.09151076
31	0xbdbaf842	-0.09129383
32	0xbdceedea	-0.10103972
33	0xbd43f94c	-0.04784517
34	0xbbdf8d68	-0.006822277
35	0xbdb1c16b	-0.0867947
36	0xbd1fe65e	-0.039038055
37	0xbd09d796	-0.033652864
38	0xbd9218e8	-0.07133657
39	0xbd8b18d0	-0.06791842
40	0xbd99f05d	-0.07516549
41	0xbda88071	-0.08227623
42	0xbd049736	-0.03237077
43	0xbdb076cd	-0.086164095
44	0xbdae35b4	-0.08506337
45	0xbea7cadc	-0.32771957
46	0xbdef4707	-0.11683469
47	0xbd54027c	-0.05176018
48	0xbd94eb25	-0.07271413
49	0xbd7a7b19	-0.06115255
50	0xbd64231f	-0.055697557
51	0xbd44bce7	-0.048031714
52	0xbddd7b3e	-0.10814522
53	0xbcc94acd	-0.0245718
54	0xbd9d1cbd	-0.07671497
55	0xbd2c4daf	-0.042066272
56	0xbdb39750	-0.08769095
57	0xbc8a662c	-0.016894422
58	0xbd9c572f	-0.076338165
59	0xbdda1080	-0.106476784
60	0xbdc1bf1c	-0.09460279
61	0xbe3840e7	-0.17993508
62	0x3d6a0f3c	0.057143435
63	0x3d8add5e	0.06780504
64	0xbd91aec9	-0.07113416
65	0xbd6523cf	-0.055942353
66	0xbd7f49ff	-0.062326428
67	0xbd186a9f	-0.037211057
68	0xbe534d32	-0.20634916
69	0x3d1633d1	0.03667051
70	0xbd4a1a89	-0.049341712
71	0x3ee71000	0.45129395
72	0xbd17d7e1	-0.037071113
73	0xbdad4128	-0.08459693
74	0x3dc320f5	0.095277704
75	0xbd91cdc5	-0.071193255
76	0xbda38da4	-0.07986
77	0xbe8422e6	-0.25807875
78	0xbe9ba710	-0.30400896
79	0xbca5378d	-0.02016809
80	0xbd2e2c39	-0.042522643
81	0xbd45356e	-0.048146658
82	0x3b1b2918	0.0023675617
83	0xbded1965	-0.11577109
84	0xbcd10133	-0.025513267
85	0xbda6682a	-0.081253365
86	0xbdbfa04a	-0.093567446
87	0xbd2f0a48	-0.042734414
88	0xbd461d7c	-0.048367962
89	0xbdc89d44	-0.09795621
90	0x3d5498aa	0.051903404
91	0xbbf9ddfd	-0.00762534
92	0xbef023f7	-0.4690244
93	0xbd213f8e	-0.03936725
94	0xbd1a6952	-0.037698098
95	0xbdb89bd7	-0.09014099
96	0xbd71d029	-0.059036408
97	0xbd344242	-0.0440085
98	0xbe932137	-0.28736278
99	0xbe39ea5b	-0.18155806
100	0xbcfeea50	-0.031117588
101	0xbdb1c7ce	-0.08680688
102	0xbda3c5df	-0.07996725
103	0xbf362ed4	-0.71165204
104	0xbd2fe71b	-0.04294501
105	0xbd683415	-0.056690294
106	0xbd2d715b	-0.042344432
107	0xbde28617	-0.11060732
108	0xbdbfed12	-0.093713894
109	0xbd813177	-0.06308263
110	0xbdb01b66	-0.08598976
111	0xbd9a1136	-0.07522814
112	0xbdb90b7e	-0.09035395
113	0xbf436648	-0.76327944
114	0xbe137c72	-0.14402941
115	0xbc82c150	-0.01596132
116	0xbe8a3cab	-0.2699941
117	0x3d279e8d	0.04092269
118	0xbd9de6ca	-0.07710035
119	0xbd4d0a4a	-0.05005864
120	0xbefb327c	-0.49061954
121	0xbd355127	-0.044266846
122	0xbd7690db	-0.06019674
123	0xbdb64443	-0.08899739
124	0xbc241f52	-0.010017233
125	0xbdadbe36	-0.084835455
126	0xbd80b4ba	-0.06284471
127	0xbd69f0fb	-0.057114583
128	0xbdfa9027	-0.12234526
129	0xbddcf455	-0.1078879
130	0xbcaeb86c	-0.021328174
131	0xbdc740be	-0.097291455
132	0xbde6d005	-0.11270145
133	0xbddf1a1a	-0.1089365
134	0xbd540c05	-0.051769275
135	0xbc19ecd3	-0.009394842
136	0x3cddc0a7	0.027069403
137	0xbdd1bec5	-0.102414645
138	0xbd7a6a0e	-0.061136298
139	0xbd5eee52	-0.0544265
140	0xbd5025a5	-0.05081715
141	0xbd5ebbd5	-0.05437835
142	0xbebc71c4	-0.36805546
143	0xbda123dd	-0.078681685
144	0xbd669437	-0.056293692
145	0xbd9aff81	-0.07568265
146	0xbd131336	-0.035906993
147	0x3e28f433	0.16499405
148	0xbd0ddd7d	-0.034635056
149	0xbd12a77f	-0.035804268
150	0xbe6a9236	-0.22907338
151	0xbd7176d7	-0.058951225
152	0xbd333558	-0.043752044
153	0xbd5772f6	-0.05259987
154	0xbdac0613	-0.08399596
155	0xbdc3da52	-0.09563126
156	0xbd94b8db	-0.07261821
157	0x3eb8e6da	0.36113626
158	0xbd9fda84	-0.078053504
159	0xbdbe0466	-0.09278183
160	0xbdba4abc	-0.09096286
161	0x3db49f0b	0.088193975
162	0xbd69b93e	-0.057061426
163	0xbd16a0c2	-0.036774404
164	0xbcfc0aac	-0.030766807
165	0xbe2a0080	-0.16601753
166	0xbd75a2ec	-0.059969828
167	0xbda480a4	-0.08032349
168	0xbdc27dbe	-0.0949664
169	0xbd8b0247	-0.06787544
170	0xbd2f9d20	-0.042874455
171	0xbd6ad964	-0.057336226
172	0xbe1c73f8	-0.15278614
173	0xbe28ab8a	-0.16471687
174	0xbce6c624	-0.028170653
175	0xbdc89377	-0.09793752
176	0x3dd19b66	0.10234718
177	0xbd486ce8	-0.048931986
178	0xbca6c303	-0.02035666
179	0xbdfa50da	-0.122224525
180	0xbd2e4582	-0.042546757
181	0xbcfc874f	-0.030826239
182	0xbec710c1	-0.3887997
183	0xbdc2b8e9	-0.09507925
184	0xbd86a876	-0.065751
185	0xbdda8222	-0.10669352
186	0xbd9cbe20	-0.07653451
187	0xbdbc6fc7	-0.09201007
188	0xbd13fa60	-0.036127448
189	0xbd3d72e0	-0.04625213
190	0xbd670f36	-0.05641099
191	0xbd8737ac	-0.066024154
192	0xbd758cc8	-0.059948713
193	0xbd4441de	-0.04791438
194	0x3d8f5340	0.069983006
195	0x3d7b6fd2	0.061385937
196	0xbd928947	-0.0715509
197	0xbe35b844	-0.17746073
198	0xbd81d0d0	-0.06338656
199	0xbca07d48	-0.019590989
200	0xbd70a338	-0.058749408
201	0xbd4d36c9	-0.050101075
202	0xbd9375e6	-0.07200222
203	0xbd0ad346	-0.033892892
204	0xbdeef884	-0.11668494
205	0xbd837bbc	-0.06420085
206	0xbdc23580	-0.094828606
207	0xbe0d1cfe	-0.13780591
208	0xbdfa59a1	-0.122241266
209	0xbe626ef5	-0.22112639
210	0xbdfbddfd	-0.122982
211	0xbdd439cc	-0.103625864
212	0xbea2897a	-0.3174551
213	0x3db2efd3	0.08737149
214	0xbd1b39b1	-0.037896816
215	0xbd5ea127	-0.054352906
216	0xbd3a2315	-0.045443613
217	0xbdca19af	-0.0986818
218	0xbdcb9469	-0.09940416
219	0xbd98a02d	-0.07452426
220	0x3d422435	0.04739781
221	0xbdcb6716	-0.099317715
222	0xbde24459	-0.110481925
223	0xbd900fa5	-0.07034234
224	0xbdc2714d	-0.09494267
225	0xbc21ea54	-0.009882528
226	0xbd2f38e9	-0.042778883
227	0xbd97ebb0	-0.07418001
228	0xbdde1c8a	-0.10845287
229	0xbdd0554c	-0.10172519
230	0xbd683576	-0.05669161
231	0xbded274d	-0.11579762
232	0xbdf4460e	-0.11927424
233	0xbd45ca7d	-0.04828881
234	0xbea371bc	-0.3192271
235	0xbd896cb8	-0.067101896
236	0xbdb77c38	-0.0895924
237	0xbdcaa211	-0.09894193
238	0xbd67386c	-0.056450292
239	0xbc96de0e	-0.01841643
240	0xbd6bed17	-0.057599153
241	0xbdb4f634	-0.08836022
242	0xbd98d47b	-0.074624024
243	0xbdbb88fb	-0.09156986
244	0xbd4b34d3	-0.049610924
245	0xbd3a1781	-0.04543257
246	0x3de26724	0.11054829
247	0x3d2589cc	0.040414616
248	0xbd363aa8	-0.044489533
249	0xbd98ae5e	-0.07455133
250	0xbe2f7963	-0.17136149
251	0xbe52e829	-0.20596375
252	0xbdbd03fe	-0.09229277
253	0xbce759e7	-0.028241111
254	0xbd989683	-0.07450583
255	0xbde5b6c1	-0.11216498

network.6.weight f4 [256, 256]
0	0x3d444907	0.047921207
1	0xbcb0400f	-0.02151492
2	0x3c925dad	0.017866934
3	0x3bf3c748	0.0074395277
4	0xbc5ead9d	-0.013591197
5	0xbd8dd7fd	-0.06925962
6	0xbd907524	-0.07053593
7	0xbd9d99f4	-0.0769538
8	0x3db53c61	0.08849407
9	0x3ddecfc8	0.10879475
10	0xbb6ab231	-0.0035811777
11	0xbb8f905c	-0.0043812227
12	0xbd569adb	-0.052393775
13	0xbdc11a7b	-0.09428879
14	0xbd70c548	-0.058781892
15	0xbc272289	-0.010201105
16	0x3b823394	0.0039734337
17	0xbd62ef49	-0.05540398
18	0x3cff61ef	0.031174628
19	0x3cdfb5d3	0.02730838
20	0xbd9001dd	-0.070316054
21	0xbdc3339c	-0.09531328
22	0x3d8f972b	0.07011255
23	0xbd33d2b9	-0.043902133
24	0xbdd7e7f0	-0.105422854
25	0xbe75fa9d	-0.24021383
26	0x3df17db9	0.11791558
27	0xbe141e57	-0.14464699
28	0x3ca0efa3	0.019645518
29	0x3cfa6fc9	0.030570881
30	0xbd3561d9	-0.044282768
31	0xbd594951	-0.053048436
32	0x3c67856c	0.014130931
33	0x3ccc0bd9	0.024907993
34	0x3dc94420	0.09827447
35	0x3daedc09	0.08538062
36	0x3d516246	0.05111911
37	0x3dcd094e	0.1001154
38	0x3df29d47	0.118464045
39	0xbd9835cf	-0.07432138
40	0xbdc45bfb	-0.095878564
41	0xbbd46157	-0.0064813304
42	0xbd8eb705	-0.06968502
43	0xbb946856	-0.0045290394
44	0xbd8533e3	-0.06504037
45	0xbe051e4d	-0.1299984
46	0x3b6352f5	0.0034686897
47	0xbd4e1ac9	-0.050318513
48	0x3df4462c	0.11927447
49	0xbd6df065	-0.058090586
50	0xbda802f2	-0.08203687
51	0x3c81d725	0.01584966
52	0x3dcb7a68	0.099354565
53	0x3d08837e	0.033328526
54	0x3cca64b5	0.024706224
55	0x3d8a9f88	0.067687094
56	0xbdc2e974	-0.09517184
57	0x3ca6fcb5	0.020384172
58	0xbc856aa7	-0.016286207
59	0xbd52b6e6	-0.051443957
60	0xbd2fe329	-0.042941246
61	0xbea6d4f2	-0.3258434
62	0x3dd11a91	0.10210145
63	0x3d236086	0.039886974
64	0xbdc7d8d3	-0.09758153
65	0xbd9869c7	-0.074420504
66	0xbd3e2d35	-0.04642983
67	0xbdb88d95	-0.0901138
68	0x3eba457f	0.36381146
69	0x3dd47fcb	0.10375937
70	0x3dbb6659	0.09150381
71	0x3eacb4ef	0.3373179
72	0xbd8cb724	-0.06870869
73	0xbd673a92	-0.05645234
74	0x3d6eb3ee	0.058277063
75	0x3c8770bf	0.016533254
76	0xbd7f0a5f	-0.06226575
77	0xbd9243c0	-0.071418285
78	0xbf873969	-1.0564395
79	0xbe02623a	-0.12732783
80	0xbd3a1807	-0.04543307
81	0xbdbcfdea	-0.09228118
82	0xbdc6c8a0	-0.09706235
83	0xbdc73add	-0.09728024
84	0xbd82f9f1	-0.06395329
85	0xbd643708	-0.055716544
86	0x3d97ed5f	0.07418322
87	0x3de0b645	0.10972265
88	0xbd1377a9	-0.03600279
89	0x3d2fc060	0.042908072
90	0x3e2e7f22	0.17040685
91	0xbb8057a3	-0.003916697
92	0xbff7bdff	-1.9354857
93	0xbcceef68	-0.025260642
94	0xbb885d7d	-0.0041615353
95	0x3c700c37	0.01465135
96	0x3d8c791d	0.06859038
97	0xbd93e779	-0.07221884
98	0xbdd35637	-0.103191786
99	0xbf5f054d	-0.87117463
100	0x3d0a6b6a	0.033793844
101	0xbd8e212a	-0.06939919
102	0x3c839ba9	0.016065435
103	0x3b8b45da	0.0042502703
104	0x3d9705cc	0.073741525
105	0xbd4f8649	-0.050665174
106	0x3d883963	0.06651571
107	0x3dddf3ab	0.108374916
108	0xbd6d684b	-0.05796079
109	0xbcaef771	-0.021358224
110	0xbdc8724a	-0.09787424
111	0xbc70ecfe	-0.014704941
112	0x3d0222b1	0.031771366
113	0x3f017231	0.5056487
114	0xbe42d011	-0.19024684
115	0x3e10c734	0.1413849
116	0xbda1b0c6	-0.07895045
117	0x3e0ed27a	0.13947478
118	0x3d5e8eea	0.054335512
119	0xbd344728	-0.044013172
120	0xbd82ea11	-0.06392301
121	0xbd2a8a6a	-0.04163591
122	0x3bc45538	0.005991604
123	0xbbe03804	-0.006842615
124	0xbda43b76	-0.08019154
125	0xbb855d1f	-0.004069939
126	0xbd8f4c8c	-0.06997022
127	0xbca715a7	-0.020396067
128	0x3d7dc57b	0.06195591
129	0xbca5c19f	-0.020233927
130	0x3dbe0686	0.09278588
131	0xbb89207d	-0.004184781
132	0xbcd3a71e	-0.025836524
133	0x3b2acd9e	0.0026062499
134	0x3cb77c71	0.022398205
135	0x3c8a7f41	0.016906383
136	0xbe7c72b0	-0.24653125
137	0xbcd84246	-0.02639879
138	0xbd9c8f32	-0.076445
139	0x3b26bde8	0.0025442783
140	0x3bb76810	0.005597122
141	0x3d975aaf	0.073903434
142	0xbdcd3e54	-0.10021654
143	0xbc929cfb	-0.01789712
144	0xbbd55d78	-0.0065113865
145	0x3c5bbf84	0.01341236
146	0xbd2e88a6	-0.042610787
147	0x3d2e79a9	0.042596493
148	0x3d70b4e4	0.05876626
149	0xbdbfd8ef	-0.09367549
150	0x3dcbb9b4	0.099475294
151	0x3c8118d2	0.015758906
152	0xbd61544c	-0.055012032
153	0x3dd58eb2	0.104276076
154	0xbd810831	-0.063003905
155	0x3daffba5	0.08592919
156	0xbd3adc76	-0.045620404
157	0xbdb0e71e	-0.08637832
158	0x3d6f3453	0.05839951
159	0xbb86dfe1	-0.004116044
160	0xbd576740	-0.0525887
161	0xbe9a0341	-0.30080608
162	0xbd52b51f	-0.05144226
163	0xbc221962	-0.009893747
164	0x3d48c232	0.049013324
165	0x3db631e9	0.08896238
166	0x3d2eccc5	0.042675752
167	0xbdcce035	-0.100037016
168	0x3de1cc6c	0.110253185
169	0xbda6cd8a	-0.08144672
170	0x3c9b3f8e	0.018951204
171	0xbc62068d	-0.013795507
172	0xbddf1e7c	-0.10894486
173	0xbe4c0cf6	-0.19926819
174	0x3d701609	0.058614764
175	0xbd5bae5c	-0.05363308
176	0x3c450b87	0.012026674
177	0x3da64f81	0.08120633
178	0x3deff27b	0.11716171
179	0x39a09069	0.00030625172
180	0x3dced96f	0.10100066
181	0xbd7c8e4c	-0.061659142
182	0xbe78d3b3	-0.24299507
183	0xbdb5dbf6	-0.08879845
184	0xbd810fdf	-0.06301855
185	0x3b89dbb5	0.0042070993
186	0xbbd00926	-0.006348747
187	0x3e1a8b10	0.1509211
188	0x3c238699	0.009980821
189	0xbd58be28	-0.052915722
190	0xbdd27fc9	-0.10278279
191	0x3d7b19ed	0.06130402
192	0x3d469859	0.048485134
193	0x3d3fd898	0.04683742
194	0xbd2dddea	-0.042447962
195	0x3ce66324	0.028123446
196	0x3c9c340c	0.019067787
197	0x3e4aaf0f	0.19793342
198	0x3ddd72a9	0.10812885
199	0xbc8393b1	-0.016061636
200	0xbd8db986	-0.069201514
201	0xbcf26326	-0.029588293
202	0xbdec8107	-0.115480475
203	0xbc55fd03	-0.013060811
204	0x3d827a59	0.06370992
205	0x3d4344d3	0.047673058
206	0x3bde1fbb	0.006778685
207	0xbd8f94da	-0.07010813
208	0x3d23937f	0.039935585
209	0xbeb47e88	-0.35252786
210	0xbca285e5	-0.019839237
211	0x3cc91f0f	0.024550943
212	0xbeabe1e7	-0.33570787
213	0x3b805b4a	0.0039171325
214	0xbd61dc2d	-0.055141617
215	0x3dd0c94c	0.10194644
216	0x3d98e427	0.074653916
217	0xbc994a2e	-0.01871213
218	0xbdbdca6e	-0.09267126
219	0x3e126734	0.14297181
220	0x3e9ffc12	0.31247002
221	0x3d62669a	0.05527363
222	0x3d71e71a	0.059058286
223	0xbd863428	-0.06552917
224	0xbd860abd	-0.06545017
225	0x3d66529b	0.056231122
226	0x3dc0d4eb	0.09415611
227	0xbdd909db	-0.10597583
228	0x3d4a48d4	0.04938586
229	0xbd7cea69	-0.06174699
230	0x3d92cbd0	0.071677804
231	0x39e7c309	0.00044205066
232	0x3dbefc28	0.09325439
233	0x3e068836	0.13137898
234	0xbdcf24b8	-0.101144254
235	0x3d03b375	0.032153565
236	0xbd48cb5a	-0.049022056
237	0xbdee4289	-0.11633784
238	0x3c9c980b	0.019115468
239	0x3ca25cd3	0.019819653
240	0x3cdbb720	0.02682072
241	0x3da2fc0e	0.07958232
242	0xbd838585	-0.06421951
243	0xbd9e96d5	-0.07743613
244	0xbd7fc067	-0.06243935
245	0xbdb41a73	-0.08794107
246	0x3d915422	0.07096125
247	0x3dbd1b77	0.09233754
248	0xbd983694	-0.07432285
249	0xbd7605e7	-0.060064223
250	0xbe07c1d8	-0.1325754
251	0xbe37452e	-0.17897484
252	0xbd877391	-0.066138394
253	0xbd991ee3	-0.07476594
254	0x3aaea3b3	0.0013323933
255	0x3da8d530	0.08243787
