project4/assets/part_1_img/freq_3_width_64/model.pth (torch, 57884 bytes, 10 tensors)

network.0.weight f4 [64, 14]
0.04473806 0.1526363 -0.25733492 0.11741723 0.009001693 -0.0638559 0.7502416 0.32234314
0.24414115 0.08138074 0.8345825 0.09356841 -0.117325 -0.11198964 -0.26220304 0.018901218
0.29260176 0.038084697 0.23438492 -0.010503484 -0.23757364 -0.19588232 -0.33542085 -0.3676231
-0.95395523 0.071491726 0.17265357 -0.27770403 0.10728429 -0.009344057 -0.27613312 0.1468388
-0.39626962 0.31602642 -0.46734628 -0.10408424 -0.24050999 0.30116567 -0.67856145 0.29744595
0.5944087 -0.38853434 -0.43601787 -0.10088986 0.1874368 0.031007402 0.21352099 -0.3278167
0.24914567 -0.041966792 0.11753449 -0.26366496 0.5501794 -0.396732 0.10979009 -0.3883216
-0.3225323 0.18852878 -0.33566973 -0.06685704 0.0412693 -0.2938778 -1.3788115 -0.14573699
-0.29097357 -0.29617712 -1.1668458 -0.1785967 0.24775447 0.061538227 0.07500871 -0.3890809
0.06021638 -0.28972322 -0.005892896 0.42584887 0.21754715 -0.5932818 -0.07097633 0.10012319
-0.24440302 -0.6368336 -0.23314843 -0.3167915 0.11173772 -1.2051632 -0.13141412 -0.8320444
0.010084027 0.40815613 -0.36922303 -1.0807079 -0.29479247 -0.056248475 0.33993265 -1.4248669
-0.21257073 0.45211822 0.19389239 -0.02454144 -0.19478644 0.32803175 0.33395258 -0.17934807
0.038289286 0.34015754 0.39452785 0.007934101 -0.19965175 -0.45734683 -0.5403176 -0.17449707
0.1799588 -0.011047324 -0.34828836 -0.02780747 -0.1421559 0.14470401 -0.5315505 0.13107613
0.058943577 -0.12888397 -0.7650184 0.26669705 0.06192273 -0.004334346 -0.25995496 -0.3325611
-0.25334218 -0.15833387 -0.16166937 0.05269123 0.29472378 -0.101910844 -0.063312866 -0.32219288
-0.028197667 0.3910748 0.30183548 0.511313 0.08533577 -0.4764021 0.11749189 -0.14707963
-0.18596415 0.23662889 -0.11785592 0.11098349 0.26479948 0.15892367 -0.28803945 -0.49711925
0.21021509 0.28661487 0.10554155 -0.05462749 0.086304426 -0.3341263 -0.31123787 -0.57068807
-0.20303148 0.23699847 -0.10731126 0.1125476 0.55014426 0.76586246 -0.11031918 0.25237876
-0.08766685 0.16742407 -2.042505 0.015285207 0.13664193 0.081755884 1.4417353 0.14385061
0.25742605 -0.04390496 2.1083145 -0.04208795 0.25629988 -0.0551076 -0.22843103 -0.44699267
0.010251768 0.16094498 -0.2904743 0.14143361 -0.3220867 0.058787696 0.03794058 0.034294933
-0.29867557 0.2542121 -0.07677099 -0.022619523 0.10979196 -0.19679072 -0.029570453 0.049654312
-0.30823123 0.15144612 0.0117078945 0.10268409 0.036465812 -0.24018164 -0.85269046 0.37295055
-0.06520577 -0.33715153 -0.2153508 -0.25320786 0.09839191 0.14862955 -0.225159 -0.27769586
-0.10599142 -0.14171603 0.07348853 0.07373412 0.6680106 -0.43364742 -0.082886405 -0.40346503
-0.041506134 -0.08608642 0.06657358 -0.04698879 -0.037097126 -0.44037914 -0.69061905 -0.07760483
0.41095197 -0.27624947 -0.62877953 -0.32747245 -0.38542596 -0.31034803 -0.053707883 -0.13541248
-0.10034226 0.13813284 -0.1887178 0.16636541 0.47096825 0.67057437 0.5280625 0.0089573655
0.085930414 0.6130028 -0.44762927 -0.25674748 0.28594342 0.17997974 -0.26407906 -0.43454883
00000000: 423f 373d b14c 1c3e 67c1 83be 7278 f03d
00000010: d67b 133c e2c6 82bd d50f 403f 290a a53e
00000020: 2300 7a3e f2aa a63d 33a7 553f cba0 bf3d
00000030: 1748 f0bd d35a e5bd 7a3f 86be bad6 9a3c
00000040: e6cf 953e b3fe 1b3d 9a02 703e ce16 2cbc
00000050: 8146 73be 6095 48be 48bc abbe 1839 bcbe
00000060: 6936 74bf 416a 923d 19cc 303e 392f 8ebe
00000070: deb7 db3d d117 19bc 5261 8dbe e95c 163e
00000080: dae3 cabe 37ce a13e 0348 efbe 1e2a d5bd
00000090: 4048 76be 6332 9a3e 34b6 2dbf d64a 983e
000000a0: 2b2b 183f f9ed c6be bc3d dfbe 589f cebd
000000b0: 6fef 3f3e 3c03 fe3c 3fa5 5a3e 97d7 a7be
000000c0: 0b20 7f3e 5fe5 2bbd ecb5 f03d 18ff 86be
000000d0: 8fd8 0c3f 7520 cbbe a0d9 e03d 17d2 c6be
000000e0: f422 a5be b00d 413e e7dc abbe 58ec 88bd
000000f0: ff09 293d 2777 96be e57c b0bf 143c 15be
00000100: 7dfa 94be 87a4 97be 345b 95bf 0ee2 36be
00000110: 59b3 7d3e 820f 7c3d 2b9e 993d 9d35 c7be
00000120: 73a5 763d 9a56 94be 3219 c1bb dd08 da3e
00000130: aec4 5e3e 51e1 17bf 0a5c 91bd 630d cd3d
00000140: c944 7abe 8707 23bf 76be 6ebe 7f32 a2be
00000150: bfd6 e43d ca42 9abf 6c91 06be dd00 55bf
00000160: 7a37 253c d7f9 d03e cd0a bdbe a354 8abf
00000170: 0aef 96be cd64 66bd a70b ae3e 0a62 b6bf
00000180: 24ac 59be 0a7c e73e ba8b 463e 210b c9bc
00000190: 1976 47be c7f3 a73e d5fb aa3e 05a7 37be
000001a0: 3ad5 1c3d 2129 ae3e 8eff c93e 08fe 013c
000001b0: 8271 4cbe 5d29 eabe 4152 0abf 5caf 32be
000001c0: 1f47 383e d6ff 34bc da52 b2be 7ecc e3bc
000001d0: 5191 11be 4a2d 143e b213 08bf d238 063e
000001e0: d26e 713d 29fa 03be 3fd8 43bf 848c 883e
000001f0: b0a2 7d3d 2107 8ebb d118 85be 7345 aabe
00000200: 11b6 81be 4622 22be a88c 25be c2d2 573d
00000210: 09e6 963e a2b6 d0bd 2daa 81bd 77f6 a4be
00000220: cbfe e6bc f53a c83e 2e8a 9a3e 69e5 023f
00000230: 85c4 ae3d faea f3be 979f f03d 0b9c 16be
00000240: 636d 3ebe d84e 723e 725e f1bd 504b e33d
00000250: cc93 873e e3bc 223e e879 93be 6a86 febe
00000260: a042 573e 2fbf 923e 2b26 d83d 13c1 5fbd
00000270: 60c0 b03d 9a12 abbe 925a 9fbe 9d18 12bf
00000280: 7ce7 4fbe baaf 723e 02c6 dbbd 5b7f e63d
00000290: 41d6 0c3f 900f 443f 06ef e1bd ca37 813e
000002a0: ad8a b3bd 3771 2b3e 67b8 02c0 ce6e 7a3c
000002b0: ddeb 0b3e a16f a73d c88a b83f 934d 133e
000002c0: 59cd 833e b0d5 33bd a0ee 0640 6a64 2cbd
000002d0: bd39 833e 82b8 61bd d3e9 69be 39dc e4be
000002e0: 08f7 273c c3ce 243e 0cb9 94be f9d3 103e
000002f0: 8ce8 a4be 5ecb 703d 9567 1b3d d878 0c3d
00000300: 01ec 98be 1728 823e 1c3a 9dbd 944c b9bc
00000310: 9bda e03d 8283 49be bc3d f2bc 5262 4b3d
00000320: 7cd0 9dbe b114 1b3e 78d2 3f3c 094c d23d
00000330: 2d5d 153d 2df2 75be ec49 5abf 60f3 be3e
00000340: 9a8a 85bd 209f acbe ec84 5cbe 76a4 81be
00000350: b381 c93d 5832 183e 1590 66be 272e 8ebe
00000360: 0812 d9bd 021e 11be 2881 963d ea01 973d
00000370: be02 2b3f 0907 debe 59c0 a9bd f892 cebe
00000380: 5602 2abd 144e b0bd bb57 883d 5177 40bd
00000390: 28f3 17bd 6079 e1be 69cc 30bf 48ef 9ebd
000003a0: 4c68 d23e 9270 8dbe b2f7 20bf 78aa a7be
000003b0: 8d56 c5be f0e5 9ebe ccfc 5bbd 92a9 0abe
000003c0: 3e80 cdbd b272 0d3e 3d3f 41be b25b 2a3e
000003d0: c022 f13e c3aa 2b3f 1b2f 073f eac1 123c
000003e0: 49fc af3d c0ed 1c3f aa2f e5be 6874 83be
000003f0: 2d67 923e 9c4c 383e 5f35 87be 2f7d debe

network.0.bias f4 [64]
0.040673837 -0.11004582 -0.15642868 0.0071204696 -0.05000122 0.18615142 0.08275571 -0.19630595
0.079061754 -0.040636856 -0.079052016 -0.22127312 0.18002221 0.16827366 -0.29584074 0.0774246
0.28004593 -0.25014907 0.20987171 0.19792739 -0.25368014 0.06795083 -0.16950735 -0.22189055
-0.10598112 -0.09957294 -0.21142934 0.06431507 -0.27781317 -0.19286579 -0.06928366 -0.14773956
0.05051959 0.21687844 -0.41473168 -0.08397506 0.006394404 0.033680435 -0.33712488 -0.25385925
-0.15445822 5.7577854e-06 -0.09366201 0.05052352 0.018885072 0.01928776 -0.10537278 0.15603706
-0.14247802 -0.0076323655 0.02014195 -0.30145597 -0.24634397 -0.3857215 -0.28515387 0.07493469
-0.19246627 -0.20929772 -0.11949346 0.04028468 -0.08578135 -0.043564793 0.009714584 -0.31193212
00000000: 9c99 263d b45f e1bd d72e 20be d452 e93b
00000010: 14ce 4cbd 7a9e 3e3e d37b a93d 6d04 49be
00000020: 21eb a13d d572 26bd 06e6 a1bd 6c95 62be
00000030: be57 383e ee4f 2c3e 7078 97be ca90 9e3d
00000040: 2e62 8f3e 8a13 80be 9ce8 563e 7aad 4a3e
00000050: 5de2 81be ce29 8b3d 5693 2dbe 4737 63be
00000060: a10c d9bd e6ec cbbd ef80 58be 9fb7 833d
00000070: 873d 8ebe 9c7e 45be 97e4 8dbd 0a49 17be
00000080: a1ed 4e3d 6215 5e3e b657 d4be 1efb abbd
00000090: 2688 d13b 7ff4 093d a29b acbe d7f9 81be
000000a0: 4c2a 1ebe 0033 c136 ded1 bfbd c0f1 4e3d
000000b0: deb4 9a3c 5d01 9e3c afcd d7bd 2ec8 1f3e
000000c0: c2e5 11be ec18 fabb bb00 a53c 7058 9abe
000000d0: 9841 7cbe 4a7d c5be b0ff 91be 5c77 993d
000000e0: e115 45be 2452 56be fdb8 f4bd 8c01 253d
000000f0: 22ae afbd ff70 32bd eb29 1f3c 91b5 9fbe

network.2.weight f4 [64, 64]
-0.18462165 -0.15732129 0.033583026 0.030128168 0.0016395038 0.0784901 -0.2893323 0.11403076
-0.04441981 0.39484546 -0.01804207 0.47451305 -0.20579624 -0.07442096 0.15432723 0.12145276
-0.31226265 -0.10263445 -0.077227555 -0.12840363 -0.42723188 -0.12334743 0.05265021 0.015663233
0.015410911 -0.12408154 0.13778794 -0.022267744 0.46012518 0.05275808 -0.6929785 0.043172322
-0.21837232 -0.17142446 -0.0697692 0.04773347 0.0022002754 0.12434562 -0.19279487 0.14907491
0.17483383 0.14411695 0.21513179 0.13337179 0.10056808 0.008873065 0.033787873 -0.12284647
-0.13939829 -0.03401996 -0.11733482 0.16137518 0.100938864 0.49804398 -0.43626568 0.044485457
-0.14196338 0.317983 -0.012751535 0.012865094 0.23323698 0.11642183 0.09222166 -0.78119373
-0.1870596 0.03704605 -0.08771938 0.07422944 -0.06752148 -0.12071105 0.020041024 0.08673272
-0.13397767 -0.07261445 0.064370416 -0.17382026 -0.11395768 -0.18397541 -0.0729218 -0.16244917
-0.0263619 -0.040129207 0.050596535 -0.15952155 -0.14869055 0.014367697 -0.009709838 0.008105628
-0.19681543 0.07599435 -0.15684986 -0.14080426 -0.07728683 -0.18662505 0.0738666 -0.119313456
-0.113432005 -0.08331918 -0.13786037 -0.18373005 -0.120179705 -0.0168 0.057393026 -0.12633897
0.06206512 -0.07396485 -0.025643345 -0.08576727 -0.15094915 -0.10966437 0.05046235 -0.008458832
-0.034640156 -0.06742754 0.09987337 -0.15229757 0.048318263 -0.09122263 -0.16580456 -0.022594478
-0.10366806 -0.12564975 -0.04577899 0.0005577741 0.006514163 -0.096439 -0.12285331 0.0043890346
0.17820254 -0.10718947 -0.11711416 0.25221723 -0.11584938 0.028886715 0.2844097 0.18050121
0.20823513 0.3632221 0.15257864 -0.17940146 0.1786104 0.04330988 -0.12374533 -0.3200036
0.3178521 0.063673034 0.014022724 -0.05221768 0.061218787 -0.23586689 0.40351716 0.03765158
0.207984 -0.07900303 0.39736268 0.07177514 -0.055337228 -0.23909247 -0.110281125 -0.052742977
-0.0820227 0.3224921 0.045293845 0.14024182 0.17173222 -0.07525778 0.15094955 0.08827736
-0.09587321 0.08237277 -0.30799872 -0.15218474 0.12193828 0.28019363 -0.07676637 0.06584958
0.12185192 -0.055302706 0.29862598 0.016741917 -0.13533476 0.20615396 0.7874627 0.0012779561
0.19877602 -0.09821206 -0.113499396 -0.05230818 -0.5727654 0.20740595 -0.009407763 0.09129144
-0.02423298 -0.22864148 0.24592732 0.31577954 -0.05988432 -0.013740851 0.06604026 0.10202441
0.1787815 0.43562317 0.118675195 -0.3925814 -0.051467508 0.10951129 -0.23730285 0.25125602
0.09158587 0.051707294 -0.09929909 0.24017593 0.17780696 -0.29457396 0.06605772 0.047985375
0.29998353 -0.13352244 0.22571355 -0.06662062 0.044440612 -0.19034156 -0.20216729 0.1604766
-0.462873 0.036853604 -0.15377517 0.3509123 -0.05837497 0.010003582 -0.012821955 0.12269783
0.09893687 -0.094427094 -0.5025879 0.035673983 0.32270965 0.029696452 0.37459952 -0.07502797
-0.005320948 0.17010106 0.1114856 0.013401183 -0.21637517 -0.31876758 0.17091322 0.16178328
0.031359002 0.036089834 -0.08089009 0.29273704 0.061001867 0.17602058 -0.13904999 -0.04909262
00000000: 750d 3dbe d518 21be 5b8e 093d 59cf f63c
00000010: 9ee4 d63a 6bbf a03d 5d23 94be f688 e93d
00000020: 8cf1 35bd 2f29 ca3e f7cc 93bc 60f3 f23e
00000030: 40bc 52be 046a 98bd f507 1e3e 3abc f83d
00000040: e4e0 9fbe 0332 d2bd 7b29 9ebd 3e7c 03be
00000050: 23be dabe 949d fcbd bfa7 573d 2e50 803c
00000060: 0c7e 7c3c 761e febd 4818 0d3e d86a b6bc
00000070: 8795 eb3e db18 583d 0a67 31bf 76d5 303d
00000080: fe9c 5fbe e589 2fbe 28e3 8ebd 2c84 433d
00000090: 7f32 103b eba8 fe3d 056c 45be 18a7 183e
000000a0: a407 333e 6593 133e 824b 5c3e 9d92 083e
000000b0: a3f6 cd3d 5560 113c 2765 0a3d ee96 fbbd
000000c0: 6dbe 0ebe 8358 0bbd 3d4d f0bd 893f 253e
000000d0: 09b9 ce3d 9fff fe3e 375e dfbe 6236 363d
000000e0: d95e 11be abce a23e d0eb 50bc 1dc8 523c
000000f0: add5 6e3e 926e ee3d b6de bc3d 50fc 47bf
00000100: 8d8c 3fbe 99bd 173d 38a6 b3bd 9b05 983d
00000110: b448 8abd 5b37 f7bd 132d a43c eda0 b13d
00000120: 7131 09be e2b6 94bd a3d4 833d f0fd 31be
00000130: a562 e9bd 0d64 3cbe 0658 95bd 1359 26be
00000140: e9f4 d7bc 865e 24bd 503e 4f3d 9e59 23be
00000150: 5642 18be 7d66 6b3c 0316 1fbc 78cd 043c
00000160: fc89 49be eda2 9b3d 409d 20be fe2e 10be
00000170: 8f48 9ebd a31a 3fbe 5f47 973d 9d5a f4bd
00000180: 0a4f e8bd 3fa3 aabd 452b 0dbe bb23 3cbe
00000190: c720 f6bd 27a0 89bc f314 6b3d 015f 01be
000001a0: ff37 7e3d e27a 97bd fe11 d2bc c0a6 afbd
000001b0: 6a92 1abe b797 e0bd 9cb1 4e3d ea96 0abc
000001c0: d6e2 0dbd 7317 8abd 698a cc3d e5f3 1bbe
000001d0: 5fe9 453d eed2 babd acc8 29be 0e18 b9bc
000001e0: eb4f d4bd 54aa 00be c082 3bbd 9637 123a
000001f0: c374 d53b cf81 c5bd 849a fbbd e4d1 8f3b
00000200: ba7a 363e 2786 dbbd 8cd9 efbd 9e22 813e
00000210: 7142 edbd d5a3 ec3c 269e 913e 4fd5 383e
00000220: 973b 553e 3ff8 b93e 933d 1c3e 04b5 37be
00000230: a5e5 363e b365 313d 316e fdbd 83d7 a3be
00000240: 83bd a23e 0267 823d 91bf 653c 35e2 55bd
00000250: 8dc0 7a3d 1787 71be cd99 ce3e 8b38 1a3d
00000260: c2f9 543e 57cc a1bd 1f73 cb3e d8fe 923d
00000270: 4aa9 62bd a8d4 74be 12db e1bd 0509 58bd
00000280: 84fb a7bd af1d a53e 0a86 393d 8d9b 0f3e
00000290: 92da 2f3e c020 9abd 8592 1a3e c3ca b43d
000002a0: 2c59 c4bd 0eb3 a83d 02b2 9dbe 51d6 1bbe
000002b0: c7ba f93d 8a75 8f3e b037 9dbd 25dc 863d
000002c0: 808d f93d 1785 62bd 81e5 983e 5826 893c
000002d0: 3295 0abe 061a 533e 2897 493f 1781 a73a
000002e0: f18b 4b3e 6823 c9bd 5f72 e8bd 1a41 56bd
000002f0: c1a0 12bf 3a62 543e 0523 1abc 02f7 ba3d
00000300: 3e84 c6bc fe20 6abe 5fd4 7b3e dbad a13e
00000310: 4349 75bd 4e21 61bc 1e40 873d 2df2 d03d
00000320: 7f12 373e 000a df3e fb0b f33d 6e00 c9be
00000330: 98cf 52bd 7547 e03d 85ff 72be a1a4 803e
00000340: 5f91 bb3d 07cb 533d 525d cbbd aef0 753e
00000350: 0713 363e 66d2 96be 4549 873d 508c 443d
00000360: 7197 993e 1bba 08be 7421 673e 6470 88bd
00000370: 5c07 363d e6e8 42be f104 4fbe fa53 243e
00000380: b1fd ecbe cef3 163d 3d77 1dbe c7aa b33e
00000390: 981a 6fbd 10e6 233c 2d13 52bc 0049 fb3d
000003a0: 6a9f ca3d fe62 c1bd 9aa9 00bf e21e 123d
000003b0: 333a a53e f945 f33c 82cb bf3e 44a8 99bd
000003c0: 595b aebb f92e 2e3e 9052 e43d a390 5b3c
000003d0: 7491 5dbe 8135 a3be e003 2f3e 84aa 253e
000003e0: 4c72 003d efd2 133d b4a9 a5bd a1e1 953e
000003f0: 18dd 793d bd3e 343e 1f63 0ebe 5815 49bd

network.2.bias f4 [64]
0.035481352 -0.083650894 0.1284465 0.25652602 -0.1401092 -0.0313447 -0.0736121 0.08753869
0.0018154781 0.007270398 -0.12905492 -0.0023822482 0.05700885 -0.031815525 0.009931833 -0.13570264
-0.032673232 -0.06256729 -0.054147985 -0.12995696 -0.13113503 0.04689343 -0.03515678 0.015839307
0.0067052436 -0.1104982 -0.027313808 -0.084632844 -0.082049906 0.13087508 0.12258579 -0.16346386
0.0351643 0.1281701 0.03703702 -0.13156366 0.047612533 -0.048619136 0.13845645 0.05092557
0.09885643 -0.10474687 0.21010955 -0.041221727 -0.16233878 -0.05317159 -0.24761584 0.01709792
-0.070893355 0.038861938 0.093118 -0.03378808 0.06324814 0.0018078063 0.06396558 -0.1726405
0.17533427 0.12264152 0.066622585 -0.14327723 0.053785704 0.0034296105 0.049539197 -0.05800373
00000000: e554 113d 2951 abbd 7b87 033e 6157 833e
00000010: c978 0fbe 4d63 00bd f1c1 96bd 7c47 b33d
00000020: 56f5 ed3a 853c ee3b f926 04be 7e1f 1cbb
00000030: 1d82 693d ff50 02bd 20b9 223c a2f5 0abe
00000040: 5ed4 05bd 4823 80bd 47ca 5dbd 7013 05be
00000050: 4348 06be 5313 403d 8e00 10bd 6fc1 813c
00000060: a9b7 db3b e14c e2bd 35c1 dfbc fc53 adbd
00000070: c809 a8bd 1e04 063e 420e fb3d 1263 27be
00000080: 7108 103d 063f 033e 21b4 173d a0b8 06be
00000090: 5c05 433d dc24 47bd 87c7 0d3e 5597 503d
000000a0: 3d75 ca3d 8785 d6bd f526 573e 1dd8 28bd
000000b0: 233c 26be 74ca 59bd 028f 7dbe f010 8c3c
000000c0: 8930 91bd b22d 1f3d a6b4 be3d 5f65 0abd
000000d0: 3e88 813d eaf3 ec3a 6300 833d acc8 30be
000000e0: d48a 333e 7a2b fb3d 6c71 883d 44b7 12be
000000f0: 664e 5c3d 51c3 603b 9de9 4a3d 5295 6dbd

network.4.weight f4 [64, 64]
-0.14551902 0.06083161 -0.206728 0.05099862 -0.19202588 -0.6023525 0.2807045 -0.21758999
0.12029952 0.08373828 -0.028005134 -0.057711937 -0.038558535 0.25382954 -0.04937202 -0.21827464
-0.14355846 0.025271168 0.11538222 0.19803625 0.15745074 0.09451035 0.24223474 -0.33785123
0.11914578 -0.029519735 -0.25136343 -0.24797405 -0.3498581 0.12764707 -0.03986865 0.04200397
0.079478405 0.060854312 0.2518475 0.010178007 0.15829828 0.26418957 -0.21087247 -0.31246912
0.17038347 0.17670943 0.03178249 0.028588958 -0.039321873 -0.26034158 -0.3130466 -0.10305702
0.08163418 -0.45043397 0.16182804 -0.09821375 0.3238754 0.15741622 0.17325115 -0.060838662
-0.26186377 0.28083074 0.3224358 0.096996106 0.14299086 0.0333516 -0.41205066 0.17755681
-0.34036756 -0.097696856 0.46929953 0.11962828 -0.92743963 0.23724933 -0.8986936 -0.29885024
-0.013855831 -0.714722 -0.6182099 0.076610774 0.6127913 -0.14907315 0.09312153 -0.13166444
-0.5694584 0.25238848 -0.43610755 0.014061557 -0.081667215 0.14490059 0.04118547 -0.078778416
-0.2449553 0.13411064 0.09431902 0.5150089 0.29672593 0.20645982 -0.087190494 0.12096116
-0.4240048 0.07383626 -1.3429767 -0.010930136 -0.25510573 -0.08451582 0.80251175 0.2217767
-0.43307447 -0.2186832 0.41831428 -0.014108136 -0.102314666 -0.005157943 -0.5189014 -0.08926224
0.09900966 -1.2367855 -0.18809247 -0.41003022 1.340438 -0.3762263 -0.48035568 0.012498766
0.54705495 -0.64196783 0.35322842 -0.060038894 -0.08174464 0.046300948 -0.32107013 -0.1414803
-0.053790595 -0.020601159 -0.093113765 0.048616726 -0.1168365 -0.13294253 -0.12402214 0.03077371
-0.018032912 0.004938295 -0.013076015 -0.09565366 -0.09829243 0.014820125 -0.085704595 -0.053456876
0.036894996 -0.05099705 -0.12145431 -0.1450354 -0.13261138 0.08366525 -0.08326389 -0.15895563
-0.16667813 -0.08141276 -0.13064751 -0.016804203 -0.1057857 -0.011933518 0.051092472 0.09950409
-0.08874445 0.06501896 -0.096162245 -0.12360751 0.020646818 0.032741748 0.016749041 -0.034197077
-0.043395475 -0.051373288 -0.09453838 -0.07550375 -0.08183302 0.1222366 -0.04337701 -0.092803605
-0.014196904 -0.04234789 0.017051952 -0.001714995 0.0648841 -0.012190273 -0.06671412 0.03645675
0.08496827 0.064059354 0.054708935 0.13706627 -0.08034478 -0.17707795 -0.09790947 -0.16516653
-0.3673257 0.105331376 0.12994593 0.11186119 0.5423531 -0.16264018 -0.14632827 -0.26690027
-0.1139837 0.024923937 -0.12967323 0.10117557 -0.16959724 0.11200912 -0.040313393 0.12387167
0.4154614 0.11347472 0.5208751 -1.112586 -0.04593839 0.52151036 -0.09802733 0.07320858
-0.30462605 0.025564646 -0.050704543 0.0049231793 -0.060505882 0.17187832 -0.10449745 0.16416125
0.04073729 0.40777504 0.27309144 -0.06943501 0.3907051 0.20473088 0.012342684 0.048363063
0.30930418 0.36969998 -0.23863086 -0.013887226 0.027279742 0.035823926 0.26872492 0.14812066
-0.03674934 -0.52370536 0.3165839 -0.087452434 0.69473106 0.6329712 0.19009502 -0.06160503
-0.026798692 -0.17155312 -0.052904837 -0.0016854103 -0.041372046 0.18156649 -0.18176612 0.091865495
00000000: f002 15be 912a 793d 81b0 53be eee3 503d
00000010: 6fa2 44be c633 1abf 80b8 8f3e e9cf 5ebe
00000020: 985f f63d fa7e ab3d 066b e5bc 5a63 6cbd
00000030: 8eef 1dbd f2f5 813e 513a 4abd 6383 5fbe
00000040: fd00 13be 7b05 cf3c 834d ec3d 04ca 4a3e
00000050: c43a 213e a48e c13d 620c 783e d6fa acbe
00000060: b402 f43d 5fd3 f1bc b5b2 80be e9ec 7dbe
00000070: 9a20 b3be eab5 023e 4f4d 23bd 5b0c 2c3d
00000080: 93c5 a23d 5f42 793d 28f2 803e a8c1 263c
00000090: f218 223e db43 873e f4ee 57be f4fb 9fbe
000000a0: 0179 2e3e 51f3 343e 5b2e 023d 6433 ea3c
000000b0: f90f 21bd 7e4b 85be a547 a0be 8f0f d3bd
000000c0: d22f a73d 489f e6be 40b6 253e 4a24 c9bd
000000d0: ffd2 a53e b831 213e c068 313e f631 79bd
000000e0: 0213 86be 0cc9 8f3e 4e16 a53e e5a5 c63d
000000f0: 326c 123e b09b 083d 4ef8 d2be 74d1 353e
00000100: a844 aebe 4a15 c8bd 0748 f03e acff f43d
00000110: af6c 6dbf 7df1 723e c910 66bf e602 99be
00000120: 9103 63bc 05f8 36bf 0143 1ebf 1ce6 9c3d
00000130: e4df 1c3f a2a6 18be 80b6 be3d 0bd3 06be
00000140: 07c8 11bf 1039 813e 7d49 dfbe 7262 663c
00000150: 2441 a7bd d260 143e 18b2 283d 9456 a1bd
00000160: 90d5 7abe 4d54 093e 552a c13d a0d7 033f
00000170: 76ec 973e 346a 533e ee90 b2bd 7cba f73d
00000180: 2817 d9be 7737 973d a9e6 abbf 5014 33bc
00000190: 389d 82be a116 adbd 6971 4d3f 6e19 633e
000001a0: f0bb ddbe 7dee 5fbe 4a2d d63e d025 67bc
000001b0: 5a8a d1bd f603 a9bb b9d6 04bf 1fcf b6bd
000001c0: 94c5 ca3d fd4e 9ebf 509b 40be 7bef d1be
000001d0: 7993 ab3f bca0 c0be 2ef1 f5be a0c7 4c3c
000001e0: cb0b 0c3f 0158 24bf 5bda b43e 58eb 75bd
000001f0: bc69 a7bd 10a6 3d3d 4e63 a4be 36e0 10be
00000200: 8753 5cbd c3c3 a8bc 6eb2 bebd 5522 473d
00000210: fa47 efbd 1622 08be 52ff fdbd 2619 fc3c
00000220: c2b9 93bc 6cd1 a13b c83c 56bc 11e6 c3bd
00000230: 8b4d c9bd 1cd0 723c e485 afbd 99f5 5abd
00000240: 351f 173d 48e2 50bd 0abd f8bd 2984 14be
00000250: 47cb 07be b058 ab3d 4286 aabd 44c5 22be
00000260: acad 2abe bcbb a6bd 76c8 05be f8a8 89bc
00000270: 2ca6 d8bd cd84 43bc 5746 513d cdc8 cb3d
00000280: a6bf b5bd a928 853d b6f0 c4bd ef25 fdbd
00000290: 8423 a93c 361c 063d 4935 893c 3c12 0cbd
000002a0: 74bf 31bd cc6c 52bd 579d c1bd b6a1 9abd
000002b0: 1298 a7bd 2f57 fa3d 17ac 31bd d10f bebd
000002c0: 229a 68bc fb74 2dbd 89b0 8b3c afc9 e0ba
000002d0: f4e1 843d b6b9 47bc 6aa1 88bd ac53 153d
000002e0: d803 ae3d 8d31 833d 7a16 603d 1a5b 0c3e
000002f0: ce8b a4bd ec53 35be c384 c8bd 6a21 29be
00000300: 1d12 bcbe fab7 d73d 8c10 053e 7b17 e53d
00000310: a7d7 0a3f 268b 26be 14d7 15be 27a7 88be
00000320: 4970 e9bd 492d cc3c 0fc9 04be 2335 cf3d
00000330: e6aa 2dbe 0a65 e53d a81f 25bd 6eb0 fd3d
00000340: 5bb7 d43e 6f65 e83d 1258 053f 3869 8ebf
00000350: e529 3cbd b481 053f 8ec2 c8bd 61ee 953d
00000360: f2f7 9bbe f36c d13c 91af 4fbd 9f52 a13b
00000370: 04d5 77bd df00 303e c202 d6bd e319 283e
00000380: 25dc 263d e4c7 d03e a4d2 8b3e f133 8ebd
00000390: 800a c83e f9a4 513e f838 4a3c 5918 463d
000003a0: 1e5d 9e3e 5149 bd3e a65b 74be 3f87 63bc
000003b0: c479 df3c 1cbc 123d 5096 893e f1ac 173e
000003c0: 7a86 16bd 8e11 06bf 4917 a23e 431a b3bd
000003d0: e5d9 313f 670a 223f 45a8 423e 8e55 7cbd
000003e0: ee88 dbbc 9fab 2fbe beb2 58bd fce8 dcba
000003f0: bc75 29bd 91ec 393e e620 3abe fa23 bc3d

network.4.bias f4 [64]
0.13185187 0.089602225 -0.15915945 -0.014045666 -0.33855745 0.1386047 -0.16007568 0.09166081
0.15806149 -0.025313541 0.19373153 0.21008791 -0.068045296 -0.020352755 -0.030400284 0.1279344
-0.044124447 -0.048856936 -0.090949506 0.08574982 -0.10901865 0.061467312 -0.008650606 0.20687836
-0.10332906 -0.16098577 -0.2618507 0.1257918 0.36223736 0.07383652 0.079728395 0.051297765
-0.007884901 -0.11526175 -0.13467188 0.20034292 0.105214946 -0.118361756 -0.028553654 -0.08157229
-0.05686466 -0.049438532 0.048445873 0.1311638 -0.031582538 0.02614385 -0.13007155 -0.027882747
0.18570495 0.06330036 -0.045650315 0.06567588 -0.07432651 0.22430694 -0.07758307 0.22284622
-0.05504076 -0.038561486 0.19264077 -0.086757325 0.16260442 -0.2217186 -0.1310601 0.22082189
00000000: 2d04 073e 5f81 b73d b2fa 22be cb1f 66bc
00000010: 6757 adbe 64ee 0d3e e1ea 23be aab8 bb3d
00000020: dfda 213e 585e cfbc 8f61 463e 4921 573e
00000030: 555b 8bbd d2ba a6bc 040a f9bc 3c01 033e
00000040: d6bb 34bd 361e 48bd bc43 babd 9a9d af3d
00000050: 2c45 dfbd 26c5 7b3d 45bb 0dbc ecd7 533e
00000060: 309e d3bd 74d9 24be 4c11 86be 91cf 003e
00000070: 2d77 b93e 9a37 973d a448 a33d 9b1d 523d
00000080: ac2f 01bc 5a0e ecbd 6de7 09be b226 4d3e
00000090: ef7a d73d a667 f2bd 5ae9 e9bc 5f0f a7bd
000000a0: ebea 68bd 0f80 4abd 2e6f 463d ce4f 063e
000000b0: b15c 01bd a12b d63c 7a31 05be 5c6a e4bc
000000c0: 7029 3e3e 9fa3 813d d3fb 3abd 1381 863d
000000d0: 7f38 98bd b8b0 653e dfe3 9ebd cd31 643e
000000e0: 6c72 61bd a6f2 1dbd 9f43 453e d3ad b1bd
000000f0: c681 263e 330a 63be 9e34 06be 221f 623e

network.6.weight f4 [64, 64]
0.09921093 -0.059054792 0.17133203 0.062165856 -0.27908874 0.18255663 0.11477723 -0.06193438
0.1531929 -0.002726881 -0.05380014 -0.32023507 0.020822175 -0.047951613 -0.007960122 -0.07772769
-0.05463425 0.0686881 0.08677033 -0.14216188 -0.051560618 0.069682784 0.03690771 -0.67375076
0.12108825 -0.06101137 -0.046560112 0.05571615 0.4347282 0.14668398 -0.040515374 0.4927162
0.14740045 -0.025006609 0.00074873335 0.1500033 -0.09191911 -0.048372503 -0.022419881 0.14386527
-0.021187479 -0.02121744 -0.050439898 -0.63293415 -0.0081271315 -0.13531755 0.123593144 0.074012965
0.0720891 -0.021927401 0.0772255 0.088940926 0.010560661 -1.1808889 0.13173409 -0.86323285
0.10778122 0.05292151 0.024395475 0.32181156 -0.73454654 -0.115665115 -0.024632046 0.020042017
-0.034881987 0.02707529 -0.09450302 -0.12922363 -0.11763797 -0.07627299 -0.055150434 0.0515459
-0.014554964 -0.041956946 -0.028845696 -0.064499795 -0.10085574 -0.081988975 -0.099374704 -0.0038537597
0.04593594 -0.15797137 0.028449759 0.04725451 0.046152715 -0.040085465 0.03751959 -0.006752327
-0.034467235 -0.12910046 0.15515372 -0.012294935 -0.11935008 0.053372588 -0.09216344 -0.1628948
-0.13471642 -0.0481598 -0.031768456 -0.13006112 -0.003944001 0.035043623 0.022204107 -0.09767197
0.05737287 0.01487444 -0.1754578 -0.06414787 -0.09525396 -0.06900547 -0.068454355 -0.073342755
0.033175603 -0.09008258 -0.096177794 -0.16627897 -0.002853807 0.0676852 0.0005906013 -0.12438211
-0.010604841 -0.01296203 -0.1625815 -0.006146139 -0.16728611 0.09209438 -0.09411585 0.041905135
0.018458426 -0.033319786 0.029865041 -0.1240137 -0.024353947 -0.15208505 0.070965186 -0.0658272
-0.13489875 0.011925375 0.05348386 -0.18348953 0.0427666 0.05983502 -0.09096618 0.045960095
-0.07885666 -0.022783933 -0.12849951 -0.09996518 -0.12953295 -0.10120982 -0.10770827 0.10470152
-0.0732466 -0.13021229 -0.055267137 0.04642383 -0.14734322 0.020146858 -0.06596495 -0.08748594
-0.021926671 -0.15365769 -0.14674385 0.0013783885 0.05628017 -0.11739374 0.04708248 -0.013628811
0.022853049 -0.09771648 -0.0019349616 0.103023306 0.037876755 0.009553077 -0.024334965 -0.10905921
-0.0007661724 0.016567945 -0.15901399 0.049450777 0.01590575 0.0051010544 -0.00070412405 -0.042381734
0.058974903 -0.11431748 -0.116157025 -0.10276742 -0.09496635 -0.0281715 -0.16403285 -0.09163968
-0.08896786 0.10774673 0.068067186 -0.07714193 -0.14642945 0.10270875 -0.092209116 0.12766059
0.18373743 0.13419807 0.017037706 0.18372431 -0.15849769 0.12479346 0.06596187 -0.08000442
0.030766 -0.012542865 -0.073315956 -0.034776084 0.07249031 0.079955764 -0.059538595 -0.7768307
0.034830835 -0.005198866 -0.024929063 0.16104345 1.4342666 -0.02760833 0.18667744 0.3086244
0.08982561 0.05283276 -0.07599013 0.12562622 -0.07516676 0.03556625 0.13619633 -0.047656372
-0.08370551 0.0044005294 -0.04142485 -0.39559686 0.0689018 0.026734529 -0.0011504254 -0.026312476
0.11558439 -0.12500872 0.06361037 -0.13975053 -0.11214988 -1.1073154 0.06285459 -0.69162637
-0.04917614 0.025283858 0.100393705 0.3537116 -0.7455962 0.08972787 0.07687321 0.113625005
00000000: 1a2f cb3d 70e3 71bd aa71 2f3e a0a1 7e3d
00000010: b8e4 8ebe 20f0 3a3e 5310 eb3d e8ae 7dbd
00000020: 99de 1c3e 79b5 32bb 895d 5cbd daf5 a3be
00000030: 4493 aa3c e968 44bd 2c6b 02bc b22f 9fbd
00000040: 2ac8 5fbd 59ac 8c3d a5b4 b13d e292 11be
00000050: 3a31 53bd d9b5 8e3d 8a2c 173d ee7a 2cbf
00000060: 1efd f73d 0fe7 79bd d1b5 3ebd 9e36 643d
00000070: b294 de3e 5334 163e 73f3 25bd 4c45 fc3e
00000080: 25f0 163e a9da ccbc a546 443a 779a 193e
00000090: 1640 bcbd 3f22 46bd e6a9 b7bc 6b51 133e
000000a0: 5d91 adbc 32d0 adbc 119a 4ebd f907 22bf
000000b0: a927 05bc af90 0abe 671e fd3d 1c94 973d
000000c0: 73a3 933d 18a1 b3bc 6728 9e3d a926 b63d
000000d0: 9f06 2d3c 5e27 97bf 4de5 063e d4fc 5cbf
000000e0: 66bc dc3d 3ac4 583d 05d9 c73c 7cc4 a43e
000000f0: 3e0b 3cbf d5e1 ecbd 25c9 c9bc 282f a43c
00000100: 6ae0 0ebd 00cd dd3c cd8a c1bd 3353 04be
00000110: 2dec f0bd 0335 9cbd 6ce5 61bd cb21 533d
00000120: f277 6ebc 0cdb 2bbd cf4d ecbc 7818 84bd
00000130: 748d cebd d6e9 a7bd f784 cbbd 5c8f 7cbb
00000140: 5327 3c3d 3fc3 21be 780f e93c f28d 413d
00000150: a10a 3d3d a830 24bd 24ae 193d a042 ddbb
00000160: 842d 0dbd e932 04be 9ee0 1e3e b270 49bc
00000170: d16d f4bd 379d 5a3d 30c0 bcbd e5cd 26be
00000180: 1af3 09be 3643 45bd a41f 02bd be2e 05be
00000190: ae3c 81bb e789 0f3d 63e5 b53c 3e08 c8bd
000001a0: d1ff 6a3d ecb3 733c 36ab 33be f55f 83bd
000001b0: 8214 c3bd bd52 8dbd cc31 8cbd ba34 96bd
000001c0: 24e3 073d 377d b8bd ddf8 c4bd 0945 2abe
000001d0: f006 3bbb 8a9e 8a3d 95d2 1a3a 0cbc febd
000001e0: edbf 2dbc b25e 54bc c47b 26be 8d65 c9bb
000001f0: 0d4d 2bbe fa9b bc3d d0bf c0bd b8a4 2b3d
00000200: 2036 973c 547a 08bd 88a7 f43c e5fa fdbd
00000210: ee81 c7bc 2fbc 1bbe 3256 913d 69d0 86bd
00000220: e622 0abe a662 433c e411 5b3d aee4 3bbe
00000230: 082c 2f3d 9115 753d 7a4c babd a740 3c3d
00000240: 9a7f a1bd 5fa5 babc 6095 03be 8bba ccbd
00000250: 49a4 04be 1847 cfbd 2796 dcbd c06d d63d
00000260: 5002 96bd 5f56 05be cb5f 62bd ea26 3e3d
00000270: 24e1 16be 060b a53c a218 87bd d42b b3bd
00000280: 909f b3bc 7158 1dbe 0544 16be 0bab b43a
00000290: 0986 663d 216c f0bd 8fd9 403d 604b 5fbc
000002a0: 5136 bb3c 941f c8bd 8a9e fdba e2fd d23d
000002b0: a824 1b3d 8284 1c3c 1f5a c7bc 6f5a dfbd
000002c0: f6d8 48ba 80b9 873c 90d4 22be e68c 4a3d
000002d0: c74c 823c bf26 a73b f794 38ba 7898 2dbd
000002e0: ab8f 713d 481f eabd bce3 edbd ba77 d2bd
000002f0: b87d c2bd ebc7 e6bc 3af8 27be 96ad bbbd
00000300: c834 b6bd 51aa dc3d cf66 8b3d 97fc 9dbd
00000310: 9af1 15be f758 d23d 22d8 bcbd 75b9 023e
00000320: aa25 3c3e 386b 093e a992 8b3c 3a22 3c3e
00000330: 384d 22be b793 ff3d 0417 873d 5bd9 a3bd
00000340: fa08 fc3c 9780 4dbc ad26 96bd 5e71 0ebd
00000350: cd75 943d d9bf a33d bede 73bd 60de 46bf
00000360: c7aa 0e3d 405b aabb 0938 ccbc 93e8 243e
00000370: 0c96 b73f dd2a e2bc 5f28 3f3e 0404 9e3e
00000380: 7df6 b73d 2a67 583d b7a0 9bbd 29a4 003e
00000390: 08f1 99bd ebad 113d 0d77 0b3e 5433 43bd
000003a0: cb6d abbd 5132 903b 1aad 29bd ac8b cabe
000003b0: 631c 8d3d 5f02 db3c dfc9 96ba 438d d7bc
000003c0: 82b7 ec3d 4902 00be 2746 823d c31a 0fbe
000003d0: d6ae e5bd 83bc 8dbf e8b9 803d 6d0e 31bf
000003e0: ec6c 49bd 1820 cf3c 379b cd3d b019 b53e
000003f0: 64df 3ebf 3fc3 b73d b46f 9d3d 3ab4 e83d

network.6.bias f4 [64]
0.17892365 -0.04241274 -0.09818419 0.12884074 -0.13648073 0.15410529 0.32072017 -0.11626849
-0.044092763 -0.14087978 0.27800888 -0.04796011 0.0016949631 -0.08759322 -0.06673034 -0.080677815
-0.16900149 0.035880934 -0.15387447 -0.12123993 -0.023505941 -0.105376646 -0.2734232 0.009981392
-0.3744779 -0.056660995 -0.15022701 0.120182775 -0.065968744 0.12294898 0.110986575 0.030785386
-0.22138241 -0.12055489 -0.070995696 0.07282833 0.019205723 -0.06413785 0.033683985 -0.16036443
-0.0024743169 0.019165803 -0.22778702 -0.019248374 -0.055820134 0.10120052 -0.15533261 -0.08690256
-0.12859827 -0.15832663 0.051104885 0.08315691 -0.13622275 -0.03957425 -0.1712254 0.15044607
-0.19129033 0.09494637 0.024315502 -0.14264412 0.030229991 0.07020147 -0.005359673 0.17983918
00000000: c337 373e fbb8 2dbd cb14 c9bd d4ee 033e
00000010: 9bc1 0bbe c7cd 1d3e 6f35 a43e 2d1e eebd
00000020: 9d9a 34bd ca42 10be 2e57 8e3e d271 44bd
00000030: 8629 de3a 1364 b3bd eba9 88bd 693a a5bd
00000040: ba0e 2dbe e3f7 123d 4591 1dbe a44c f8bd
00000050: 888f c0bc b6cf d7bd 20fe 8bbe fe88 233c
00000060: 91bb bfbe 5c15 68bd 1cd5 19be 6322 f63d
00000070: 9f1a 87bd adcc fb3d ee4c e33d a231 fc3c
00000080: 12b2 62be 7be5 f6bd 3166 91bd 0527 953d
00000090: 5255 9d3c b55a 83bd 38f8 093d 9336 24be
000000a0: 2628 22bb 9a01 9d3c 0041 69be c4ae 9dbc
000000b0: a7a3 64bd 3842 cf3d 830f 1fbe f8f9 b1bd
000000c0: 44af 03be 6020 22be 5b53 513d 2c4e aa3d
000000d0: fa7d 0bbe 9c18 22bd b655 2fbe 890e 1a3e
000000e0: 9de1 43be 3e73 c23d 4e31 c73c 4d11 12be
000000f0: e3a4 f73c cac5 8f3d 32a0 afbb c327 383e

network.8.weight f4 [3, 64]
-0.023457991 0.020228418 -0.07765999 -0.011010043 0.068269596 0.7289995 -0.98803633 0.18361303
-0.17705567 -0.007902421 0.3768672 -0.13729511 -0.07432036 0.00730764 -0.034613837 -0.013266693
0.04477627 -0.13013901 -0.044266798 -0.009746405 1.3490281 -0.13348 -0.12440732 -0.0139207505
-0.042045787 0.63288623 -0.031185584 -0.17332874 -0.053866677 -0.11998639 -0.18082523 -0.2485154
0.14157787 0.07858146 -0.047760196 -0.19671544 -0.19846696 -0.055120565 -0.1179089 0.0493209
-0.18102583 0.037733722 0.15105516 0.023742447 -0.1722365 0.4833447 -0.080934905 0.060972415
-0.06844222 -0.01539058 0.16170162 -0.2982517 -0.47280914 0.054389477 0.2811941 0.09739934
-0.025406364 0.052538227 -0.13208812 -0.075402595 0.4729445 -0.117538124 -0.1239386 -0.14360014
-0.09775003 -0.010326688 0.013562882 -0.21009354 0.06380905 0.57235736 -0.86553174 0.19132155
-0.11961316 0.00238656 0.4614342 -0.010352452 -0.09310213 -0.08101378 -0.15179178 0.022131957
0.055548493 -0.15430209 0.07813772 0.04587476 1.3438056 -0.007316335 -0.24566664 0.075870894
-0.020259416 0.42208734 0.1180142 -0.090215266 -0.001576832 -0.19273299 -0.19019999 -0.1666242
0.15244901 -0.048101358 0.117760114 -0.18446492 0.011653757 0.04936533 -0.0952069 0.015137447
-0.04029607 0.056530558 -0.02900583 -0.039304737 -0.20275071 0.05341319 0.022131512 -0.02060722
-0.03762539 -0.006138987 -0.1923825 -0.09389916 -0.42393348 -0.055811122 0.22193295 0.035662618
-0.18278933 -0.008009013 -0.08472148 0.04909555 0.08417867 -0.07080399 -0.014411244 -0.11424821
-0.23528825 -0.011220009 -0.023835136 -0.16622898 -0.06775846 0.49489164 -0.8629544 0.2872961
0.06150009 -0.051554386 0.47122812 0.012901718 -0.059510004 -0.024736982 0.0075355954 0.15656202
0.04072829 -0.008861849 -0.083588175 -0.09779058 1.4821545 -0.050002255 -0.090916924 -0.005588467
-0.0633156 0.5213212 -0.16595787 -0.25966734 -0.012239064 -0.21643642 -0.23272854 -0.23081434
0.023675855 -0.074338116 -0.2708216 -0.08909217 0.021917265 -0.08242673 0.020000184 0.09831474
-0.013011122 -0.22747707 -0.022493526 -0.06816592 0.002949029 -0.18366283 -0.028423024 0.24380438
0.009032615 -0.048786167 -0.11529615 -0.28982547 -0.19191483 -0.061806746 0.39647737 -0.1945836
0.018397104 -0.19981499 0.049504038 0.071802475 -0.27024156 -0.08463063 -0.03969921 -0.1887946
00000000: f92a c0bc 11b6 a53c 330c 9fbd 7863 34bc
00000010: eed0 8b3d b69f 3a3f f3ef 7cbf 0e05 3c3e
00000020: 154e 35be 2879 01bc bdf4 c03e 1797 0cbe
00000030: 4635 98bd ed74 ef3b 3dc7 0dbd 8b5c 59bc
00000040: 5267 373d 2943 05be 1a51 35bd 63af 1fbc
00000050: f4ac ac3f fbae 08be 44c9 febd dc13 64bc
00000060: 3438 2cbd d504 223f e978 ffbc 177d 31be
00000070: 4ea3 5cbd 6dbb f5bd 402a 39be d27a 7ebe
00000080: caf9 103e 51ef a03d 32a0 43bd c66f 49be
00000090: ec3a 4bbe 1ac6 61bd 397a f1bd b604 4a3d
000000a0: d65e 39be ad8e 1a3d 34ae 1a3e 857f c23c
000000b0: c45e 30be f578 f73e 33c1 a5bd 36be 793d
000000c0: 6f2b 8cbd c528 7cbc 1c95 253e 72b4 98be
000000d0: 0a14 f2be 80c7 5e3d acf8 8f3e 4e79 c73d
000000e0: 0221 d0bc 5332 573d 1c42 07be ad6c 9abd
000000f0: c825 f23e d4b7 f0bd 85d3 fdbd ea0b 13be
00000100: 2b31 c8bd 4531 29bc da36 5e3c c322 57be
00000110: 52ae 823d 0386 123f 7d93 5dbf cce9 433e
00000120: bff7 f4bd d567 1c3b 1a41 ec3e 559d 29bc
00000130: 54ac bebd 8dea a5bd 4e6f 1bbe 144e b53c
00000140: d186 633d 5e01 1ebe ab06 a03d 2ce7 3b3d
00000150: d201 ac3f debd efbb 0990 7bbe 3362 9b3d
00000160: 13f7 a5bc d51b d83e 6eb1 f13d c8c2 b8bd
00000170: b4ad ceba cc5b 45be c9c3 42be 899f 2abe
00000180: 981b 1c3e ee05 45bd 372c f13d 5fe4 3cbe
00000190: 66ef 3e3c 4d33 4a3d d6fb c2bd 0e03 783c
000001a0: 7e0d 25bd 968c 673d a29d edbc 01fe 20bd
000001b0: e29d 4fbe cac7 5a3d 254d b53c 79d0 a8bc
000001c0: 151d 1abd 8e29 c9bb ebff 44be 344e c0bd
000001d0: cf0d d9be 349a 64bd 6442 633e f712 123d
000001e0: 202d 3bbe 3c38 03bc 7582 adbd 6a18 493d
000001f0: de65 ac3d af01 91bd 231d 6cbc f7fa e9bd
00000200: 67ef 70be 21d4 37bc e741 c3bc ee37 2abe
00000210: f3c4 8abd 7062 fd3e 94ea 5cbf 7918 933e
00000220: 85e7 7b3d b12a 53bd d044 f13e ba61 533c
00000230: c3c0 73bd 36a5 cabc 28ed f63b cb51 203e
00000240: b5d2 263d 4a31 11bc 4730 abbd 6d46 c8bd
00000250: 3db7 bd3f 2acf 4cbd a732 babd 751f b7bb
00000260: 9cab 81bd 4e75 053f dcf0 29be 1ef3 84be
00000270: 5b86 48bc 82a1 5dbe 6450 6ebe 985a 6cbe
00000280: def3 c13c 953e 98bd 21a9 8abe f575 b6bd
00000290: d68b b33c 58cf a8bd 6dd7 a33c 3d59 c93d
000002a0: 9a2c 55bc c0ef 68be 5844 b8bc 939a 8bbd
000002b0: 7f44 413b 1c12 3cbe 67d7 e8bc dba7 793e
000002c0: 89fd 133c 01d4 47bd 6320 ecbd 0164 94be
000002d0: 5285 44be 1229 7dbd 15ff ca3e ec40 47be
000002e0: 86b5 963c 4d9c 4cbe bfc4 4a3d 2d0d 933d
000002f0: 1a5d 8abe d352 adbd a49b 22bd 5f53 41be

network.8.bias f4 [3]
-0.00832824 0.014852385 0.012097248
00000000: 2c73 08bc 6b57 733c 8933 463c
