project4/assets/part_1_img/image2_default/model.pth (torch, 839964 bytes, 10 tensors)

network.0.weight f4 [256, 42]
00000000: d631 58be 2cd0 04bf 00f5 86be 2428 bcbe
00000010: 4726 0cbe 456b 193f 48b5 073e 16af fc3e
00000020: ddf7 d23e ab54 a93e 8dc0 b3be 72e6 703f
00000030: 8c1c 2dbf b8d8 f7bd 86f1 8e3e 5045 95be
00000040: b459 2cbe 2f71 203f 3198 d8be d502 41be
00000050: 1443 943e 0e19 dc3e 98f8 1bbf a17c ddbe
00000060: 397f fabe 3162 233f ff39 093f da11 f83e
00000070: cd1f 64bf 56eb 303c f058 b63e 4b62 053f
00000080: 8dc5 4bbe 5269 d73e 4fe8 8d3d 3495 913d
00000090: 95b4 c53c 744f 423e 1b2e 99ba 801d d0bb
000000a0: 0ae7 5d3d b56a b3bc 1c9f b1be f9b2 a6bd
000000b0: 7cfa 6ebd 0e6a 96be 69a0 b93e fe0e 9c3d
000000c0: 0962 bd3e 31a4 793e ed1e debc caaa 153f
000000d0: 3986 43bf 25db 21be 85a9 f9bb 53d6 17be
000000e0: 2e71 8d3e f8c0 a43e 6150 803e e10d 813f
000000f0: 0ae2 3bbe ad52 56be 112c d4be e5bf 85bd
00000100: e265 993e 5e87 083f 79b6 2b3e 65b6 e63d
00000110: 1d21 eb3e cfc6 253f 9720 5e3f 95bb 953e
00000120: 218c a13e 271f 293d 49c9 37bf 1c88 063e
00000130: 3279 ba3b 07cf c63d 9291 753e 8846 87bd
00000140: c537 6c3c 966a f4bc e3d2 a73d 3c30 c6bd
00000150: de78 fbbe e7c0 6ebe 095a 01bf fa67 bbbe
00000160: fe48 a23c 102c 35be 39bf a9be 5136 a1bc
00000170: 0afc b03e c908 21be 1a5c 023f 7291 d4be
00000180: 6b2c a2be 7020 11be 9f7e e9be 4d95 22bf
00000190: 6e38 a7be 9242 9e3e 0df9 2fbe 37c8 773e
000001a0: 1f46 e43e 2f6c 9d3e 17b3 ac3e a299 eebe
000001b0: bcfb 2a3f 2117 0e3e 0b64 643f fcfc 1abf
000001c0: 30b7 99bd e9c9 2c3f 908e 983e 1d7b f63c
000001d0: 848e debd 9a61 bcbe de07 613d 6e68 8c3d
000001e0: af22 9d3e 1f73 0dbe ecd8 cd3d a645 54bb
000001f0: 9b02 f8bc c724 bebc cd01 56be efab 3ebe
00000200: 4442 f4be 34c1 aabe c9bd 79bd 6982 8fbe
00000210: bf99 bb3e 3409 12bf 7258 fa3e 4ec4 f8bd
00000220: eea7 89bf 031b 60bc 48d3 fe3d 5d9a aebe
00000230: 3a64 a73e 5d3f aa3e 1ead da3e 02e9 29bf
00000240: 7a73 56bf 9538 6cbf 467d 88be ba93 2ebe
00000250: 8a2c 9ebd 6b3f af3e 850e 1b3f c126 f0bd
00000260: ad01 bf3e 490a 393e 7cb5 173f 4815 13be
00000270: 1b1f 013e c3f7 013e 45d8 223e 6713 673e
00000280: ace2 1bbe d6de 7d3d f352 423e 3fa7 31bd
00000290: 4960 45bd 9c79 08bd 6949 3bbc efd1 94bc
000002a0: eb05 1dbd 8933 293c 7af9 d2bd b002 803e
000002b0: 7a1d d6be 8f36 f63d fbb5 1bbf 2bf4 323e
000002c0: c37a 1cbe 3c65 36bf d33a 323f bb69 4ebe
000002d0: 1b14 43be 5d7c 20be f916 24be f67a 8e3d
000002e0: 9534 413d 77af 11bf ee78 bcbe 0286 e73e
000002f0: 2f88 bd3e 72a6 eb3d a8e4 f7be 8dd7 a5bd
00000300: f315 e6bd c010 4bbe 3658 00be e12f f43e
00000310: ad19 34be 545c f7bd 5e5d fabd bc93 77be
00000320: e345 c13e 0346 883d cdfd 7abd 2cf1 aa3c
00000330: 73d1 eabd 82f1 253c 426b 263e a107 7e3c
00000340: a484 a63d 389f 3b3d e8cd b4bd b337 43be
00000350: 8e33 ddbd 9281 3c3d 0fb8 1dbe d500 8bbd
00000360: ad22 56be 5c9a 74be fd2d 2abe e116 ebbe
00000370: f808 f33e 85a2 383f 05d5 df3d e448 a03d
00000380: 3040 ddbe 1a2e 003f e7d3 553e 189a 2e3e
00000390: c03f 543f 6bc0 4a3e 6fd9 f23d 7340 a9be
000003a0: 173a 163f 6e66 c13b 82ca aebd 417c ecbb
000003b0: f9a0 a03e 1399 8f3c c2b7 b3bd 7ccb e3be
000003c0: 6cda 87bd 9f5d a3bc d754 b43e ec45 1d3e
000003d0: c275 c7bd 0612 2dbc 1f69 b73d d421 dbbc
000003e0: 8ef0 d2bd ad27 bbbc 75fa cb3d 4584 babb
000003f0: 40a8 dbbe f425 58bf 8637 c8be bce3 3ebe
-0.21112761 -0.51880145 -0.26358795 -0.36749375 -0.13686477 0.59929305 0.13252747 0.4935233
0.4120473 0.3307241 -0.35107842 0.9410163 -0.67621684 -0.12101883 0.27918643 -0.29154444
-0.16831094 0.62672704 -0.42303613 -0.18848737 0.28957427 0.42987865 -0.609262 -0.43259147
-0.48925188 0.63821703 0.5360412 0.4845112 -0.89111024 0.010798296 0.3561473 0.5210311
-0.19899578 0.4207254 0.06929075 0.07108536 0.02413396 0.18975621 -0.0011686714 -0.006351173
0.054175414 -0.021901468 -0.34691703 -0.08139605 -0.05834435 -0.29377788 0.36255196 0.07620047
0.36988857 0.2437904 -0.027114356 0.5846373 -0.7637668 -0.15806253 -0.0076190853 -0.14827852
0.27625412 0.32178473 0.25061324 1.008236 -0.18347946 -0.20929976 -0.4143987 -0.065307416
0.29960543 0.53331554 0.16768827 0.11265258 0.459237 0.6475648 0.8676848 0.29244676
0.31552222 0.041289475 -0.7179151 0.13137859 0.005690717 0.09707456 0.23981312 -0.0660525
0.014417593 -0.02983598 0.0819452 -0.09677169 -0.49115652 -0.23315774 -0.5052801 -0.36602765
0.019810196 -0.1769259 -0.33153704 -0.01967922 0.3456729 -0.15726008 0.50921786 -0.41517216
-0.31674513 -0.1417253 -0.45604417 -0.63509065 -0.3266024 0.30910164 -0.17184849 0.2419747
0.44584748 0.307466 0.33730385 -0.46601588 0.66790366 0.1387601 0.89215153 -0.60542274
-0.07505643 0.6749559 0.29796267 0.030088002 -0.108670264 -0.36793214 0.054939143 0.06855856
0.30690524 -0.13813446 0.1005114 -0.0032390147 -0.03027468 -0.023210896 -0.20899124 -0.18620275
-0.47706807 -0.33350527 -0.06097201 -0.28029183 0.36640736 -0.5704529 0.48895603 -0.12146817
-1.0754373 -0.013678315 0.124426425 -0.34102145 0.32693654 0.33251467 0.42710203 -0.66371167
-0.83769953 -0.9227384 -0.26658076 -0.1704854 -0.07723339 0.34228072 0.6056903 -0.11726142
0.37305966 0.1807033 0.592613 -0.14363587 0.12609522 0.1269217 0.15902813 0.22565995
-0.15223187 0.06198009 0.18976955 -0.04337239 -0.048187528 -0.0333191 -0.011431077 -0.01816651
-0.038335722 0.010327228 -0.1030149 0.2500205 -0.41819364 0.12022125 -0.60824555 0.17475955
-0.15281205 -0.7124822 0.6962101 -0.2015752 -0.19050638 -0.15672441 -0.16024388 0.06957047
0.047169287 -0.56908363 -0.36811012 0.45219427 0.37017962 0.11506356 -0.48416638 -0.08097754
-0.11234655 -0.19830608 -0.1253365 0.4769278 -0.1758792 -0.12078157 -0.1222484 -0.2417745
0.37748632 0.06653979 -0.0612772 0.020866953 -0.114657305 0.010128381 0.16251853 0.015504749
0.08130768 0.04580614 -0.08828336 -0.19064216 -0.10800849 0.046022005 -0.15402244 -0.06787268
-0.20911665 -0.23887008 -0.16619106 -0.45915893 0.4746778 0.72122985 0.10929302 0.07826403
-0.43213034 0.50070345 0.20881616 0.1705097 0.82909775 0.19799964 0.118578784 -0.33056983
0.5868239 0.005902103 -0.08534719 -0.0072169607 0.31372812 0.017529046 -0.087752834 -0.44491184
-0.066334575 -0.019942103 0.35220978 0.15358704 -0.097392574 -0.010563379 0.08955597 -0.026749529
-0.102997884 -0.022846067 0.0995988 -0.0056920373 -0.42901802 -0.8443291 -0.3910486 -0.18641561

network.0.bias f4 [256]
00000000: 65b8 8fbe e0ad 50bd 5edc 02bf c643 3bbe
00000010: f6a6 6e3c 49a1 82be 247e 0fbf 9e70 5abe
00000020: b330 90be 9317 3dbe ca0d fdbd 8086 70be
00000030: 432f 41be 08ab 88be a1e0 88be b9c2 6fbe
00000040: a5ad b1be a842 13bf 83fa f6be 5f21 a5be
00000050: 057e a8be a3b7 92be 4b25 07bf feb3 1cbe
00000060: 1827 63be 412e 83be e9c9 48be 5638 c1be
00000070: 0f55 69be a473 3b3c 1338 86be b605 d7be
00000080: bd81 61be 9eed 11be 938f 64be 7f2c 1ebf
00000090: 6740 3dbe ce01 11be c842 a2be 568a c0bd
000000a0: e4f8 18be 4734 6fbe edd9 69bf 0f69 25bf
000000b0: 12c2 5abe 595e e4bd 28bf bbbe 1669 18be
000000c0: 3313 ccbe 6f40 c6be 1a7a 15be 38a3 81be
000000d0: 8ff1 86be ec35 a4bd dcbd 1abd ec50 0bbf
000000e0: e982 d1be 781d 87be 4483 97be 0840 6dbe
000000f0: 0a7d 09be 1fb0 0cbf 9e46 a3be b93a 33be
00000100: 2976 9cbe 5039 24bf 35b1 2cbe 39ef f3be
00000110: fccb 59be c7c0 cebe 2147 18be b052 94be
00000120: 7ecd aebe 7c26 c1be 4f2e aabe 873b dbbe
00000130: 055f 0cbe 66cd cdbe b325 9bbe dfd5 e8be
00000140: 07ed 71be 64fe 85bd 213b 0cbf 5b21 5abd
00000150: f0c0 cabe 0a09 7fbe 5355 8dbe 6f27 cdbc
00000160: 914c c1bd c25b 17be 0018 b1bd 61f7 26be
00000170: 50e1 12bf 5ff6 7cbe 3c4a 64be a034 f0be
00000180: b4ad 14be 1578 9ebe 82ed 1fbe 3689 d6be
00000190: 6d52 b8be 255b a6be dd05 a5be e5a0 a4bd
000001a0: 03de 60be b83a 05bf ca2d edbe 8cd5 93be
000001b0: 61e3 37be 256f 0abf adec 8dbe 77be 16bf
000001c0: a46d 2cbe f2d7 0ebd b997 dbbe b889 f9bd
000001d0: df69 b2be 83e9 d7be d892 46be cc0b adbe
000001e0: 7fde d5be 2548 02bf e858 b2be 6118 70be
000001f0: 1bc5 eebe c2d2 e2be d46a 8bbc 2ff0 85be
00000200: a95b 97bd dd95 a4be 5d99 24be 552d 4abe
00000210: d5a8 86be ab5f 31bf 327b c1be c1d4 6fbd
00000220: cd97 71be 78e7 bdbd 1487 90bc a098 d7be
00000230: b005 51be dcc8 d7bd a164 1cbe 447f 94be
00000240: db30 bcbe 0981 1abf 4223 1cbe 7bbf b2be
00000250: 919d 3abe dea7 f5be 429d 04be 23e1 02bf
00000260: d15b babe 5911 b0be 04fa 54be cd89 9bbe
00000270: 996d bcbd 28c8 cbbe a5b1 d1be 4bc3 abbe
00000280: c5ab b3bd 234a 0dbf 86e0 39be 1aad 15be
00000290: 6a23 b9be 3daf d6be f59d 03be 0bf0 17be
000002a0: c151 26be 3126 57be 78b5 a3be 2a57 83be
000002b0: 3201 fbbe 7b9e e8be 07cc 8ebd 23a5 dbbe
000002c0: b325 bebd f6a9 16be 149c 3bbe 6c0b d0be
000002d0: 4fc3 9ebe 1302 b8bd 4a8f d6bd af72 f7be
000002e0: a05c b9be b6f8 5cbc c423 2dbf faa7 f0be
000002f0: 46e4 02bf 7f38 19be f690 b2be 3aa7 3ebf
00000300: 37d0 90be 7fe9 6abe b95f bebe 9d7b 5bbe
00000310: 2d81 f9bd 253d ffbe 761e 9bbd cdf6 57be
00000320: 85f6 1dbe 7e5f 84be 8b45 3cbe 90a8 d1be
00000330: 24c9 e4bd a8a6 bcbe 5a16 3dbe 0ccc 96be
00000340: 221e 7bbe b28f e1bd fba3 6cbe 58c7 493b
00000350: a211 f3bd 70b6 7fbe 4006 1d3c f0a8 57bf
00000360: 5a52 9dbe fe78 69bd 47ba 75be bb28 b0bd
00000370: a6d8 89bc c593 68be 0bf7 e7bd 7ba5 a9be
00000380: 08c5 d2bc 2c7e 68bf 1199 d1be 0d50 afbe
00000390: 09db 3bbe 0ca9 eabe 4d68 3abe b91d 83be
000003a0: 2c0a e5bd 1946 0bbf 7e88 edbe 0528 8dbd
000003b0: fdc1 acbe 42db 2cbd f472 cbbe 6519 e5be
000003c0: bbc8 94be 3e7f c1bd 2392 c2bd d0d5 bdbd
000003d0: 7bc1 d3bc ecc1 d2be 2523 49be a44c fcbe
000003e0: 44a4 c6be 9a4a 4bbe 0fb0 53be 8c94 89be
000003f0: 88f8 cabe dd76 1dbd 338e fdbe f265 13bf
-0.2807037 -0.05094707 -0.51117504 -0.18287572 0.014566174 -0.25513676 -0.5605185 -0.21332023
-0.28162155 -0.18466024 -0.12356146 -0.23488808 -0.18865685 -0.26692986 -0.26733878 -0.23414125
-0.34702793 -0.57523584 -0.48238 -0.32252023 -0.32908645 -0.2865573 -0.5279128 -0.15303037
-0.22182882 -0.25621226 -0.19608273 -0.37738293 -0.22786354 0.011441145 -0.26214656 -0.41996545
-0.22022147 -0.142508 -0.22320394 -0.61786646 -0.18481599 -0.14160845 -0.31691575 -0.094013855
-0.14938694 -0.23359786 -0.91348153 -0.6461343 -0.21363094 -0.11150808 -0.36669278 -0.14883837
-0.39858398 -0.38721034 -0.1459736 -0.2531984 -0.2635617 -0.08018097 -0.03777872 -0.5442035
-0.4092019 -0.2638967 -0.29592335 -0.23168957 -0.13426605 -0.5495624 -0.31889814 -0.1750287
-0.305589 -0.6414995 -0.16864474 -0.4764345 -0.2126922 -0.40381452 -0.14870884 -0.28969336
-0.34141153 -0.37724674 -0.33238456 -0.42818853 -0.13708122 -0.4019577 -0.303022 -0.4547567
-0.23625575 -0.06542662 -0.54777724 -0.053254467 -0.39600325 -0.24905792 -0.2760416 -0.025043217
-0.09438432 -0.14781097 -0.08647156 -0.16305305 -0.5737505 -0.24703358 -0.22293943 -0.4691515
-0.14519387 -0.3095099 -0.15617946 -0.4190156 -0.36000386 -0.32491413 -0.32231036 -0.08038501
-0.21959691 -0.5204272 -0.46323997 -0.2887386 -0.17957832 -0.54075843 -0.27719632 -0.58884376
-0.168387 -0.03487391 -0.42889193 -0.12184471 -0.34846398 -0.42170343 -0.19391954 -0.33798063
-0.41771314 -0.50891334 -0.34833455 -0.234468 -0.46634755 -0.4430142 -0.017018713 -0.26159808
-0.0739053 -0.32145587 -0.16074128 -0.19743855 -0.26300684 -0.692866 -0.37789303 -0.058552507
-0.23593064 -0.09272665 -0.017642535 -0.4210863 -0.20412326 -0.10536358 -0.15272762 -0.29003346
-0.36756024 -0.6035314 -0.15247825 -0.34911713 -0.1822417 -0.47979635 -0.12950614 -0.5112478
-0.36398175 -0.34388235 -0.20798498 -0.3037857 -0.092005916 -0.39801145 -0.40955845 -0.33547434
-0.08772997 -0.5519125 -0.18152055 -0.14616814 -0.3615983 -0.4193057 -0.12853225 -0.14837663
-0.16242124 -0.21010663 -0.31974387 -0.25652438 -0.4902435 -0.4543341 -0.06972509 -0.42899427
-0.09284534 -0.14713272 -0.18321258 -0.40633714 -0.31008384 -0.089847706 -0.10476549 -0.48329684
-0.3620348 -0.013487032 -0.676327 -0.47003156 -0.5112957 -0.14962958 -0.3487622 -0.7447392
-0.28283855 -0.22940634 -0.37182406 -0.21433873 -0.121828414 -0.49851337 -0.07574169 -0.21090241
-0.15426071 -0.25854105 -0.18385904 -0.40948915 -0.11171177 -0.368459 -0.18465558 -0.2945255
-0.24523214 -0.11013736 -0.23109429 0.0030788984 -0.118685976 -0.24971938 0.00958401 -0.84242153
-0.30726892 -0.057000153 -0.2399684 -0.08601519 -0.016826939 -0.2271262 -0.113264166 -0.33134064
-0.025728717 -0.90817523 -0.40937093 -0.3424076 -0.18345274 -0.45832098 -0.1820385 -0.25608614
-0.11183581 -0.54403836 -0.46393198 -0.06892399 -0.3374175 -0.042201288 -0.3973614 -0.44745937
-0.29059395 -0.09448098 -0.095005296 -0.09269297 -0.025849095 -0.41163576 -0.19642313 -0.49277222
-0.387972 -0.19852677 -0.2067263 -0.26871145 -0.3964274 -0.038443435 -0.49522552 -0.5757743

network.2.weight f4 [256, 256]
00000000: b48a 16bd e180 4ebd b94a 36bd c7ba c5bd
00000010: abe8 35bd eef0 cbbc 47ef 92bd af36 f1bd
00000020: a59b 15bc 4bc5 59bd 8d5f 30bd 909a a0bb
00000030: b155 f8bd ddad 2dbd 7cf6 ecbc 5a36 a7bd
00000040: 39c7 6d3d 530e d4bd 82c9 ecbb 03d3 b4bc
00000050: 475a fcbd 8df5 e6bd 17f5 aebd c339 f6bd
00000060: 5f0c 9ebb 20f6 5bbc d9fb f3bc 4460 74bd
00000070: 6b1c 9abd cad3 8dbd 22b8 94bd 7712 65bd
00000080: 7561 34bd f05c 4bbd 5eb6 a7bd 5110 a9bd
00000090: ce75 dbbd 8348 f6bd 0deb e7bd 176b 1dbd
000000a0: a7d6 58bc 3ddd fcbd 7fc5 ccbc 22c3 2dbd
000000b0: 5643 90bd ddce e4bd 390b 44bd 6c0b ccbd
000000c0: db88 81bd 218e e5bd 6413 ffbc 3044 eebd
000000d0: 46a8 3bbc 9624 e9bd 8815 91bd 923f d0bc
000000e0: 4bf6 98bd 7e7b b9bd 98be f9bd d876 eabc
000000f0: 2c24 14bc 3dd1 8cbc 4418 fabc d50c e6bc
00000100: 5279 44bd e7eb ddbd 55f0 55bd dbc9 afbc
00000110: 0614 e2bb 0481 99bc 3cdd 0cbd 2040 e3bd
00000120: 35d5 3ebd 1ab3 a7bd 1b79 0bbb d6c3 d5bd
00000130: 3882 dabd fcb1 f1bd 0012 a3bd 7309 debd
00000140: aec6 53bc dc8d 06bd 1e5d 56bd 798b 85bd
00000150: 8807 35bd c83c 48bc 2e68 b6bd 9056 b1bd
00000160: a143 00be 9fba 89bd 9abe ccbc 877a a3bd
00000170: 1fe6 fabd 9266 5cbd db69 b6bd 77e4 08bc
00000180: c2bc 47bd a3fa a7bc 899b b3bd f06e 6dbc
00000190: b3f9 cfbd e26f 39bd 0c90 91bd f9db dfbd
000001a0: 8855 b1bd cba2 58bd f936 3dbd e9d8 c8bd
000001b0: efdd e5bc 02b3 7ebd daea 233d 5ccd fdbd
000001c0: c171 a4bd 4f6a d8bd b34e 4bbd 0dfc 2ebd
000001d0: 9a27 88bd dfc5 78bd 149a 73bd d132 34bd
000001e0: 1fd8 1bbd d85f 2cbd ba78 80bd 4210 a4bd
000001f0: 5fb6 18bd eb9f 7cbd 2731 89bd 410d 1fbd
00000200: cd2e 28bd 4893 d3bd 3853 f0bd 50ab 27bd
00000210: 890b bcbc c74e f6bd c6a7 f4bd 2a70 00be
00000220: e409 50bc 716b e9bd 3977 35bd 47f0 8abd
00000230: 804a d3bd 4942 19bc 04a5 45bd e129 bcbc
00000240: a152 54bd 4bad 80bc 8d00 f1bd fdcb 1abd
00000250: bb9a 56bd edbb d7bb 764d 4cbd 580c d1ba
00000260: d4f6 4bbc 2775 bfbd f02e 17bc 4ef2 9dbd
00000270: 89ca 9cbd 0607 09bd df6c 92bc 3d63 37bd
00000280: dc82 8abd fc97 bfbd 0205 9dbd 9d23 cbbd
00000290: 546a b1bb 3f63 ecbd c2b5 90bc 93ae 58bd
000002a0: e0d9 01bd 4e1b 20bd 4934 cabd 920a a2bd
000002b0: a9e2 8dbd c253 0dbb c724 d8bd 5c26 6fbd
000002c0: 62b4 67bd 6214 e5bd da18 f4bb c8d0 25bd
000002d0: e72f babd d49d 89bd d462 d0bd 9273 f8bd
000002e0: 5b48 9abc 8578 95bd ff00 ccbd ebb2 f9bd
000002f0: 371d 85bd f4d0 b7bd d93a 36bd 7c87 e6bd
00000300: 0911 4bbd 61c7 b1bd 83e4 bebd 44ba 7abd
00000310: b305 8dbc c484 d1bd 38c4 c5bd e115 cbbd
00000320: f73f c4bc 5aaa 31bb cd02 3dbd 152c fcbd
00000330: 8d03 f0bd 3d01 5dbd 9e8d 5abd 2d83 c2bd
00000340: a693 9dbd eaee b1bd 00f4 efbd 203d f1bd
00000350: 767c 3bbc 19fa 39bd f159 513c ad4f 4abd
00000360: dcba 18bd f523 e8bd 1a52 f9bd 06cd 8ebd
00000370: 34be ccbd bd63 e0bd 548b e4bd cf46 b9bd
00000380: 6b58 38bd f955 d8bc 687b 78bd 8f38 0cbc
00000390: 9743 02be e42c 80bd 77f7 edbd a56a 7bbd
000003a0: 2ed0 aabb d431 d5bd a899 06bd ba7c 99bc
000003b0: 8672 62bd db0a e4bc 04c2 28bd 6c28 f6bd
000003c0: 6614 b6bd ac65 26bd 74d2 6cbd 0a26 debc
000003d0: 32d8 b5bc 7353 d7bd e50c 0ebd 8bfa 97bd
000003e0: 7e0e 3fbd 2cb6 a5bd 7414 d8bd 81b1 6bbd
000003f0: 8b16 d8bd 75df 08be 58ed 84bc 8dfe d0bd
-0.03675337 -0.050415877 -0.044504855 -0.096547656 -0.044411343 -0.024895158 -0.07174545 -0.11778008
-0.009131347 -0.05316667 -0.043059874 -0.004901238 -0.12125719 -0.042402137 -0.028926127 -0.081646636
0.05805132 -0.10354295 -0.00722617 -0.022073274 -0.123219065 -0.11277304 -0.08542841 -0.12022736
-0.004823252 -0.01342538 -0.029783176 -0.05966212 -0.075249515 -0.06925161 -0.07261683 -0.055925813
-0.044038255 -0.04964918 -0.08189081 -0.08255065 -0.10715829 -0.12025549 -0.11324129 -0.038432207
-0.013234771 -0.12346885 -0.024996517 -0.04242242 -0.07044093 -0.111722685 -0.047862265 -0.09963116
-0.06324931 -0.112087496 -0.031137176 -0.116340995 -0.011453694 -0.11383931 -0.07084185 -0.025420938
-0.07468852 -0.090567574 -0.12194556 -0.028621122 -0.009041827 -0.017189616 -0.030529149 -0.02808229
-0.047967263 -0.108360104 -0.05223115 -0.021458557 -0.0068993596 -0.018738277 -0.034390673 -0.11096215
-0.04659005 -0.08188458 -0.0021281901 -0.10437743 -0.106693685 -0.11801526 -0.079624176 -0.10841646
-0.012925787 -0.03285013 -0.052334897 -0.06520743 -0.044196635 -0.012221523 -0.089065894 -0.086590886
-0.12525798 -0.06725048 -0.02499323 -0.079823546 -0.12250923 -0.053808756 -0.08906909 -0.0083552515
-0.048763998 -0.020505255 -0.087699 -0.014491782 -0.10155048 -0.045272715 -0.07107553 -0.10930628
-0.08658892 -0.052889626 -0.046195004 -0.09806997 -0.028059928 -0.062182434 0.040018894 -0.12392685
-0.08029509 -0.10567152 -0.0496356 -0.042720843 -0.066481784 -0.06073558 -0.059473112 -0.043993775
-0.038047906 -0.04208359 -0.06273027 -0.080109134 -0.037283298 -0.061675947 -0.06698828 -0.038831
-0.041060258 -0.10330826 -0.11734623 -0.04093486 -0.02295472 -0.12026744 -0.11946063 -0.12542787
-0.012697671 -0.11397446 -0.044303153 -0.067841105 -0.10316944 -0.0093541825 -0.048253074 -0.022969188
-0.051836614 -0.015707633 -0.11767683 -0.037792195 -0.052393656 -0.006583682 -0.04987856 -0.0015949113
-0.012448985 -0.09348517 -0.009227499 -0.077122316 -0.07655818 -0.033453964 -0.01787418 -0.044772375
-0.06763241 -0.093551606 -0.07666971 -0.09918902 -0.0054142866 -0.11542367 -0.017664794 -0.052900862
-0.031701922 -0.03908854 -0.09873254 -0.079121724 -0.069279976 -0.0021564816 -0.1055389 -0.05838619
-0.05656851 -0.11185528 -0.0074492516 -0.040482312 -0.09091168 -0.067195565 -0.101751 -0.12131418
-0.01883333 -0.07298378 -0.099611275 -0.12192329 -0.06499713 -0.089754015 -0.044489715 -0.1125631
-0.049576793 -0.08680607 -0.09320929 -0.061212793 -0.017214632 -0.10230401 -0.096565664 -0.099162824
-0.023956282 -0.0027109594 -0.04614525 -0.123130955 -0.11719427 -0.05395626 -0.053357713 -0.09497676
-0.07694177 -0.08688147 -0.11716461 -0.11779237 -0.011443248 -0.045404527 0.012777791 -0.04939239
-0.037287578 -0.11334983 -0.12173863 -0.06972699 -0.09997216 -0.109565236 -0.11159387 -0.09046709
-0.045006197 -0.026408182 -0.060664564 -0.0085584065 -0.12721096 -0.06258562 -0.11619466 -0.061381
-0.0052128052 -0.104098946 -0.03286138 -0.018736232 -0.055285 -0.027837208 -0.041200653 -0.120194286
-0.088906094 -0.040624306 -0.05781789 -0.027117748 -0.022197817 -0.105139636 -0.034680266 -0.07420834
-0.04664468 -0.08091387 -0.10550776 -0.057542328 -0.10551175 -0.13366492 -0.016226456 -0.10204802

network.2.bias f4 [256]
00000000: fd5a 5fbd 9d62 c0bd a29a 95bd ef91 2fbd
00000010: 6d1b adbd 6023 da3c 1339 ccbd 9232 563c
00000020: 2b75 76bb 030b 9abd f8f6 4bbd c5f1 abbd
00000030: 3b7a 4abd 2863 05be 525c 32bd 34cb dfbd
00000040: a4bc 7cbd 2dd8 423e 86b1 8cbc ecf8 9dbd
00000050: 3a6f 83bb 12a1 bbbd 5559 c5bc bd0f 5fbd
00000060: 2872 bfbc 05bd b3bd 06f0 1cbd f86b eebd
00000070: a5da a23d 2fd1 8e3d 99bd d8bc 05b6 61bd
00000080: 2a53 96bc 829d dbbd 3607 b2bc a3f6 2fbb
00000090: 6e10 d0bd c5a1 87bc 7256 8cbd 2537 0ebd
000000a0: 6ab8 86bd 5b14 d2bd ce9f 05be 75df c7bc
000000b0: e56b a5bd 63a2 bebd b243 cebc 3c65 45bd
000000c0: 92fa 00bd 2310 d9bd 20be 5fbd b79b 28bc
000000d0: e3d2 4f3c 4dbd 63bc a839 04bd 195c b0bd
000000e0: b362 2bbd 1d05 69bd 9826 eabd 97a1 9c3d
000000f0: 55b0 1c3b 37cc e3bd 2172 9ebd 61a5 f9bd
00000100: 4419 c0bd 2ec5 d33c 2c2b 9abd 132f a0bd
00000110: 8577 753c 704e bfbd 9e40 59bd 831f d2bc
00000120: 2c98 b2bd 6615 5bbd da1a afbd ad58 73bc
00000130: db4a 1dbc 5db8 a1bd 8aab 8dbd 4c9a 9bbd
00000140: d249 67bd 8f51 9cbc c20b 5f3b eb5e bbbb
00000150: 70b1 23bd 3e97 a6bd a3bb d7bd 424d 773d
00000160: 5c8a 0a3c dc81 a1bd 1144 7fbd b4a6 cabd
00000170: 2678 c73c d8f2 b0bd ae4d 71bd 6456 8eb9
00000180: cb7c bebb e7d1 cfbd 9e5a f5bd dbdf d7bd
00000190: cc52 49bd a54e cabd 161d b0bd e8e3 c3bd
000001a0: 423e aebd 0773 96bd 2e53 f5bd 9989 2cbd
000001b0: b809 2abd 6a9b 89bc d8aa a6bb 77e7 0cbd
000001c0: b58a d5bd 40d4 babd ec1e 053c c465 debd
000001d0: f858 2dbe b9bb 1dbd 2db9 85bd 4b30 b3bd
000001e0: f41a 8cbd 0c6d d6bd ae57 95bd 6f57 a93a
000001f0: c36a aa3c b30e c9bd 321e fbbd 2b6d ddbd
00000200: f075 94bc 57b2 e938 b637 02be 8f33 3fbd
00000210: fe1c 73bd 71b6 9ebb 5619 e9bc 2525 66bd
00000220: 5745 e5bd c0e2 83bd c988 c9bd 7dbf c3bd
00000230: 3539 a7bd b91d bdbd ba3c 25bd 6da1 ccbd
00000240: ed63 98bd d43a c4bc a517 a4bb dca1 b3bd
00000250: 1f95 a7bb 58ad 5cbd 693d 56bd 2a43 21bd
00000260: ee36 89bd d0f2 7d3d cea0 6ebd 46c4 83bd
00000270: 6108 9cbd 92e5 7a3a 4fc4 4abd 9053 19bd
00000280: 9bd9 78bd 4395 53bd 6691 20bd 0dbd 05bc
00000290: f469 55bc b906 37bd 3043 97bd 6276 1abd
000002a0: 47b1 ea3d 1312 dabd 4f77 7cbc 273d d6bd
000002b0: e5c4 9cbd 8af2 463e 1a15 69ba 9dd6 00be
000002c0: 5bab d8bd e66c 8cbd 8638 4dbd cba8 123c
000002d0: f8f1 35bd 6dba 44bd 409e a8bd 23bc e3bd
000002e0: 279a 94bd 8934 c6bd 8fcb 91bc 33a3 9cbd
000002f0: d516 aebd 7568 e4bd 1146 6e3c df74 b4bd
00000300: f66a 08be 7f97 53bc 99f3 39bd 1c5c e9bd
00000310: cf87 2cbd ea29 79bc 03cc 43bd f988 73bd
00000320: c761 aebd 77a9 bcbd 75b9 e33a bff9 dfbb
00000330: 9360 cbbd 10ec cebb cc4d 74bd f757 d13b
00000340: aa7d 8cbd 2f3c 89bd bc15 ebbd e855 84bc
00000350: 5562 4ebd c5a4 67bd 2f31 eabd 2a79 bdbd
00000360: c3fb 153e d17a 0c3c fa21 81bd d54c 7dbd
00000370: 1d7b c2bd 309e 1c3a cba2 b6bd a2a7 9dbd
00000380: 55ad debb 4b0b 72bd 96b9 98bd a421 9ebb
00000390: dff7 d1bd f830 22bd 57c6 8cbd 470e e7bd
000003a0: b465 57bd 4f46 24bd 3121 01be 0376 14bd
000003b0: ed86 09bc 73ac 4bbd 910b a8bc 10d9 cabc
000003c0: 6d08 4fbd a943 00be 6796 a9bc 3606 9dbd
000003d0: 6b62 74bd 12aa 24bd e12e a1bd f6ea 54bd
000003e0: 5e42 1fbd d527 9dbd 003b 9abd 35ba a7bc
000003f0: bb48 bdbd 07f9 cfbd 2cfb 18bd 6b11 99bc
-0.054530133 -0.09393809 -0.073048845 -0.042863782 -0.08452497 0.026628196 -0.099718235 0.01307358
-0.0037606459 -0.075216316 -0.049796075 -0.08395723 -0.049432974 -0.13026106 -0.043545075 -0.1092743
-0.06170334 0.19027777 -0.017174494 -0.07713494 -0.004011062 -0.09161581 -0.024090448 -0.05445837
-0.023369864 -0.08776287 -0.03831484 -0.11641687 0.079518594 0.06973492 -0.026457595 -0.055105228
-0.018350203 -0.107234016 -0.021731954 -0.0026849888 -0.10159384 -0.01655663 -0.06852426 -0.03472056
-0.06578143 -0.10257789 -0.13049242 -0.024398545 -0.0807722 -0.093083166 -0.025178764 -0.048192248
-0.031488962 -0.10598781 -0.054624677 -0.010291032 0.012684557 -0.013900113 -0.032281548 -0.08611316
-0.041842174 -0.056889642 -0.114331424 0.07648008 0.0023908813 -0.11122935 -0.07736612 -0.12189747
-0.09379819 0.025850859 -0.07527766 -0.07821479 0.014982109 -0.09341133 -0.05304014 -0.025649792
-0.08720431 -0.053487204 -0.085500434 -0.014852685 -0.0096003665 -0.07896493 -0.06917484 -0.07597789
-0.056466885 -0.019081859 0.0034034108 -0.005718102 -0.03996414 -0.08134316 -0.10533836 0.060376413
0.008455839 -0.07886097 -0.062320773 -0.09895077 0.024349283 -0.08640069 -0.05891197 -0.00027148717
-0.0058132163 -0.101474576 -0.119801745 -0.10540744 -0.049151227 -0.098782815 -0.08599298 -0.09564954
-0.085079685 -0.073461585 -0.11978756 -0.04212341 -0.041513175 -0.01679774 -0.005086284 -0.03440043
-0.10426847 -0.09122515 0.008125048 -0.10859254 -0.1692847 -0.038509104 -0.0652946 -0.087494455
-0.068410784 -0.10470018 -0.07292114 0.0012919734 0.020802861 -0.09817257 -0.12261619 -0.10811838
-0.018122643 0.00011143524 -0.12716565 -0.04668003 -0.05935382 -0.004843526 -0.028454464 -0.056187768
-0.11194866 -0.064397335 -0.09840543 -0.09558008 -0.08165208 -0.09234185 -0.040341116 -0.09991727
-0.07440934 -0.023953833 -0.0050077015 -0.087711066 -0.005114212 -0.05387625 -0.05230466 -0.039370693
-0.0669993 0.061999142 -0.058258824 -0.064339206 -0.07618786 0.0009570952 -0.04950362 -0.037433207
-0.0607544 -0.05165602 -0.039201163 -0.008162749 -0.0130257495 -0.044684146 -0.07385862 -0.037710555
0.11459594 -0.10647979 -0.015409305 -0.10460883 -0.07654742 0.19428459 -0.0008891389 -0.12581868
-0.105795585 -0.06856708 -0.050102733 0.008951376 -0.044420213 -0.048029352 -0.08233309 -0.111198686
-0.07255965 -0.09677989 -0.01779726 -0.07648315 -0.085004486 -0.11152736 0.014543072 -0.08811354
-0.13322052 -0.012914537 -0.04539833 -0.113945216 -0.042121705 -0.015207747 -0.047801983 -0.0594568
-0.08514743 -0.0921201 0.0017373996 -0.006835192 -0.099305294 -0.006314762 -0.059644505 0.00638866
-0.06859906 -0.06700932 -0.11478755 -0.016154245 -0.050386745 -0.05655362 -0.11435162 -0.09251626
0.1464682 0.008574204 -0.06305309 -0.06184085 -0.09496138 0.00059744995 -0.08917769 -0.07697989
-0.006795565 -0.0590928 -0.07457273 -0.0048257876 -0.10252356 -0.03959748 -0.06873768 -0.1128202
-0.052587226 -0.040106114 -0.12610318 -0.036245357 -0.008393985 -0.049725007 -0.020513328 -0.024761707
-0.050545145 -0.1252581 -0.0207016 -0.076672 -0.05966417 -0.040201254 -0.078702696 -0.05198189
-0.038881652 -0.07673613 -0.075307846 -0.020474533 -0.09242388 -0.1015492 -0.03734891 -0.018685063

network.4.weight f4 [256, 256]
00000000: 77f1 e63c 3e69 0dbd 00f9 99bd 0f53 c4bd
00000010: 582e f4bc af61 0fbd 7a83 2fbd e5c6 893c
00000020: 1d9a 05bd 1c1f bf3c 5f5b 353d e50c a93d
00000030: 2196 0a3c 9007 d93d 8052 9c3c f11c 23bd
00000040: 019f f7ba 45d3 91bd 6610 b6bd 1383 06bd
00000050: 4f6e 43bd a7ce e1bd 781f fd3c 91c2 793d
00000060: 8f3f 08bd 7469 aebd 145a 183c cf01 613d
00000070: 6e3e b63d a4ad 23be e3b0 4bbd cec4 a23c
00000080: 5906 0fbd 4d93 eb3d 550c 8abd 520f ad3b
00000090: 0c51 cbbd 1c7f 9abd 297e 76b9 a1ab 453e
000000a0: a3c5 9b3c c562 babd 46a8 17bd f6a6 89be
000000b0: e80a 91bd 3cd6 903c be14 47bd 009f b13d
000000c0: a634 c4bb 5405 96bd 7b8f 463c 2531 33bc
000000d0: 621f 0bbd 37a7 84bd cfe7 d5bc 7b16 bfbb
000000e0: 560f 14bc 0fe1 a83d 353b b837 bbe4 783d
000000f0: d811 a83d 4a80 03bd dfd7 0dbe 22ce a0bc
00000100: 1c50 9c3d ec9e a5bd 1f1d 28bd 92e2 d1bb
00000110: f74c 8ebc 43d0 dcbd 65d1 a4bc 8120 57bd
00000120: 690b 1fbd b140 61bd 0832 c53d bedc cdbd
00000130: 428e b83a 05e9 d6bc 60f3 2cbd 5a9c 25bd
00000140: 9525 d13b 2791 1abc 3231 3cbd a79f 0e3d
00000150: 781f 0c3c 0ee4 2fbd 3c13 acbb 64ea e4bd
00000160: ea47 84bd e349 d4bc f23c b13c d7a2 c4bc
00000170: f501 38be d09d fbbd 67dd 9dbb 05ad 4e3d
00000180: 960a d1bd 5d2b c53d 824e c7bd 3a83 42bd
00000190: 730d f03b d299 8ebd 3901 393c b4ad 36bd
000001a0: 1307 8fbc 15ec edbc 393e e5bd 7a77 efbd
000001b0: 95ed 93bd 8076 933d ec85 87bd 2ea6 84bd
000001c0: dedd d13a edd2 2b3c ab6c 96bc 7c2a c9bc
000001d0: 5d6a 12be 8388 5ebc 9b7a e33c d348 d7bd
000001e0: cef3 51bd 84e5 42bd 96fe 69bc 05aa b7bb
000001f0: ec39 b5bc a6ea 57bd bdbd f0bc 82b9 a6bd
00000200: b168 10bd f1de c5bc 0fb1 f5bc a460 c3bb
00000210: ac3f 3cbd 8cb3 603d 40d4 f63d 9bdb 573d
00000220: 1b0e 393c 7bc9 01bd 5d8b 843c 3d35 3abd
00000230: 3f0e abbd 7bcc 8cbc 65ab 323d 4447 b4bd
00000240: e41b 63bd 59cf 2ebd 3a75 a3bd 6957 83bd
00000250: b89f b4be 2217 adbb eeee f3bd f978 f3bd
00000260: 4d24 7e3c 7a60 063e 5874 6c3d f030 933d
00000270: a072 753c b39a ddbd e56d 94bd 93d8 7abd
00000280: c9e5 a93a 1be8 633b cc15 e8bc b042 cbbc
00000290: bdb9 9abc 5cab 93bc e487 893d 8ffc 94bd
000002a0: 66cd 493e e6c8 623d 62b9 abbd a2a2 953d
000002b0: 535c 9b3c e209 0b3e e65e f5bd 7572 ccbb
000002c0: 585e 173c 01b4 bfbd de5d d1bc 4b24 1fbd
000002d0: e96b 6fbd c734 093b 278f a2bd 9535 9d3d
000002e0: 5240 d5bc de4f cfbd 7926 7e3b 8f87 8bbd
000002f0: 1940 c7bd b093 bd3c affb d93c 572b bcbd
00000300: 1fca 7a3c 80e5 3abc 8cef 2cbd 1c92 a8bb
00000310: 2da1 c73c 2d2f 8a3d 9ea1 aebc aa58 35bb
00000320: d032 47bb 5dc1 a5bd d02b 023c 4e74 b7bd
00000330: 80cd 7abd 73ae ddbd de19 63bd 69f2 ddba
00000340: 8b5b 923d 3980 97bc 251d a73c bc97 1cbd
00000350: 32c2 863c 67b3 2d3c d732 f3bd a4e9 b03d
00000360: 9ccc 723e a352 54bd a3a4 ab3d c0f8 943c
00000370: e47f 2fbd 8dd5 a0bd 3de1 8fbd 360e 70bd
00000380: 0413 ac3c 7dac 813c 0992 83bd 6142 883d
00000390: 813c 23ba 3b7d 0bbd 38fb 29bc 018f 7cbd
000003a0: 36e5 8d3c 30f7 7e3b 1bd4 cabc bc29 bd3d
000003b0: d46b 823c 8354 ca3c 2039 d53c 0935 3d3c
000003c0: ce06 7abd b2a7 3a3d 53e0 98bc 4fb1 dfbd
000003d0: 762d 973d 18e8 7abd 5f43 73bd 0685 4bbc
000003e0: 3601 a13d 5075 9bbd 8cc8 35bd 6135 243d
000003f0: 5ec7 aabd a5e6 dd3d fb0b b93b 4700 eabb
0.028191311 -0.034524195 -0.07518196 -0.09586155 -0.029807255 -0.035005268 -0.042849995 0.016818473
-0.032617677 0.023330264 0.04427659 0.082544126 0.008458645 0.105971456 0.019082308 -0.039822523
-0.0018891991 -0.071203746 -0.088898465 -0.032839846 -0.04771262 -0.11025744 0.030898795 0.06097657
-0.03326374 -0.08516207 0.00929882 0.054933365 0.08898626 -0.15984207 -0.04972924 0.019869234
-0.034918163 0.11502705 -0.067406334 0.0052813673 -0.09927568 -0.075437754 -0.00023507387 0.19303752
0.019015139 -0.0910087 -0.037025712 -0.26885194 -0.07082158 0.01768028 -0.048603766 0.08672905
-0.0059877215 -0.07325235 0.012119169 -0.01093701 -0.033965476 -0.06477206 -0.026111512 -0.0058315373
-0.0090368595 0.082460515 2.196208e-05 0.06076501 0.082065284 -0.032104768 -0.1385188 -0.019629542
0.07632467 -0.080869526 -0.041043397 -0.006405183 -0.017370684 -0.1078191 -0.020119378 -0.052521233
-0.03882924 -0.054993335 0.09628683 -0.10051869 0.0014080482 -0.02623416 -0.042224288 -0.04043231
0.006382654 -0.009434021 -0.045945354 0.034820225 0.008552425 -0.0429421 -0.0052513164 -0.11177519
-0.06459029 -0.025914138 0.021635506 -0.02400343 -0.17969497 -0.1228596 -0.004817653 0.050457973
-0.10207097 0.096274115 -0.09731771 -0.04748843 0.007325822 -0.06962933 0.011291795 -0.04459925
-0.017459428 -0.029043237 -0.11193509 -0.1169271 -0.072230496 0.072003365 -0.066173404 -0.06477009
0.0016011556 0.0104873 -0.018362364 -0.024556391 -0.14298387 -0.013582352 0.027768424 -0.10511937
-0.0512579 -0.047582164 -0.014281889 -0.0056049847 -0.022122346 -0.052714013 -0.02938735 -0.081408516
-0.03525609 -0.024154158 -0.029991655 -0.005962448 -0.04595916 0.05485873 0.12052202 0.052699666
0.011294867 -0.031686287 0.016179735 -0.04546093 -0.083523266 -0.017187348 0.043620486 -0.08802655
-0.05544652 -0.04267821 -0.079813436 -0.064131565 -0.35278106 -0.0052822987 -0.119108066 -0.11888308
0.0155115845 0.1312274 0.05772814 0.071870685 0.014980942 -0.10820522 -0.07247523 -0.061241698
0.0012962158 0.0034775797 -0.028330706 -0.024812073 -0.018887395 -0.018026046 0.06715372 -0.07274734
0.1970726 0.055367373 -0.08384968 0.0730641 0.018964922 0.13577989 -0.11980991 -0.0062392303
0.009238802 -0.09360505 -0.025557455 -0.03885297 -0.05845252 0.0020935999 -0.079374604 0.076762356
-0.026031647 -0.10122655 0.0038780256 -0.06812965 -0.097290225 0.023141712 0.02660927 -0.09187954
0.0153069785 -0.011407256 -0.042220637 -0.0051443707 0.024368847 0.06747279 -0.0213173 -0.0027671256
-0.0030395277 -0.08093522 0.007945016 -0.0895773 -0.061231136 -0.10824289 -0.05544459 -0.0016933206
0.07146367 -0.018493759 0.02039964 -0.038230643 0.016450021 0.010601855 -0.11874931 0.086383134
0.23710865 -0.05183662 0.08381011 0.01818502 -0.042846575 -0.078532316 -0.07025383 -0.058607303
0.021005161 0.01582932 -0.06424338 0.06653286 -0.00062269723 -0.034054976 -0.010374837 -0.061659817
0.01732121 0.003890466 -0.024759343 0.09236476 0.015920557 0.024698501 0.026028216 0.011548289
-0.061041646 0.045570083 -0.018661654 -0.10922491 0.07381718 -0.061256498 -0.059390422 -0.012421852
0.07861559 -0.07590735 -0.04438071 0.04008997 -0.083388075 0.108350076 0.00564718 -0.0071411463

network.4.bias f4 [256]
00000000: 70bd 59bc 3c64 67bc 1bfd 5abd bebe 3b3c
00000010: 23c0 0fbe 394b f3bd 897d c2bd 4dc2 ddbc
00000020: 7d91 bfbd 71c2 d3bc ce98 abb9 d761 e9bd
00000030: cd17 20bd 0c0f 9fbc c7f1 a1bc ead1 e73e
00000040: 1bf5 603e 9279 13bd d3c0 a1bd e67c d2bd
00000050: 74f9 82bd c3ed a5bc b448 8bbd 1d78 c1bd
00000060: c3f9 6fbd ba3c 95be 279a 5e3c 47bd edbd
00000070: b4b2 87bd fb55 fdbd 3611 9fbd 4308 4e3e
00000080: 2f3f 40be 982d 1bbd ebbb 95be 7216 80bd
00000090: eb6e de39 1700 bdbd 165e 44bd ed7f d0bd
000000a0: 4aff 68bd a55b 0b3e 6579 de3d eddc 0cba
000000b0: a46b 1abd 7b39 c1bc 7df8 313d 27b0 cabe
000000c0: bf8e e7bc a093 aabd 4c14 81bd 8f98 20be
000000d0: 910e b7bd d847 843e 7348 21bd faf7 52bc
000000e0: 4597 f23d 5edd be3d 0361 913e 6ea7 c1bd
000000f0: 1544 e03d cb58 e53b db42 8dbd b32d 85bd
00000100: a53d 133c 1863 06be 930c 75bd c199 5abe
00000110: 130d c53e a5f5 38be af40 e93b ddb7 573f
00000120: c253 a6bd 668a a7bd ff25 bbbc f899 153e
00000130: b0ec c2bc 469a cebd 8f3d 1fbe 225c 50bd
00000140: f60a 8e3e d16f 9e3e 817f 483d b43e 82bc
00000150: 505a 81bd 7f98 18bc 4692 e4bd eef5 bd3c
00000160: 0424 6a3e d929 2e3b 20d1 233e 4032 8cbe
00000170: 4c7a 26be 7edf 5abd 63ec 5cbd c139 21be
00000180: 0deb 82be 2f40 d2bd 0aa9 2d3d 6c6c 04be
00000190: a93e 1bbb 8217 f0bd d5dd 33bd 0e6f aebd
000001a0: dab9 0f3e f800 6cbd f632 2bbc a8ed c23e
000001b0: c127 abbd 927d 6abd 19b1 06bd 1079 ab3e
000001c0: 8d5d 74bc 366f b43d 3b86 41bd 6713 a7bd
000001d0: 3d95 81bd 34a4 d6bd d2cd cbbd ae01 96bc
000001e0: ea45 d3bc babc a2bd 5f64 9fbc af74 993d
000001f0: 442c 953b 40a1 32bd f5e5 b3bd 153d 18bd
00000200: be2d 1ebd eeab b4bd c491 94bd 1e04 87bd
00000210: 5161 b1bd ffef 12bd 265a 573e 784b 41bd
00000220: 0d23 02be 026e a7bd a1c3 84bd 9716 ed3d
00000230: 45e5 aabd 5afc 1d3e 3136 15be d901 25bd
00000240: 6531 babd bc98 b2bd 0e38 88bd 8d53 1dbe
00000250: fa31 213e 0b1a b2bd 6855 32ba e413 2ebe
00000260: 74f1 e23d cb38 38be 0fa1 88bd a543 d4bd
00000270: 9de3 7fbe ca7f 84bd 6c59 aebd ae85 6ebd
00000280: 8644 b1bd ddfd e4bd d9b3 39bc 79e1 1e3f
00000290: 8c82 13be 152f fdbc e430 eabd d095 6a39
000002a0: d26e 30bd 9ece 51bd 8b5c 963e f453 babd
000002b0: 627b 8bbd 9942 b2bd 0a6d 963e d111 c93c
000002c0: 3211 d0be a7f7 a9bd ea80 8dbb 8ad6 8e3b
000002d0: a639 39bc 1f79 93bd e31f a5bd 0e69 e5bc
000002e0: af5f bfbd 0d82 dbbd 617d 77bd fd00 05be
000002f0: 6555 5d3c f7f2 e9bd 3dac 0ebe f855 e4bd
00000300: 7239 96bd 0f70 8c3d ce90 6fbd 8cd7 c33d
00000310: ce22 f5bd 7a5c 82bf 7b46 cc3e b9d1 55bd
00000320: 2d83 61bd cead cd3d d5b4 343e 0014 9dbd
00000330: 29fc fbbd 2897 cfbd 634c a2bd b0c5 58be
00000340: b044 a5bc b388 bd3b 3ec0 403c f1ba 19bd
00000350: 678c 20bd f948 a83e faab 583c c387 9ebe
00000360: e5ee be3b f48b dabd 80f7 e7bd d90c 8cbd
00000370: 3c34 d0bd 5c00 cbbd 6970 34bd 3949 54be
00000380: e12d 4fbd 7bd7 0e3f ee4c f1bd cede a2bc
00000390: 77bf 04bd 0540 7dbd 9858 e73d 4722 8ebe
000003a0: 3681 0f3e 2313 debd c40a abbe b2b6 2f3c
000003b0: bbd3 dbbd fc70 c33e 15bf 98bd a9bc 1abe
000003c0: 43fe 0f3a 8d8c cebd 7084 1cbd 8d2b b03d
000003d0: b015 243f a91e d5bd 4c59 d7bd ae00 fd3a
000003e0: 2c38 5abd ae33 bdbd 803e ffbd 8b5c fcbd
000003f0: ff08 d73d 728d febd cf2f c4bd 930f b8bd
-0.013289794 -0.014123019 -0.053464036 0.011459051 -0.14038138 -0.11879582 -0.094966 -0.027070189
-0.093539216 -0.025849553 -0.0003272951 -0.113956146 -0.0390852 -0.019416355 -0.019768609 0.4527734
0.219685 -0.03600461 -0.078981064 -0.10277729 -0.06395236 -0.020254975 -0.068009764 -0.09446738
-0.0585878 -0.29147893 0.0135865575 -0.116083674 -0.06625882 -0.12369915 -0.077669546 0.20120339
-0.18774103 -0.03788528 -0.29244933 -0.06254281 0.0004242578 -0.09228533 -0.04794129 -0.1018065
-0.056884088 0.13609178 0.10862998 -0.00053734967 -0.03770031 -0.02358698 0.043449868 -0.3958752
-0.028266309 -0.083289385 -0.063026994 -0.15683196 -0.08938325 0.25836062 -0.039375734 -0.012876505
0.118452586 0.09319566 0.28394327 -0.09455763 0.109504856 0.0069991103 -0.06897517 -0.06502857
0.008986865 -0.13123739 -0.059826445 -0.21347715 0.38486537 -0.18062456 0.0071183066 0.8426493
-0.08121444 -0.08180694 -0.022845266 0.14609516 -0.023794502 -0.10088019 -0.15550826 -0.050869115
0.27742738 0.30944684 0.048949722 -0.01589904 -0.06316054 -0.009313702 -0.11160712 0.023188557
0.22865301 0.0026575236 0.15997744 -0.27382088 -0.1625759 -0.053435795 -0.053936373 -0.15744688
-0.25569955 -0.10266148 0.042397536 -0.12931985 -0.0023688471 -0.11723234 -0.043912727 -0.08517276
0.1403574 -0.05761811 -0.010449162 0.38071942 -0.08357192 -0.05724866 -0.032883737 0.334908
-0.014914882 0.08810274 -0.047247153 -0.081579976 -0.06327293 -0.10480538 -0.099513665 -0.018311348
-0.025790174 -0.07946153 -0.01945704 0.07492959 0.004552396 -0.04361081 -0.08784095 -0.037167627
-0.038617842 -0.088218555 -0.07254365 -0.06592582 -0.0866114 -0.03587341 0.21030483 -0.047191113
-0.12708683 -0.08175279 -0.06482626 0.11576574 -0.08344511 0.15428296 -0.14571454 -0.040284965
-0.090914525 -0.08720538 -0.066513166 -0.15363903 0.15741721 -0.086963736 -0.00068028877 -0.16999775
0.1108121 -0.17990415 -0.066713445 -0.10364465 -0.24989171 -0.06469686 -0.085131496 -0.058232956
-0.08655648 -0.11181233 -0.011334383 0.62062794 -0.14405268 -0.03090624 -0.114351064 0.00022371789
-0.043074436 -0.051222436 0.2936748 -0.09098044 -0.06810643 -0.08704109 0.29380065 0.024544628
-0.4063812 -0.08299189 -0.0043183463 0.004359071 -0.011305248 -0.072008364 -0.080627225 -0.028004196
-0.09344422 -0.107181646 -0.060422305 -0.12988658 0.013509129 -0.11423295 -0.13932891 -0.1114921
-0.073351756 0.06857311 -0.058487706 0.09562597 -0.11969529 -1.0184472 0.39897522 -0.05220196
-0.05505674 0.10042916 0.17647107 -0.0766983 -0.12303955 -0.10136253 -0.07924726 -0.21169162
-0.020174354 0.005784118 0.011764584 -0.037531797 -0.039196398 0.32868174 0.013224596 -0.30962953
0.0058268183 -0.10671225 -0.11326504 -0.06838388 -0.10166213 -0.09912178 -0.044052515 -0.20731057
-0.050580863 0.5579755 -0.11782251 -0.019881632 -0.032409158 -0.061828632 0.11296195 -0.27760527
0.14014134 -0.10843494 -0.3340665 0.01072471 -0.10733744 0.38172138 -0.07458321 -0.1511103
0.0005492905 -0.10085402 -0.03821224 0.08602057 0.6409559 -0.104062386 -0.10515079 0.0019302571
-0.053276226 -0.09238373 -0.12463093 -0.12322339 0.10499763 -0.12429322 -0.09579431 -0.089873455

network.6.weight f4 [256, 256]
00000000: 88df c8bd 889e 48bd ac50 65bd 5f3d d5bc
00000010: 3009 fc3b c4ac 923c de3e 0fbd 2ab6 56bd
00000020: e256 56bd 921d 0a3d ca16 1bbd 3a2c 4abd
00000030: 9677 47bd 68cb e83c 0aa9 143d 90f3 32bd
00000040: ab12 e0bd a07b 94bb 5eae 7c3d 7445 123d
00000050: 9eb2 31bd 0c87 86bc 70e6 0abc 84e1 8a3c
00000060: aca0 b2bc 348d 4cbd 5a24 5bbd a41d fabc
00000070: ec45 75bd 1691 1ebd 1611 5cbd 4e79 163d
00000080: 5c5d 9f3c 00eb 9bba 46f4 3d3d 8031 863c
00000090: 38b7 4d3c f65a 5cbd 4089 c6ba 50be 4abd
000000a0: 0c30 963c c8c7 c0bd c013 88bc 6c6c 833c
000000b0: 401b e1bb 80e9 10bc bc59 eabb 40eb fdbc
000000c0: b65f 49bd f066 1d3c 407f 33bd f0d8 fcbc
000000d0: 02cf 5fbd 5a44 39bd c02a c3bb a81b 24bd
000000e0: 89bc afbd 7cbb 74bd ed86 0fbc f04c a33c
000000f0: d4a9 3a3d 74de 0b3d 1803 f43c da17 52bd
00000100: f7a7 02bd 8435 2e3d a448 e83c ead0 68bd
00000110: e207 4abd 38a5 17bc c4d4 d3bc 9d50 853c
00000120: 7a6e 003d 6012 c8bc 2ae4 52bd aeca 1dbd
00000130: 1471 143d 1600 383d 3c84 79bd a807 9bbc
00000140: 601c ecbc 77d3 04bd 0301 a23c 4054 7bbd
00000150: 0056 1b3c ac31 3b3d f247 033d a685 203d
00000160: d395 e1bd 2a32 28bd f4df 283d bc3d 093d
00000170: 6845 753c e8b9 15bc 94aa d43c a41a f33c
00000180: f4c2 db3c ac3d 323d d58b 19be e8d3 3ebd
00000190: e581 84bd 2ce7 cd3b 8014 a03c c030 003d
000001a0: 43f8 eabd 082e 4fbd 9862 4c3c 6f5e 123c
000001b0: 00ce 8fba 34a6 d73c 802c 293d 5b6e 08bd
000001c0: 90cf 6a3c ec25 243d 8076 06bb aad1 57bd
000001d0: 00d5 84bb 7cd6 ccbc d732 70bd 105d d03c
000001e0: 0098 37bc 96ec 2f3d 2a39 2b3d 90f1 523c
000001f0: f20e 18bd 6040 18bb 5c2c 90bc 34d0 0abd
00000200: d0b3 58bc 748a b43b ce70 293d aca2 87bc
00000210: 84ed 9bbc 2eef 073d 992e 0bbe e83b a63c
00000220: 7095 17bc 6267 20bd e8f7 563d c43f 8d3c
00000230: 2cc2 b33c 3afc 78bd 60b0 0cbb bac8 413d
00000240: 2a3b 433d 00f0 da3a 485d 5fbc ae7b 05bd
00000250: 6719 97bd a087 723b e8c9 843c c7a3 fdbc
00000260: f214 c1bd c4bb 05be 088c 64bd c0ae 7abd
00000270: 804f adba b82c 56bd f40d 573d 5c2a 25bd
00000280: 048e 98bc 7a72 23bd 2c6e afbc c5c7 debb
00000290: b836 22bc 402b a6bc 9890 913c f8cf 44bc
000002a0: c055 78bd 88c2 5a3c c77a d7bd f067 8fbc
000002b0: eeed 31bd aa03 0c3d 8b58 a3bd bf9f 12bd
000002c0: 59ec 97bd 1658 5ebd a629 513d c0c0 b0ba
000002d0: 6c2c 513d f65a 5ebd 48d8 8c3c 6493 bdbc
000002e0: f454 7ebd 10cf b4bc 0c66 26bd f485 203d
000002f0: 4262 64bd f4f9 06bd c114 88bd 20d8 27bd
00000300: 9052 fbbc 1092 d8bd a2a5 71bd 00c7 c2bd
00000310: 5c7b 353d 3a1c c1bc d867 a4bd 927e 27bd
00000320: 5e85 33bd 2e52 c3bd c4a2 cbbd f873 7ebc
00000330: 1cd9 c93c be74 2c3d 0a23 60bd 1242 43bd
00000340: 2045 49bc f0be 4cbd 9824 283c 2875 443d
00000350: cf33 7abd 8c73 94bd c0c1 eeba fcbe 3abd
00000360: 97f2 70bd 9089 a6bc d4ab 89bc b859 02bd
00000370: fcd9 813c 6443 933c c034 3b3d e05e f2bb
00000380: 4201 7f3d 6c73 a0bc 63c7 0cbd 3e53 15bd
00000390: e666 51bd 1e04 0e3d 3c93 2a3d c606 533d
000003a0: 60c7 90bd 64c4 c63c 2c31 bfbc 9e7a 38bd
000003b0: 788d 6a3c 6cfd ba3c 3cf9 28bd b020 eabb
000003c0: 8814 dabc 88e5 50bd 40f9 37bb b231 4ebd
000003d0: dd8d d7bc 3c83 95bc 3c2e b1bc 2468 4a3d
000003e0: 2820 583d d004 ce3b c028 acba 9c5e 4c3d
000003f0: d269 083d a29c ba3b 1c2b 23bd 10f7 a9bc
-0.0980826 -0.048979312 -0.055985138 -0.02603024 0.007691525 0.017904647 -0.034972064 -0.05241982
-0.05232895 0.033719607 -0.03786353 -0.049358584 -0.04869803 0.028417304 0.03629402 -0.04368931
-0.10941061 -0.004531339 0.061689727 0.035710767 -0.043383233 -0.016421817 -0.008477792 0.016953237
-0.02180513 -0.04993935 -0.053501464 -0.030531712 -0.059881136 -0.038712583 -0.053727232 0.03673678
0.019453697 -0.0011895597 0.046375535 0.016381025 0.01255589 -0.053797685 -0.0015147105 -0.049497902
0.018333457 -0.09413105 -0.01661098 0.01604291 -0.0068697035 -0.008844733 -0.0071518105 -0.030995965
-0.049163543 0.009607062 -0.043822527 -0.030865163 -0.054640777 -0.0452312 -0.005956024 -0.040065438
-0.08580882 -0.05974911 -0.008760196 0.019934148 0.045572117 0.034147695 0.029786631 -0.051292278
-0.031898465 0.042531505 0.02835495 -0.05683986 -0.049323924 -0.0092557 -0.02585829 0.016273791
0.03135536 -0.024422824 -0.051487125 -0.03852337 0.036240652 0.044921957 -0.060917124 -0.01892455
-0.028822124 -0.03242823 0.019775873 -0.061359644 0.009480953 0.045701668 0.032051034 0.039189957
-0.11014905 -0.041063465 0.041229203 0.03350614 0.014970161 -0.009138562 0.025960244 0.02967579
0.02682636 0.043515846 -0.14994748 -0.04658881 -0.06470088 0.0062836614 0.019541025 0.03129649
-0.114731334 -0.05058101 0.012474678 0.008933648 -0.0010971427 0.026324369 0.041302204 -0.03330837
0.014331713 0.040075228 -0.002051741 -0.052690186 -0.004053712 -0.025004618 -0.058642235 0.025435
-0.011205673 0.042950235 0.041802563 0.012874976 -0.037123628 -0.002323173 -0.017599277 -0.033889964
-0.013226464 0.005509669 0.041367345 -0.01655706 -0.019034155 0.033187084 -0.13591994 0.020292237
-0.009251937 -0.039161094 0.052482516 0.01724232 0.021943174 -0.060787417 -0.0021467432 0.04731057
0.047663845 0.0016703606 -0.01363308 -0.032588653 -0.07377892 0.0037007108 0.016209558 -0.030961884
-0.09427823 -0.13059908 -0.055797607 -0.06120181 -0.0013222545 -0.05228874 0.05250354 -0.0403236
-0.018622406 -0.039904095 -0.021414839 -0.0067987167 -0.009900741 -0.020284295 0.017769143 -0.012012474
-0.060628653 0.013352044 -0.10521465 -0.017505616 -0.043439798 0.03418318 -0.079758726 -0.035796877
-0.074181266 -0.054283224 0.05106511 -0.0013485178 0.051067755 -0.054285966 0.017192975 -0.02314157
-0.062092736 -0.022071391 -0.040624663 0.039190248 -0.05575777 -0.032953218 -0.066445835 -0.040977597
-0.030679017 -0.10574734 -0.05899585 -0.095106125 0.044307098 -0.02357303 -0.08027619 -0.04089219
-0.04382836 -0.09537159 -0.099431545 -0.015530579 0.024639659 0.04210352 -0.054720916 -0.04767043
-0.012284547 -0.04998678 0.010262631 0.04796329 -0.061084565 -0.07248601 -0.0018215701 -0.045592293
-0.0588251 -0.020329267 -0.016805567 -0.031823844 0.015851013 0.01797647 0.045704603 -0.007396564
0.06225706 -0.019586287 -0.034369837 -0.03645634 -0.051123522 0.034671895 0.04164432 0.05152013
-0.07069278 0.024263568 -0.023338877 -0.04503881 0.014315955 0.02282592 -0.041253313 -0.00714501
-0.026621118 -0.051000148 -0.0028072149 -0.050340362 -0.026312763 -0.018251054 -0.021628492 0.049415722
0.05276504 0.006287195 -0.0013134703 0.049894914 0.033304043 0.0056949416 -0.039836034 -0.020747691
