project4/assets/part_1_img/freq_3_width_256/model.pth (torch, 811292 bytes, 10 tensors)

network.0.weight f4 [256, 14]
0	0xbe83cafc	-0.25740802
1	0xbdc95694	-0.098309666
2	0xbe4ea7ad	-0.2018115
3	0x3e7471a4	0.23871475
4	0xbeaa34f4	-0.33243525
5	0x3dfa45d7	0.12220352
6	0xbe1d0476	-0.15333733
7	0xbd935f0c	-0.07195863
8	0x3e62f442	0.2216349
9	0x3db4b250	0.08823073
10	0xbed4752f	-0.41495654
11	0x3d26c86d	0.040718485
12	0x3e354034	0.17700273
13	0x3e7b670d	0.2455103
14	0xbe76fcb8	-0.24119842
15	0x3e90bc1e	0.28268522
16	0xbd186a1d	-0.037210573
17	0xbeb78399	-0.3584259
18	0xbd87ecd9	-0.06636972
19	0xbee1036f	-0.43947932
20	0x3e523bf3	0.20530681
21	0x3f567e78	0.83786726
22	0xbe0c987b	-0.13730042
23	0xbe372ef3	-0.17889003
24	0xbe6ffbd6	-0.23435912
25	0x3ec201fd	0.37892142
26	0xbe2c4fe0	-0.16827345
27	0x3e3e6acd	0.18595429
28	0xbe92afc6	-0.2864973
29	0xbe0a27cf	-0.13491748
30	0xbc1ff927	-0.009763992
31	0x3de63a07	0.112415366
32	0x3da90eaf	0.08254754
33	0x3dc71e8d	0.09722624
34	0x3e60bb84	0.21946532
35	0x3dc97ef2	0.09838666
36	0x3df2ac93	0.11849322
37	0xbd7c0119	-0.061524484
38	0x3e86cdff	0.26329038
39	0x3e1240e1	0.14282562
40	0xbe825cdf	-0.2546148
41	0x3e8dd410	0.27700853
42	0xbe1e7268	-0.1547333
43	0xbd7dd0c5	-0.061966676
44	0xbdc289e2	-0.09498955
45	0xbbc1e103	-0.005916716
46	0xbb3a89dd	-0.002846352
47	0xbe53b9ea	-0.2067639
48	0xbdd5d60f	-0.10441219
49	0xbe17e5d9	-0.14833774
50	0x3c5ac1d9	0.013351881
51	0xbd826ad2	-0.063680306
52	0xbceceb41	-0.028920772
53	0xbe36017a	-0.17774001
54	0xbe38d2e0	-0.18049192
55	0xbd8e72e5	-0.06955508
56	0xbebf7c53	-0.3739954
57	0xbd48f19f	-0.049058553
58	0xbe95add8	-0.29234195
59	0x3e1ec41d	0.15504499
60	0x3ed40c5f	0.41415688
61	0x3ead73d2	0.33877426
62	0x3d6597ff	0.056053158
63	0xbe2504c0	-0.16115093
64	0xbdafba38	-0.0858044
65	0x3ca90435	0.020631889
66	0xbeef4eac	-0.4673971
67	0x3bf41115	0.0074483254
68	0xbef98da3	-0.48740873
69	0xbeb8d522	-0.36100107
70	0xbe98131b	-0.29702076
71	0xbecf516d	-0.4049181
72	0x3cc4aee6	0.02400918
73	0xbe282c0a	-0.1642305
74	0xbe8e9578	-0.2784841
75	0xbce3acae	-0.027792301
76	0x3e297c51	0.16551329
77	0x3ea896db	0.32927594
78	0xbee8984b	-0.4542869
79	0xbe923f50	-0.2856393
80	0xbe442892	-0.19156101
81	0xbf1dee26	-0.6169151
82	0x3ebccb2a	0.36873752
83	0x3d4a7bb1	0.049434368
84	0xbe3bc87a	-0.18338194
85	0xbccc3b36	-0.024930578
86	0x3cffed97	0.031241221
87	0xbc9fa793	-0.019489085
88	0xbd848e52	-0.06472458
89	0x3dd42e3a	0.103603795
90	0x3dc12dfa	0.094325975
91	0xbd3dbace	-0.04632073
92	0xbe219683	-0.15780072
93	0x3e3be19c	0.18347782
94	0x3e6cfce6	0.23143348
95	0x3ba068a4	0.0048952866
96	0xbe0f4314	-0.13990432
97	0xbea5c75f	-0.3237867
98	0xbe426234	-0.18982774
99	0x3da33c6a	0.079705074
100	0xbec227bf	-0.3792095
101	0x3daacbb0	0.083396316
102	0x3dd25cc0	0.10271597
103	0x3d3e50e9	0.04646388
104	0xbe776038	-0.24157798
105	0x3e770bf8	0.2412566
106	0x3e12870c	0.14309329
107	0xbe1403cf	-0.14454578
108	0xbee826ea	-0.4534219
109	0xbecd7d61	-0.4013472
110	0x3ea2aad1	0.31770948
111	0xbe9e4e27	-0.30919
112	0xbe0ef6bf	-0.13961314
113	0xbe1de706	-0.1542016
114	0xbe1178bf	-0.14206217
115	0xbd48eb78	-0.049052685
116	0xbe5b5cd6	-0.21422133
117	0xbd8ac4a0	-0.067757845
118	0xbd492512	-0.04910762
119	0x3e4a3324	0.19746071
120	0x3db9cf6a	0.09072764
121	0xbe2adc5f	-0.16685627
122	0xbea6cce5	-0.32578197
123	0x3dce9194	0.100863606
124	0xbec0595d	-0.3756818
125	0xbe6ea183	-0.233038
126	0xbea37da0	-0.31931782
127	0xbe9801fc	-0.29689014
128	0x3cbf97c6	0.0233878
129	0xbe530ced	-0.206104
130	0xbc40a88d	-0.011758936
131	0x3d86b0fd	0.065767266
132	0x3eb3767d	0.35051337
133	0x3daa087c	0.083023995
134	0xbddd3ea7	-0.108029656
135	0x3c935d9a	0.017988969
136	0x3f376fe9	0.71655136
137	0x3f2e6448	0.6812177
138	0x3ddef739	0.10886998
139	0xbe20e196	-0.15711054
140	0xbefb9ae0	-0.49141598
141	0x3e2d7de2	0.16942552
142	0x3dac7746	0.08421187
143	0x3e0f952b	0.14021747
144	0x3dc3fbef	0.09569537
145	0x3dad0e67	0.08450013
146	0x3e7b6a35	0.24552234
147	0xbe1541a7	-0.14575826
148	0xbd787408	-0.06065753
149	0xbe0ac14e	-0.13550302
150	0xbd0079e3	-0.03136624
151	0xbea66d32	-0.32505184
152	0x3e703384	0.23457152
153	0xbe2be961	-0.16788246
154	0x3de27142	0.110567585
155	0xbead71c5	-0.33875862
156	0xbe402f34	-0.18768007
157	0xbe784287	-0.24244128
158	0x3e5fdbd3	0.218612
159	0x3e51b29f	0.20478295
160	0xbe03434d	-0.12818642
161	0x3e9324b9	0.28738955
162	0xbde9256a	-0.11384089
163	0xbc9aeceb	-0.0189118
164	0xbd375d47	-0.04476669
165	0x3ef4b41e	0.47793669
166	0xbe8ab494	-0.27090895
167	0xbe03e121	-0.12878849
168	0x3d4c7667	0.049917605
169	0xbd381e42	-0.04495073
170	0x3df078e7	0.1174181
171	0xbd6dde6a	-0.05807344
172	0x3d7fe07d	0.062469948
173	0x3db779d3	0.08958783
174	0xbd9250c3	-0.0714431
175	0xbe152954	-0.14566547
176	0x3e470b12	0.19437817
177	0xbe5d67b7	-0.21621595
178	0xbe07a908	-0.13248074
179	0xbdbaf838	-0.09129375
180	0x3e844cf8	0.25839972
181	0xbd634b0c	-0.055491492
182	0x3ad2d0db	0.0016083972
183	0xbdc83d87	-0.097773604
184	0x3cac3df4	0.021025635
185	0x3dce5e6c	0.10076603
186	0x3cf83fbe	0.030303832
187	0x3dd04250	0.10168898
188	0x3c96c070	0.018402308
189	0x3c9085d7	0.017641945
190	0x3df2b398	0.11850661
191	0x3da42bf3	0.08016195
192	0x3c606932	0.0136969555
193	0x3d5164fe	0.051121704
194	0x3d6b943a	0.057514407
195	0xbc660ae9	-0.014040687
196	0xbe75dcd4	-0.2401002
197	0xbe19ebec	-0.15031403
198	0xbe87927e	-0.26478952
199	0xbeb5274f	-0.35381553
200	0xbde97e58	-0.11401051
201	0xbe1d6d84	-0.15373808
202	0x3eaab1d5	0.333388
203	0xbe8d9d44	-0.27659047
204	0x3e36c8c4	0.17850024
205	0x3d370d98	0.0446907
206	0xbe59f6d1	-0.21285559
207	0xbf3094de	-0.68977153
208	0x3cb09746	0.021556508
209	0x3e4f965f	0.20272206
210	0xbe1e5bb6	-0.15464672
211	0x3d804c1e	0.06264518
212	0xbe6fcc46	-0.23417768
213	0xbc23e1bf	-0.0100025525
214	0x3abded82	0.0014490339
215	0xbe56b42c	-0.20967168
216	0xbd8b55ee	-0.06803499
217	0x3e0c1cf4	0.1368292
218	0xbe325c49	-0.17418016
219	0xbe4ccbc2	-0.19999602
220	0xbe3528f2	-0.176914
221	0xbde0bae5	-0.10973147
222	0x3e123aa8	0.14280188
223	0xbdf3afe7	-0.11898785
224	0x3d01f5f4	0.0317287
225	0xbe3b5c36	-0.18296894
226	0x3d9fe05e	0.078064665
227	0xbe7b979e	-0.24569556
228	0xbe0d5c1b	-0.13804667
229	0xbdb93c42	-0.090446964
230	0x3e45446a	0.19264379
231	0xbb655f45	-0.0034999412
232	0x3e30852f	0.17238306
233	0xbe57dc57	-0.21080147
234	0x3d28019a	0.041017152
235	0x3dcca451	0.09992278
236	0xbe093387	-0.13398562
237	0xbb69200f	-0.0035572087
238	0xbcaa42e5	-0.02078385
239	0x3e145f9d	0.14489599
240	0x3c60ee12	0.013728635
241	0xbf87b75e	-1.0602834
242	0xbc503a92	-0.012709277
243	0xbe497aec	-0.19675797
244	0x3a7798f0	0.0009445092
245	0x3f373f66	0.71581113
246	0x3bf66b8e	0.0075201457
247	0xbe1d137d	-0.15339465
248	0x3b5c8c52	0.0033652973
249	0x3f7a9cef	0.9789571
250	0x3b0ecdc8	0.0021790136
251	0x3e877f29	0.26464203
252	0xbeef262f	-0.4670882
253	0xbec6af5e	-0.3880567
254	0xbe26c089	-0.16284384
255	0x3c15283d	0.009103832

network.0.bias f4 [256]
0	0x3d96a5fb	0.07355877
1	0xbde48589	-0.11158282
2	0x3de5f8ed	0.112291194
3	0xbd2e5759	-0.04256377
4	0xbe109167	-0.14117967
5	0xbe84e59b	-0.25956425
6	0xbd6a26a7	-0.057165768
7	0xbdd925d3	-0.106029175
8	0xbe30ca2f	-0.17264627
9	0xbe662be8	-0.22477686
10	0xbe2ebaf7	-0.17063509
11	0x3ddec43e	0.10877274
12	0xbd95ff15	-0.07324044
13	0xbcb474b6	-0.022028308
14	0xbe2ea6c5	-0.17055805
15	0x3b0ac411	0.0021173994
16	0xbe8caff8	-0.27478004
17	0xbe00d2fd	-0.12580486
18	0x3d3be043	0.04586817
19	0xbe94de84	-0.29076016
20	0xbe0b2fc2	-0.13592437
21	0x3da182ef	0.07886302
22	0xbe1ec561	-0.15504982
23	0xbe905e85	-0.28197113
24	0xbe15a35a	-0.14613095
25	0xbdbcbba2	-0.092154756
26	0xbdd1db0a	-0.102468565
27	0xbd1e6d95	-0.038678724
28	0xbde66e86	-0.112515494
29	0x3d8e759b	0.06956025
30	0x3b996dae	0.0046822643
31	0xbe412b7f	-0.18864249
32	0x3ddf3d89	0.10900409
33	0xbeb53d29	-0.35398224
34	0xbd5a6082	-0.053314693
35	0xbedad8cb	-0.42743525
36	0xbcd1ecd9	-0.025625633
37	0xbacbcb9e	-0.0015548354
38	0xbd878b9c	-0.06618425
39	0xbe0fdae8	-0.1404835
40	0xbde60e50	-0.11233199
41	0xbe1b0cca	-0.15141597
42	0xbeadd5fb	-0.33952317
43	0xbe917abe	-0.28413957
44	0x3e026dad	0.1273715
45	0xbdf3ba2f	-0.11900746
46	0xbdbe5086	-0.092927024
47	0x3c687400	0.014187813
48	0xbe6c77b0	-0.23092532
49	0xbe057e8d	-0.13036557
50	0x3e1b4190	0.15161729
51	0xbeb7178a	-0.35760146
52	0xbe129fdd	-0.14318796
53	0xbdeb294c	-0.11482486
54	0xbd9bb47b	-0.07602783
55	0xbdd22acf	-0.10262071
56	0xbdaab49d	-0.083352305
57	0xbe986723	-0.29766187
58	0xbd0c5e22	-0.03426946
59	0xbe96db6c	-0.2946428
60	0xbdad4dd3	-0.084621094
61	0xbe865b34	-0.26241457
62	0xbed79115	-0.42102876
63	0x3de9ac83	0.11409857
64	0xbe46dc36	-0.19419941
65	0xbe0a5c92	-0.13511875
66	0xbefe2c06	-0.49642962
67	0xbebc86a7	-0.36821482
68	0xbdcaff7b	-0.0991201
69	0x3e19d6b2	0.15023306
70	0x3c4a66aa	0.012353579
71	0xbd6eccca	-0.05830077
72	0xbd88267f	-0.066479675
73	0xbe2ab6a9	-0.16671242
74	0xbe5eb186	-0.21747407
75	0xbe5e5e92	-0.21715763
76	0xbe04c0cd	-0.12964173
77	0xbe1d7621	-0.15377094
78	0xbe8873b1	-0.26650766
79	0x3e00cfcd	0.1257927
80	0xbcb0a883	-0.021564728
81	0xbd12af09	-0.035811458
82	0xbce812af	-0.028329222
83	0xbe263aa6	-0.1623331
84	0xbe268f9e	-0.16265723
85	0xbc80782e	-0.015682306
86	0xbcd2b0eb	-0.025719127
87	0xbe203779	-0.15646161
88	0xbd5b9f74	-0.053618863
89	0xbe0ce30d	-0.13758488
90	0xbd0aa44a	-0.033848085
91	0xbe1bffc1	-0.15234281
92	0xbe214f2e	-0.15752861
93	0xbe035930	-0.12826991
94	0x3d06a272	0.032869764
95	0xbe9668a8	-0.2937672
96	0xbebc90e4	-0.36829293
97	0xbcab7324	-0.020928927
98	0xbef90f08	-0.4864428
99	0xbdf6ce60	-0.12051082
100	0xbe9acc27	-0.3023388
101	0x3db53337	0.08847659
102	0x3c20f5e6	0.009824252
103	0xbe154664	-0.14577633
104	0xbe397463	-0.18110804
105	0xbec79779	-0.38982752
106	0xbe633bff	-0.22190855
107	0xbe4c48e8	-0.19949687
108	0xbe893e6d	-0.2680544
109	0xbebb4830	-0.36578512
110	0xbd422a92	-0.04740388
111	0x3dc3646a	0.09540637
112	0xbd27cdfc	-0.040967926
113	0xbe1bdd09	-0.15221037
114	0xbe3bcc7d	-0.18339725
115	0xbe75ea96	-0.24015269
116	0xbe9282be	-0.28615373
117	0xbed822a9	-0.42213944
118	0xbec13a77	-0.37739918
119	0xbd3df37b	-0.04637478
120	0xbe701a11	-0.23447444
121	0xbe9a4722	-0.30132395
122	0xbde25e53	-0.11053147
123	0xbe0c922d	-0.13727637
124	0xbe87be49	-0.26512364
125	0xbe317e62	-0.17333367
126	0x39d0d5a6	0.00039832032
127	0xbe8613a3	-0.26186857
128	0xbcdc57a6	-0.026897263
129	0x3dd86d25	0.10567693
130	0xbe90de89	-0.2829478
131	0xbddd0736	-0.10792391
132	0xbe2dfe36	-0.16991505
133	0xbeabe11c	-0.33570182
134	0x39e104d8	0.00042918953
135	0xbe8f178d	-0.27947655
136	0x3e02dd56	0.12779745
137	0x3df17bb9	0.11791176
138	0xbe93b68b	-0.28850207
139	0x3d847052	0.06466736
140	0x3e2b370c	0.16720217
141	0xbe2e4e1d	-0.17021985
142	0xbe839027	-0.25695917
143	0xbe581448	-0.21101487
144	0x3cb871af	0.022515146
145	0x3d890f67	0.06692391
146	0xbe8caa21	-0.27473548
147	0xbe419b25	-0.18906839
148	0xbea8ea07	-0.3299105
149	0xbea1f6f9	-0.31633738
150	0x3d1b1801	0.03786469
151	0xbeafb338	-0.3431642
152	0xbeb98b3e	-0.36239046
153	0xbe813a7e	-0.25239938
154	0xbde56355	-0.11200587
155	0x3bb2de4f	0.00545863
156	0x3de4dc4a	0.11174829
157	0xbdf5a2c0	-0.11993933
158	0x3d1ec06b	0.038757723
159	0x3d91c170	0.071169734
160	0xbdc543cc	-0.09632072
161	0xbe162491	-0.14662386
162	0xbeb1379d	-0.34612742
163	0xbe98d0ea	-0.2984689
164	0xbdc71af3	-0.09721937
165	0xbdb869a2	-0.09004523
166	0xbcf2433d	-0.029573077
167	0xbecf0e6b	-0.40440688
168	0xbe947ea7	-0.29002878
169	0xbe452489	-0.19252218
170	0x3e2573d6	0.16157469
171	0xbe694a72	-0.22782305
172	0xbd0f732e	-0.035021953
173	0xbe24789f	-0.16061638
174	0xbe8f2d37	-0.27964184
175	0x3c99cc04	0.01877404
176	0xbe70fd3a	-0.23534098
177	0x3d1eb5e6	0.03874769
178	0x3e270139	0.1630906
179	0xbe24d716	-0.16097674
180	0x3d7e1003	0.06202699
181	0xbec4dd60	-0.38450146
182	0x3db6212c	0.08893046
183	0xbe5d03c4	-0.21583468
184	0xbd16c37a	-0.036807515
185	0xbe84f8fe	-0.25971216
186	0xbe96b77f	-0.2943687
187	0x3c7bb374	0.015362609
188	0xbe43e936	-0.19131932
189	0x3d49994b	0.049218457
190	0x3e3e35df	0.18575238
191	0xbd93b1f2	-0.07211675
192	0x3bd45152	0.0064794207
193	0xbd11c4e4	-0.03558816
194	0xbe294648	-0.16530716
195	0x3d42e9c1	0.047586206
196	0xbe657359	-0.22407283
197	0xbde0261e	-0.1094477
198	0xbd752a66	-0.059854887
199	0xbca8d992	-0.020611558
200	0xbe6bc43d	-0.23024078
201	0xbc8c3613	-0.017115628
202	0xbe3b99d0	-0.18320394
203	0xbe32a00d	-0.17443867
204	0xbd9497eb	-0.072555386
205	0xbb04476a	-0.0020184168
206	0xbe91ef4b	-0.2850288
207	0xbe9c1894	-0.30487502
208	0xbea87745	-0.32903495
209	0xbdd4ead2	-0.10396351
210	0x3d6c7a21	0.05773366
211	0xbe96d4fb	-0.29459366
212	0x3df7fff2	0.121093646
213	0xbe1dbe71	-0.15404679
214	0xbe99ecef	-0.30063578
215	0xbe1673dc	-0.14692634
216	0xbd0a8f42	-0.033828028
217	0xbd16ba0d	-0.036798526
218	0xbdba6a46	-0.09102301
219	0xbea7f093	-0.3280073
220	0x3b5f346a	0.003405834
221	0xbc028d74	-0.007968295
222	0x3d25a434	0.0404398
223	0x3b8d0fc5	0.0043048584
224	0xbeb27d6f	-0.34861323
225	0xbe0155d4	-0.12630397
226	0xbe466c21	-0.19377185
227	0xbe803a07	-0.2504427
228	0xbd176a44	-0.036966577
229	0x3dba4760	0.09095645
230	0xbecea790	-0.40362215
231	0x3d804ffa	0.06265254
232	0xbe91b43e	-0.28457826
233	0x3d1eaf41	0.038741354
234	0xbe0b210b	-0.13586824
235	0xbe821a23	-0.25410566
236	0xbe96e988	-0.29475045
237	0xbd856ba5	-0.06514672
238	0xbe312d75	-0.17302497
239	0xbc30a100	-0.010780573
240	0x3d7b3df4	0.06133838
241	0x3e0a3ced	0.13499804
242	0xbda13c1e	-0.078727946
243	0xbe97c4b3	-0.29642257
244	0xbdd35e13	-0.103206776
245	0xbe1047e8	-0.1408993
246	0xbd0dfef4	-0.03466697
247	0xbe8eb6df	-0.27873895
248	0xbe3fe5d3	-0.18740015
249	0xbe945992	-0.28974587
250	0xbd5e5525	-0.05428042
251	0xbe29130e	-0.16511175
252	0xbea56eb9	-0.32311037
253	0xbc877bac	-0.016538464
254	0xbe702487	-0.23451434
255	0xbedb8ae1	-0.42879394

network.2.weight f4 [256, 256]
0	0xbd612c26	-0.054973744
1	0xbd988b49	-0.074484415
2	0x3c905fce	0.017623808
3	0xbc9b0d6b	-0.018927297
4	0xbd9d27c3	-0.076735996
5	0x3c91feb4	0.017821647
6	0xbdb20d8a	-0.086939886
7	0x3ed9e776	0.42559403
8	0xbb7c5e3d	-0.0038508319
9	0x3ca55178	0.020180449
10	0xbd989c1a	-0.07451649
11	0xbe1294b2	-0.14314535
12	0xbd511038	-0.051040858
13	0xbc6664e2	-0.014062138
14	0x3e7a6523	0.24452643
15	0x3d8f4b15	0.06996743
16	0xbc4f611a	-0.012657428
17	0xbdcef42c	-0.10105166
18	0x3e2e5e91	0.17028262
19	0xbda0ad4a	-0.07845552
20	0xbe4c7913	-0.19968061
21	0x3d5ec3c6	0.054385923
22	0xbdbb1f76	-0.0913686
23	0xbedea5e2	-0.43485934
24	0x3b34f546	0.0027612015
25	0xbd97812b	-0.07397684
26	0xbd17f312	-0.037097044
27	0xbd21b342	-0.039477594
28	0xbddb1fbf	-0.106994145
29	0xbdebbe0e	-0.115108594
30	0x3ebc1c09	0.3674014
31	0xbe8b582e	-0.27215713
32	0xbcd84824	-0.026401587
33	0x3d86b7e0	0.0657804
34	0xbd9c2a46	-0.076252505
35	0x3ca1fe5e	0.019774612
36	0x3bf7a586	0.0075575737
37	0xbe3534ad	-0.17695875
38	0x3c614079	0.013748282
39	0xbe38f566	-0.18062362
40	0x39c503de	0.0003757765
41	0x3c638b78	0.013888232
42	0xbd4f5fc9	-0.050628457
43	0xbbefb216	-0.0073149307
44	0x3dcf5ab6	0.101247236
45	0xbdf89cb0	-0.12139261
46	0x3ccabe5d	0.024748975
47	0xbe2a6523	-0.16640143
48	0xbd09e644	-0.033666864
49	0xbe396fc6	-0.18109044
50	0x3c96859d	0.018374259
51	0x3d6cba11	0.057794634
52	0xbdb67c56	-0.08910434
53	0xbdd1467e	-0.102185234
54	0x3ee722be	0.45143694
55	0x3c8a5d2c	0.016890131
56	0xbe9807ce	-0.29693455
57	0xbe35f933	-0.17770843
58	0xbd06d37b	-0.032916527
59	0xbceabd08	-0.02865459
60	0x3e349a23	0.17636923
61	0x3d0de0e0	0.034638286
62	0xbe0f3897	-0.13986431
63	0xbcb30316	-0.021852057
64	0x3d13cbbe	0.036082976
65	0xbdaf7a36	-0.08568232
66	0xbd5f9a58	-0.054590553
67	0xbcd2a488	-0.02571322
68	0xbd099be3	-0.03359593
69	0xbd8f5ad5	-0.06999747
70	0xbdfe71fe	-0.12424086
71	0xbd90b1e1	-0.07065178
72	0xbdb6f7a3	-0.08933952
73	0xbddba048	-0.107239306
74	0xbe81fc7d	-0.25387946
75	0xbcd0ef3e	-0.025504705
76	0xbe69cd43	-0.22832207
77	0xbd02dd85	-0.03194954
78	0xbdcca7c2	-0.09992935
79	0xbd906b83	-0.07051756
80	0x3ce26a5b	0.027638605
81	0xbddcf5d8	-0.107890785
82	0xbc8b69a3	-0.017018145
83	0x3bdeceb7	0.0067995447
84	0xbda838fd	-0.08213995
85	0xbd11352e	-0.035451107
86	0xbdabd2db	-0.08389827
87	0xbdc8507e	-0.09780978
88	0xbda927d6	-0.08259551
89	0xbddec1d1	-0.10876811
90	0xbb4cef7d	-0.0031270676
91	0xbe8b7543	-0.272379
92	0xbbbacdf6	-0.005700822
93	0x3cbdee68	0.02318497
94	0xbd34e4fb	-0.044163685
95	0xbdec323b	-0.11533018
96	0xbd6c2571	-0.057652894
97	0xbdf0866b	-0.11744388
98	0xbd913381	-0.07089902
99	0xbdfc8c28	-0.1233142
100	0x3cdf7e18	0.027281806
101	0x3d6a04d1	0.0571335
102	0xbe25d74c	-0.1619541
103	0xbdc06196	-0.09393613
104	0x3d6b8a91	0.057505194
105	0xbd437205	-0.04771616
106	0x3d2a1980	0.041528225
107	0xbe855a7e	-0.26045603
108	0xbcfe13e9	-0.031015353
109	0xbe88f631	-0.2675033
110	0xbd9ce7c3	-0.076613925
111	0xbe804e48	-0.25059724
112	0xbe058410	-0.13038659
113	0xbdd579ce	-0.10423623
114	0x3de3a27b	0.11114975
115	0xbe47776f	-0.19479154
116	0x3d6c26c3	0.057654154
117	0xbd1d67de	-0.038429134
118	0xbdb8b0a9	-0.0901807
119	0xbe42bf6e	-0.19018337
120	0xbe8a1131	-0.2696624
121	0xbdcaaf63	-0.098967336
122	0xbd3f7ea3	-0.04675163
123	0xbcafb48b	-0.021448394
124	0xbd504f8b	-0.050857108
125	0xbe188cc1	-0.14897443
126	0xbdecd289	-0.11563594
127	0x3c55146c	0.013005357
128	0xbe362aa1	-0.17789699
129	0xbdbdbfc4	-0.09265092
130	0xbd3447ad	-0.044013668
131	0xbe090e8c	-0.13384455
132	0xbda7e5e5	-0.08198146
133	0xbec17b2f	-0.37789294
134	0xbce70b5a	-0.028203655
135	0xbe5a2c96	-0.2130607
136	0x3d63f225	0.05565085
137	0xbcf69cb6	-0.030104022
138	0xbd2e5630	-0.042562664
139	0xbdb34f47	-0.08755355
140	0xbe76e080	-0.24109077
141	0xbf284b0d	-0.6573952
142	0xbd87bc73	-0.06627741
143	0x3da28043	0.0793462
144	0xbb3394db	-0.0027401957
145	0xbdbed961	-0.093188055
146	0x3caf67de	0.021411832
147	0x3c53666d	0.012902838
148	0xbc03c383	-0.008042219
149	0x3e57ce0c	0.21074694
150	0xb9c74f23	-0.000380152
151	0xbd1f40d9	-0.038880203
152	0xbdb636c4	-0.088971645
153	0x3db36140	0.08758783
154	0xbb4c6bec	-0.0031192256
155	0x3cd02ae8	0.025411084
156	0x3d565b80	0.052333355
157	0xbeab0ffa	-0.33410627
158	0xbdfd3477	-0.123635225
159	0xbca698b4	-0.020336486
160	0xbd84b49b	-0.0647976
161	0x3e04f4a0	0.12983942
162	0xbd0b42d4	-0.03399928
163	0xbe64112a	-0.22272173
164	0xbc570f42	-0.013126196
165	0xbd6b3eab	-0.05743281
166	0x3d9bda9a	0.07610054
167	0x3dcce7bc	0.10005137
168	0x3e096bb0	0.13419986
169	0xbdad8b9c	-0.08473894
170	0xbd29e521	-0.04147828
171	0xbdbd77c5	-0.0925136
172	0x3df58465	0.11988143
173	0xbdd70177	-0.10498326
174	0x3d1aeab7	0.037821498
175	0xbca52d16	-0.0201631
176	0x3e0c29e5	0.13687856
177	0xbb140d61	-0.0022590982
178	0x3c308bee	0.010775549
179	0xbd15d9ab	-0.036584537
180	0xbe4cd364	-0.20002514
181	0xbd07253d	-0.032994498
182	0xbe228781	-0.15872003
183	0xbdb01f78	-0.08599752
184	0xbb556833	-0.0032563328
185	0xbc351728	-0.011052884
186	0x3cbd4f5b	0.023109129
187	0xbd945f93	-0.07244792
188	0x3db9f759	0.09080381
189	0xbc6add90	-0.014335051
190	0xbd6bc910	-0.057564795
191	0xbd46c490	-0.0485273
192	0x3ca54616	0.020175021
193	0xbeb9791c	-0.36225212
194	0xbe4a4f0d	-0.19756718
195	0xbd13176a	-0.035911
196	0x3e03c19d	0.12866826
197	0x3e900deb	0.2813562
198	0xbddb5a32	-0.10710563
199	0xbcf06870	-0.029346675
200	0xbe6257b6	-0.22103772
201	0xbc28b690	-0.010297433
202	0xbe2545af	-0.16139863
203	0xbda36f50	-0.079802155
204	0xbe597df2	-0.2123945
205	0x3cb57b16	0.022153419
206	0xbd694924	-0.056954518
207	0xbf6c5444	-0.9231608
208	0xbc989c63	-0.018629258
209	0x3be1b9d1	0.006888606
210	0xbe282810	-0.16421533
211	0xbeacb1be	-0.33729357
212	0xbc837f03	-0.016051775
213	0xbdadf28e	-0.08493529
214	0xbe6388a4	-0.22220093
215	0xbedc8556	-0.43070477
216	0x3cfae7db	0.030628135
217	0x3ce1d88a	0.027569074
218	0xbd62083f	-0.055183645
219	0xbca84b27	-0.020543648
220	0xbe138302	-0.14405444
221	0x3d31bd64	0.043393508
222	0x3b8f9e61	0.004382894
223	0xbd77d739	-0.060507987
224	0xbe6e6265	-0.23279722
225	0xbe435fda	-0.19079533
226	0x3de9b91c	0.1141226
227	0xbdbf9109	-0.09353835
228	0xbcaabe06	-0.020842563
229	0xbede8686	-0.43462008
230	0x3e158e43	0.1460505
231	0x3c40ff8a	0.011779675
232	0x3d7d61c5	0.06186082
233	0x3c45fa20	0.01208356
234	0xbcb069b0	-0.02153477
235	0xbe90fa14	-0.28315794
236	0x3df58bed	0.11989579
237	0xbdb2ac0d	-0.08724222
238	0xbcac4d27	-0.021032883
239	0xbeada6ad	-0.33916226
240	0xbc82e25e	-0.01597708
241	0x3df12e87	0.117764525
242	0xbdc5ea76	-0.096638605
243	0xbd6d12cb	-0.05787925
244	0xbcd6205f	-0.026138483
245	0xbd63b809	-0.05559543
246	0x3dabcf88	0.08389193
247	0xbde4f7ef	-0.11180102
248	0xbcd621af	-0.026139108
249	0xbe12964a	-0.14315143
250	0x3b310dbb	0.002701624
251	0xbd32e2e2	-0.043673404
252	0xbd93aebb	-0.072110616
253	0xbc6383a8	-0.01388637
254	0xbd9c4d05	-0.07631878
255	0xbb2ce9b8	-0.0026384424

network.2.bias f4 [256]
0	0xbd4429b5	-0.047891337
1	0xbd356620	-0.044286847
2	0xbdd921fc	-0.10602185
3	0xbd09d6f9	-0.03365228
4	0x3c6e06ab	0.014527957
5	0xbdc558fd	-0.09636114
6	0xbcb562db	-0.022141865
7	0xbdd4823b	-0.10376402
8	0xbdabd161	-0.08389545
9	0xbbcc5ec8	-0.0062368847
10	0xbcde26fd	-0.0271182
11	0xbda16edb	-0.07882472
12	0xbdb3dae7	-0.08781987
13	0x3df6323e	0.12021302
14	0xbdd83d08	-0.10558516
15	0xbdc3210e	-0.09527789
16	0xbdfa3f70	-0.12219131
17	0xbd99e6c8	-0.07514721
18	0xbc891762	-0.016734783
19	0x3dbadd7d	0.09124277
20	0x3c76ddc1	0.015067519
21	0xbdd730b8	-0.10507339
22	0xbda42fc4	-0.08016923
23	0x3d04918a	0.03236536
24	0xbd1a7f42	-0.03771902
25	0xbd3eb168	-0.046555907
26	0xbbad5c1b	-0.005290521
27	0xbdc33656	-0.09531848
28	0xbc3a4bf9	-0.011370652
29	0xbdea0083	-0.11425879
30	0xbe1be2de	-0.15223262
31	0xbdc1d0c5	-0.09463648
32	0xbd9402e9	-0.072271176
33	0xbdd0aca1	-0.10189176
34	0xbddf528e	-0.10904418
35	0x3c81bbc9	0.015836613
36	0xbd8442e7	-0.06458073
37	0xbd58ab5d	-0.0528978
38	0xbda08dfb	-0.078395806
39	0xbd952215	-0.07281891
40	0xbd0fa00c	-0.035064742
41	0xbdf4a50e	-0.11945544
42	0xbd2caf5b	-0.04215942
43	0xbd8ab488	-0.06772715
44	0xbdcdd72e	-0.10050808
45	0xbc0568dc	-0.008142676
46	0xbd2d3eeb	-0.04229633
47	0xbd8808b9	-0.06642289
48	0x3aaada9c	0.0013035121
49	0xbb143490	-0.0022614338
50	0xbc74dc40	-0.01494509
51	0xbcc41a20	-0.023938239
52	0x3d295722	0.041342862
53	0xbd7ee0ce	-0.06222611
54	0xbdc7502d	-0.09732089
55	0x3dda960e	0.10673152
56	0xbc5f3a47	-0.013624734
57	0xbb928be7	-0.004472244
58	0x3dda9bab	0.106742226
59	0xbc7b07ce	-0.015321685
60	0xbcf04318	-0.029328868
61	0xbdadd6f8	-0.08488268
62	0x3c0d06e5	0.008607601
63	0xbdacde17	-0.08440798
64	0xbd38f680	-0.045156956
65	0xbe997df4	-0.29978907
66	0xbc99b807	-0.018764509
67	0xbd942261	-0.0723312
68	0xbd00e097	-0.031464186
69	0xbd8f3849	-0.069931574
70	0xbdcf3539	-0.10117573
71	0xbded1097	-0.1157543
72	0x3a45984f	0.00075376494
73	0xbd835c46	-0.06414084
74	0x3d78ca8d	0.060740042
75	0xbd29254b	-0.04129533
76	0xbd430488	-0.047611743
77	0xbe019a2d	-0.1265647
78	0xbdb08066	-0.0861824
79	0xbd8d392a	-0.06895669
80	0xbd178a0d	-0.03699689
81	0xbe041318	-0.12897909
82	0xbd67da25	-0.056604523
83	0xbd264d2d	-0.040600944
84	0xbdc29168	-0.0950039
85	0xbcea7946	-0.02862228
86	0xbddc783f	-0.107651226
87	0xbd727ed6	-0.05920299
88	0x3c88623c	0.016648404
89	0xbdb0cce5	-0.086328305
90	0xbdc196f4	-0.0945262
91	0xbdff2660	-0.12458491
92	0xbd8f1b27	-0.06987601
93	0xbd3c5996	-0.045983873
94	0xbdf0b7ac	-0.11753783
95	0xbcea5d2c	-0.028608881
96	0xbd754cb0	-0.059887588
97	0xbdf3cb28	-0.11903983
98	0xbd32f387	-0.043689277
99	0xbd9801c4	-0.07422212
100	0xbcf97386	-0.030450594
101	0xbd0859c0	-0.033288717
102	0xbdb95dbc	-0.090510815
103	0xbd5855d9	-0.052816246
104	0xbd870839	-0.06593365
105	0xbe25691f	-0.16153382
106	0xbdf90a89	-0.121602125
107	0xbd3bfa9b	-0.045893293
108	0xbddf6470	-0.10907829
109	0xbc33aa65	-0.010965918
110	0xbdd01297	-0.10159796
111	0xbdea295f	-0.11433672
112	0xbafa8c67	-0.001911533
113	0x3d0d0d82	0.03443671
114	0xbdb0ff60	-0.08642459
115	0x3b72304a	0.0036955052
116	0x3d9a4be4	0.07534006
117	0xbd050b7a	-0.032481648
118	0xbdcb74e1	-0.09934402
119	0xbd901d2e	-0.070368156
120	0xbdbf417d	-0.09338663
121	0xbd326ead	-0.04356258
122	0xbd1a3b65	-0.0376543
123	0x3c22f774	0.009946693
124	0xbd535eaf	-0.05160397
125	0xbddfe015	-0.10931412
126	0x3dc4b12d	0.09604106
127	0x3b8c17bc	0.0042752903
128	0x3b50e36f	0.0031873842
129	0xbd53e905	-0.051735897
130	0x3d614475	0.054996926
131	0xbd4b8f84	-0.049697414
132	0x3e0af90f	0.13571571
133	0xbde095d3	-0.10966077
134	0xbdc6205f	-0.09674143
135	0xbd807e80	-0.06274128
136	0xbe24d55c	-0.16097015
137	0xbdf113c8	-0.11771351
138	0xbd8cb82c	-0.068710655
139	0xbd76e9be	-0.060281508
140	0xbc869853	-0.016430056
141	0xbde57b7f	-0.11205196
142	0xba3e4d6a	-0.00072594604
143	0xbd7dd552	-0.061971016
144	0xbcda67c3	-0.026660806
145	0x3cbfecdd	0.023428375
146	0xbd933bad	-0.071891166
147	0xbd45c9e6	-0.04828825
148	0xbcd29023	-0.025703495
149	0xbdef9867	-0.1169899
150	0xbda89530	-0.0823158
151	0xbd3a939c	-0.045550928
152	0xbc88ef65	-0.016715715
153	0xbe29c14f	-0.16577648
154	0xbcf651f5	-0.030068377
155	0xbd91c2c9	-0.071172304
156	0xbd34abe6	-0.044109248
157	0xbb425f18	-0.002965873
158	0xbdca9ccf	-0.0989319
159	0x3e0fea52	0.1405423
160	0xbc8ce769	-0.017200189
161	0x3ad62187	0.0016336896
162	0xbcaa2bb0	-0.020772785
163	0xbc37c37d	-0.011216042
164	0xbd636a9f	-0.055521604
165	0xbde22842	-0.11042835
166	0xbdd0ee0c	-0.10201654
167	0xbd9d5176	-0.07681553
168	0xbd335dfb	-0.0437908
169	0xbd58f02c	-0.05296342
170	0xbd3178a9	-0.04332796
171	0xbbd4689b	-0.0064821965
172	0xbcb2808b	-0.02178981
173	0x3db999ea	0.0906256
174	0xbd937077	-0.07199185
175	0xbcaae325	-0.020860264
176	0xbda0d4fc	-0.078531235
177	0xbd7614f3	-0.060078572
178	0xbbc69b74	-0.006061012
179	0xbdc82c8e	-0.09774123
180	0xbcc98c21	-0.024602951
181	0xbcfc684f	-0.030811457
182	0xbd7424d0	-0.05960542
183	0xbdca4764	-0.09876898
184	0x3ddf0c9e	0.108910784
185	0xbdb5f543	-0.088846706
186	0xbe00c418	-0.12574804
187	0xbdc9ec06	-0.09859471
188	0xbcec3ffe	-0.028839108
189	0xbd88f307	-0.06686979
190	0xbe162e5a	-0.14666119
191	0x3b6a317f	0.0035735068
192	0xbcf6a355	-0.03010718
193	0xbd61a598	-0.055089563
194	0xbdc6d15d	-0.097079016
195	0xbddbd6e8	-0.107343495
196	0x3e1fa363	0.15589671
197	0xbd2b7955	-0.041863758
198	0xbd023bbf	-0.03179526
199	0x3995a4c5	0.00028542257
200	0xbbeb7445	-0.0071854913
201	0x3c32c6ea	0.010911683
202	0xbdb22155	-0.08697764
203	0xbce1c5a4	-0.027560063
204	0xbd94fbe7	-0.07274609
205	0xbdf17503	-0.11789896
206	0xbe018b67	-0.12650834
207	0x3d7e99f5	0.062158544
208	0xbd36c777	-0.04462382
209	0xbdad853b	-0.08472677
210	0x3c81f44a	0.015863556
211	0xbb990db9	-0.0046708253
212	0xbd8c1ba7	-0.06841212
213	0xbd7e5529	-0.062092934
214	0xbe244227	-0.1604086
215	0xbdf63e0d	-0.12023554
216	0xbd978e66	-0.07400207
217	0xbcfcabfa	-0.030843724
218	0xbb92c1bf	-0.0044786627
219	0x3e08c12f	0.13354944
220	0xbd812bee	-0.06307207
221	0xbdcc1c89	-0.0996638
222	0xbde31614	-0.110881954
223	0x3dd61274	0.104527384
224	0xbcaeabbd	-0.021322126
225	0xbc12277c	-0.008920547
226	0xbdc1f34b	-0.094702326
227	0xbdcd28c9	-0.10017545
228	0x3c1137b4	0.008863378
229	0xbe12f042	-0.14349464
230	0xbd3af0c2	-0.04563976
231	0xbe18d4b0	-0.14924884
232	0xbd8c13c7	-0.0683971
233	0xbdd3a6b6	-0.10334532
234	0xbda96d35	-0.08272783
235	0xbdc46437	-0.09589427
236	0xbd0ff80c	-0.035148665
237	0x3d022668	0.03177491
238	0xbd186b4e	-0.03721171
239	0xbd9765af	-0.073924415
240	0xbdce7679	-0.100811906
241	0x3c0e5f70	0.008689746
242	0xbe0093b2	-0.12556341
243	0xbddc9aee	-0.10771738
244	0xbd2b1add	-0.041773666
245	0xbdd0f84d	-0.102036096
246	0xbcafabb8	-0.021444187
247	0xbd14a791	-0.036292616
248	0xbd8f98ec	-0.070115894
249	0xbc7e5d78	-0.015525214
250	0xbd422593	-0.047399115
251	0xbd7e3b6d	-0.06206839
252	0xbdc16ded	-0.09444795
253	0xbdc861b7	-0.097842626
254	0x3c0caa38	0.008585505
255	0xbd182904	-0.03714849

network.4.weight f4 [256, 256]
0	0xbd1abd75	-0.037778337
1	0x3c7833a6	0.015149033
2	0xbc933047	-0.017967356
3	0xbca96f31	-0.020682903
4	0xbd962c40	-0.07332659
5	0xbdb01b0f	-0.08598911
6	0x3c7cb4bd	0.015423951
7	0xbd9c5478	-0.07633299
8	0x3c952b9a	0.018209267
9	0xbda909d7	-0.0825383
10	0x3d2eefce	0.042709164
11	0xbd8857f5	-0.066574015
12	0xbd80781e	-0.062729105
13	0x3d19816d	0.037476946
14	0xbd96c68a	-0.07362087
15	0xbd588529	-0.052861366
16	0x3d850d90	0.064967275
17	0xbda990bd	-0.0827956
18	0xbd83e167	-0.064394765
19	0xbcab673a	-0.020923246
20	0xbc51c0ab	-0.012802283
21	0xbda9d5e2	-0.08292748
22	0x3d0ca67b	0.034338456
23	0xbdc957c4	-0.09831193
24	0x3da382c2	0.079839244
25	0x3db90a88	0.09035212
26	0x3db081f7	0.08618539
27	0x3dc8381c	0.09776327
28	0xbd9b3bc0	-0.07579756
29	0x3db8c36c	0.09021649
30	0x3c40afc2	0.011760654
31	0xbbedd138	-0.007257607
32	0xbd5a667d	-0.053320397
33	0xbc571820	-0.01312831
34	0x3d5ce91b	0.053933244
35	0xbda777fa	-0.081771806
36	0xbcc2fb2a	-0.023801405
37	0xbc8efb07	-0.017453684
38	0xbc9fed60	-0.019522369
39	0xbc4f6781	-0.012658955
40	0x3cbb0352	0.022828732
41	0xbb6e7945	-0.00363882
42	0x3d97c30a	0.074102476
43	0x3dc20151	0.09472907
44	0xba7628b7	-0.0009390222
45	0xbd85c106	-0.06530957
46	0xbcbd420d	-0.023102785
47	0xbd475ab2	-0.04867048
48	0x3c6ac07c	0.014328118
49	0x3c8b10ea	0.016975839
50	0xbdbe6bbc	-0.092978925
51	0x3dea855a	0.11451216
52	0xbd719f09	-0.05898956
53	0xbc8e8fc5	-0.017402539
54	0x3ca4fd01	0.020140173
55	0xbce07261	-0.02739829
56	0xbd583329	-0.052783165
57	0xbc9247ab	-0.01785644
58	0xbda80827	-0.0820468
59	0x3c833ca9	0.016020136
60	0xbc391f5c	-0.011298981
61	0x3dd75888	0.10514933
62	0x3c8dc56e	0.017306056
63	0xbd86eaa2	-0.065877214
64	0xbcbec5b5	-0.023287633
65	0x3b8e3afb	0.004340527
66	0x3cfe79b2	0.031063888
67	0x3de53370	0.111914515
68	0xbd97146b	-0.07376941
69	0xbc6fed54	-0.014643986
70	0xbdbad368	-0.09122354
71	0xbcc04dfd	-0.023474688
72	0xbc977b77	-0.01849149
73	0xbdde8285	-0.108647384
74	0xbe080d70	-0.13286376
75	0xbbfa827b	-0.007644949
76	0x3caef0b6	0.021355014
77	0x3c720974	0.014772762
78	0xbcdd098c	-0.026982091
79	0xbd1ef8f2	-0.03881163
80	0xbc8a52d5	-0.0168852
81	0xbde5d4f6	-0.1122226
82	0xbd42a4df	-0.047520515
83	0x3bdd5400	0.0067543983
84	0xbbb3cca3	-0.005487041
85	0xbcfd01e5	-0.030884692
86	0x3db19afc	0.08672139
87	0xbc907b29	-0.017636852
88	0xbdc6a1b1	-0.09698809
89	0x3d8073bd	0.06272075
90	0x3d910282	0.070805565
91	0xbd87fcdc	-0.06640026
92	0xbd59ff25	-0.05322184
93	0xbdb1770a	-0.08665283
94	0x3d82935b	0.06375762
95	0x3dd1c99e	0.102435336
96	0x3adc8174	0.0016823248
97	0x3d467a26	0.048456334
98	0xbab6e4e4	-0.0013953713
99	0xbbbdc0b9	-0.0057907966
100	0x3dcea4a1	0.10089994
101	0x3da24661	0.0792358
102	0x3d953b7d	0.07286737
103	0x3d51a334	0.051181033
104	0x3c29b101	0.010357142
105	0x3d464333	0.04840393
106	0xbc842645	-0.01613153
107	0xbcfb200e	-0.030654933
108	0x3d709975	0.058740098
109	0x3b3f745e	0.0029213647
110	0x3c83e119	0.016098546
111	0xbc528716	-0.01284959
112	0x3d586467	0.052830126
113	0xbd2fb4ac	-0.04289691
114	0x3d1018fb	0.035180073
115	0x3b87a578	0.0041395985
116	0x3d48b43b	0.049000006
117	0x3d324f53	0.04353268
118	0x3d97ccc5	0.074121036
119	0xbcb68f12	-0.022285018
120	0x3df8e27e	0.12152575
121	0xbb6ec1e1	-0.0036431479
122	0x3d179e47	0.03701618
123	0x3b88d45a	0.004175705
124	0xbd4f0336	-0.05054017
125	0xbcd7e06a	-0.026352126
126	0xbcaee7cc	-0.021350764
127	0xbdc4368f	-0.09580719
128	0x3bf08f03	0.007341267
129	0x3cb6b282	0.022301916
130	0xbd6774ec	-0.05650799
131	0xbced47ae	-0.028964844
132	0xbd35f318	-0.044421285
133	0x3d37d187	0.044877555
134	0xbc0a02d4	-0.008423526
135	0x3df0e011	0.11761487
136	0xbc06bd3a	-0.008223826
137	0x3d8beb5f	0.06832003
138	0xbc32f625	-0.010922943
139	0x3d571d0a	0.05251793
140	0x3adc7a80	0.0016821176
141	0x3d806232	0.06268729
142	0x3caeeb35	0.02135239
143	0xbc93f421	-0.018060746
144	0x3bb1e764	0.0054291952
145	0xbd799d36	-0.060940944
146	0x3da8ff00	0.082517624
147	0x3dcac3f3	0.099006556
148	0x3ce5c8b7	0.02804981
149	0x3dd6854e	0.104746446
150	0x3d9e3197	0.07724302
151	0xbd252273	-0.040316056
152	0xbc763b65	-0.015028809
153	0x3ca41888	0.020031229
154	0xbcad1bcf	-0.021131424
155	0x3b215d1c	0.0024622148
156	0xbdd15ba1	-0.10222555
157	0x3dc9784c	0.09837398
158	0xbba5450c	-0.0050436314
159	0xbddc9618	-0.107708156
160	0xbd94c674	-0.072644144
161	0xbd65e515	-0.056126673
162	0xbd10313a	-0.035203196
163	0x3acff18a	0.0015864831
164	0xbd110b0a	-0.03541092
165	0x3d9da0bb	0.076966725
166	0xbcae6bbd	-0.021291608
167	0x3d885fb3	0.06658878
168	0xbdb35626	-0.08756666
169	0x3c35477d	0.011064407
170	0xbda4d4ca	-0.08048399
171	0x3c514504	0.012772802
172	0x3d1d805f	0.038452502
173	0xbd844ea0	-0.06460309
174	0xbd93fe86	-0.07226281
175	0x3de82eba	0.113370374
176	0x3ba2c2d4	0.004967073
177	0x3db0bdbe	0.086299405
178	0x39ed6b3f	0.00045284067
179	0x3d2adf9d	0.04171716
180	0x3cbf0731	0.023318859
181	0xbc9b564b	-0.018962046
182	0x3dc3d41f	0.09561943
183	0xbd8f5dfd	-0.07000349
184	0xbda59232	-0.08084525
185	0xbd3aa166	-0.045564078
186	0x3dd7398b	0.10509022
187	0x3dc69447	0.096962504
188	0xbc9a8c99	-0.01886587
189	0x3ae92a5c	0.0017789113
190	0x3bb45a83	0.005503954
191	0xbd6b04cc	-0.05737762
192	0x3c4be2db	0.012444223
193	0xbab2e47e	-0.0013648418
194	0x3c76c8a2	0.015062483
195	0x3cfee58b	0.031115314
196	0x3bf84ee4	0.007577764
197	0xbda13f4d	-0.07873402
198	0x3d2d3892	0.042290278
199	0x3da3e6f4	0.08003035
200	0xbc5c0af4	-0.013430346
201	0xbb882e09	-0.0041558784
202	0xbdbb78c1	-0.09153891
203	0x3db1a81f	0.08674645
204	0x3d31af16	0.043379866
205	0x3da4ed04	0.0805302
206	0x3d2b230f	0.04178148
207	0xbdc08fcf	-0.09402429
208	0xbc767f22	-0.015044959
209	0x3b705d6f	0.0036676785
210	0x3b3704ba	0.0027926401
211	0xbb5e1bc2	-0.0033891057
212	0xbdb990fb	-0.09060856
213	0xbd02d2dd	-0.031939376
214	0xbd87471b	-0.06605359
215	0xbd86b240	-0.06576967
216	0x3ba59f63	0.005054401
217	0xbc2339c9	-0.0099625075
218	0x3db7ab68	0.0896824
219	0xbcf405a8	-0.029787853
220	0x3d86bac4	0.065785915
221	0xbd503a8d	-0.05083709
222	0x3df62537	0.12018817
223	0xbd72ce00	-0.05927849
224	0xbd87e1ba	-0.06634851
225	0x3cab7870	0.020931453
226	0x3df3318e	0.11874686
227	0x3c016ac1	0.007898987
228	0xbd28ec8a	-0.041241206
229	0x3ccb5983	0.024822956
230	0xbd34d144	-0.044144884
231	0xbda8202f	-0.082092635
232	0x3daedeeb	0.08538612
233	0x3bef36ec	0.0073002484
234	0x3c83c831	0.01608667
235	0xbd1a4ac2	-0.03766895
236	0xbcb934bd	-0.022608155
237	0xbc92c005	-0.017913828
238	0x3dd920a1	0.106019266
239	0x3c4e0832	0.012575196
240	0x3ad46dca	0.0016207036
241	0xbcc3b9d9	-0.02389233
242	0xbd8be232	-0.06830253
243	0xbd1c7ba9	-0.03820387
244	0xbda26d3b	-0.0793099
245	0x3d86ae99	0.065762706
246	0x3c1e24e4	0.00965235
247	0x3d842b20	0.06453538
248	0xbdc97898	-0.098374546
249	0xbd90fa6b	-0.070790134
250	0x3dbe9940	0.09306574
251	0x3d1326fc	0.03592585
252	0xbc0dbbb8	-0.008650713
253	0xbc59db53	-0.01329692
254	0xbd95b5c4	-0.0731006
255	0x3d76bb52	0.060237236

network.4.bias f4 [256]
0	0xbd5f5c77	-0.05453154
1	0xbd431616	-0.047628485
2	0xbdddee5f	-0.10836481
3	0x3ea9334e	0.33046955
4	0xbd93fd63	-0.07226064
5	0xbd7244a1	-0.05914748
6	0xbde00203	-0.10937884
7	0xbd1fd03e	-0.039016955
8	0x3c8330a9	0.016014414
9	0x3dde276e	0.10847364
10	0xbc0c578a	-0.008565793
11	0xbe044128	-0.1291548
12	0x3c97c8be	0.018528339
13	0xbd9d32b5	-0.07675687
14	0x3c8e4f30	0.017371744
15	0xbdf91d0c	-0.121637434
16	0xbd0a9255	-0.03383096
17	0x3d24405e	0.040100448
18	0xbc9642e2	-0.01834244
19	0xbd8b61ed	-0.06805787
20	0xbd51921c	-0.05116473
21	0xbe387d20	-0.18016481
22	0xbd1cc5e7	-0.038274672
23	0x3d9848ca	0.074357584
24	0x3e146508	0.14491665
25	0xbdd5b995	-0.104357876
26	0x3dd7cf9c	0.10537645
27	0x3cda160f	0.026621846
28	0xbe5a3cad	-0.21312208
29	0xbde9d317	-0.11417215
30	0xbe19ad55	-0.15007527
31	0xbdcdc1d7	-0.10046738
32	0x3dc9ead3	0.09859242
33	0xbdb9dbfe	-0.09075163
34	0xbce63a8d	-0.028104091
35	0xbdaaac69	-0.08333666
36	0xbe252c27	-0.16130124
37	0xbd6832b5	-0.056688983
38	0xbd613456	-0.054981552
39	0xbd2c6a05	-0.042093296
40	0xbd6964f3	-0.05698104
41	0xbdf9f3cb	-0.12204703
42	0xbd9d1618	-0.0767023
43	0xbd29a6f0	-0.04141897
44	0xbd6e49b8	-0.058175772
45	0xbd9dc667	-0.07703858
46	0xbdc0d257	-0.09415119
47	0xbc9957ac	-0.018718563
48	0xbdfc1a49	-0.12309701
49	0xbddb11da	-0.10696764
50	0xbdc0d7ae	-0.09416138
51	0xbb8c784e	-0.0042868024
52	0xbe0f9b73	-0.14024143
53	0x3dc1adeb	0.09457
54	0xbda8c9b9	-0.082416005
55	0xbd3fa8ea	-0.04679195
56	0x3e26b7ae	0.16281006
57	0xb989ded2	-0.0002629669
58	0xbd64d58c	-0.055867717
59	0x3ee6cbf5	0.45077482
60	0x3e621fe6	0.22082481
61	0xbd13f084	-0.036118045
62	0xbd6c330a	-0.057665862
63	0xbdbdcd1b	-0.092676364
64	0x3928998f	0.00016078934
65	0xbd2ae871	-0.04172558
66	0xbd108e5e	-0.035292022
67	0x3bffeddc	0.0078103375
68	0xbd21c113	-0.03949077
69	0xbd2323cc	-0.03982906
70	0x3e299693	0.16561346
71	0xbdaeabf5	-0.08528892
72	0x3d673880	0.056450367
73	0x3d76c82f	0.060249504
74	0xbd7a1a3f	-0.061060186
75	0xbd1b7ce6	-0.03796091
76	0xbda126df	-0.07868742
77	0xbdc302fc	-0.095220536
78	0xbe0fd21d	-0.14044996
79	0xbd45b267	-0.04826584
80	0x3e1b389e	0.15158316
81	0x3e203a24	0.15647179
82	0x3d12933f	0.035784956
83	0x3cc8a144	0.02449096
84	0x3e512ef6	0.2042807
85	0x3d261747	0.040549543
86	0xbb7c2ca8	-0.0038478766
87	0xbdb6b8be	-0.089219555
88	0xbd66cff0	-0.05635065
89	0xbd8cab52	-0.06868614
90	0x3d042795	0.03226431
91	0x39c51c6f	0.00037595953
92	0xbdbecd48	-0.09316498
93	0xbeba0641	-0.36332896
94	0x3c29edfa	0.010371679
95	0xbd46adce	-0.048505597
96	0xbdb36fc0	-0.08761549
97	0x3c1792a3	0.0092512695
98	0xbda97dc2	-0.082759395
99	0xba6a67eb	-0.00089418766
100	0xbb756933	-0.0037446737
101	0x3d819ab3	0.06328335
102	0xbdeaa685	-0.11457542
103	0xbca58752	-0.020206127
104	0xba365315	-0.0006955129
105	0x3de8ae42	0.11361362
106	0x3e2476e8	0.16060984
107	0xbd29d22f	-0.041460212
108	0xbd9908a9	-0.07472355
109	0xbbe25361	-0.006906912
110	0xbc4afba1	-0.012389095
111	0xbde67669	-0.11253054
112	0xbd6e7987	-0.058221366
113	0xbd82e634	-0.06391564
114	0xbd0dd0f7	-0.034623113
115	0xbde05fe5	-0.109557904
116	0xbdfb8cb5	-0.12282697
117	0x3c230aa1	0.009951265
118	0xbd1541e0	-0.036439776
119	0xbd90cd4e	-0.07070409
120	0xbda3e5eb	-0.08002838
121	0xbdb1c71e	-0.08680557
122	0x3e7aeea5	0.24505098
123	0x3dc7db54	0.097586304
124	0xbd6dd6b8	-0.0580661
125	0xbd92b171	-0.071627505
126	0xbd9cb255	-0.07651202
127	0xbdc216e8	-0.09477025
128	0xbdaeaebd	-0.085294224
129	0xbd0cee4c	-0.034406945
130	0xbde1e761	-0.1103046
131	0xbd711bfa	-0.05886457
132	0xbd562441	-0.05228067
133	0xbc6bd5a4	-0.014394198
134	0xbba621af	-0.0050699334
135	0xbda2db52	-0.07951988
136	0xbd80ffc7	-0.06298786
137	0x3a5c0b90	0.0008394057
138	0xbd53c6e4	-0.05170335
139	0xbd55f4eb	-0.052235525
140	0xbdffc252	-0.124882355
141	0xbd050b79	-0.032481644
142	0x3c075962	0.008261057
143	0xbd409e82	-0.047026165
144	0x3df4b654	0.11948839
145	0x3e6cace9	0.23112835
146	0xbd9c55b3	-0.07633533
147	0xbcdb04e3	-0.026735729
148	0xbd04e3e8	-0.03244391
149	0xbe03e91c	-0.12881893
150	0xbc9b51da	-0.018959928
151	0xbd526b30	-0.051371753
152	0x3c1d96fc	0.009618517
153	0xbd034cd5	-0.032055695
154	0xbdf7af8f	-0.12094032
155	0x3e800ce9	0.2500985
156	0xbdc7e3ad	-0.097602226
157	0x3db4bf5e	0.08825563
158	0x3e1217ab	0.14266841
159	0xbdc9380e	-0.09825145
160	0xbcadfd7a	-0.021239031
161	0xbddd2d55	-0.10799662
162	0xbd00d6af	-0.03145474
163	0xbdc345cd	-0.09534798
164	0xbd368509	-0.044560466
165	0xbd691141	-0.05690122
166	0xbd950b55	-0.07277552
167	0x3e94b3de	0.29043478
168	0xbd08912b	-0.033341568
169	0xbd2e1932	-0.042504497
170	0xbbe4645c	-0.0069699716
171	0xbd5c831c	-0.053835973
172	0xbd33e967	-0.04392376
173	0xbd8091da	-0.06277819
174	0xbc6837e0	-0.014173478
175	0xbd92caed	-0.07167611
176	0xbdbb719f	-0.09152531
177	0xbde2f546	-0.110819384
178	0xbcd9fd16	-0.026609939
179	0xbc9867f8	-0.018604264
180	0x3d0f2e9c	0.03495656
181	0xbdb995a1	-0.090617426
182	0xbde12b6e	-0.10994612
183	0xbdc8d121	-0.09805513
184	0x3de8ffeb	0.113769375
185	0xbd1fc5c1	-0.039006952
186	0xbdbac77f	-0.09120082
187	0x3e50707a	0.20355406
188	0xbd8a20c8	-0.06744534
189	0xba9f52e9	-0.0012155446
190	0xbda8667c	-0.08222672
191	0x3b60fd34	0.0034330608
192	0xbdd5596f	-0.10417449
193	0xbe47673d	-0.19472976
194	0xbd20e267	-0.039278414
195	0xbe9509f9	-0.2910917
196	0x3ccfa403	0.025346762
197	0x3d544098	0.051819414
198	0x3e4b30f0	0.19842887
199	0xbe18da1a	-0.14926949
200	0x3e88193e	0.26581758
201	0xbd6311ba	-0.055436827
202	0xbd3585a4	-0.044316903
203	0xbd8a450d	-0.06751452
204	0x3ce05950	0.027386338
205	0xbd86db0f	-0.06584751
206	0x3c4a965f	0.012364953
207	0xbdbbb5e6	-0.09165554
208	0x3de001ef	0.10937869
209	0xbddc353b	-0.107523404
210	0xbe85220e	-0.26002544
211	0xbc5d4527	-0.013505257
212	0xbda64e2c	-0.08120379
213	0xbda6fb8f	-0.0815345
214	0x3ca2a700	0.019855022
215	0xbd74413b	-0.05963252
216	0xbdaca475	-0.08429805
217	0xbe4653f1	-0.19367959
218	0xbd56f5d3	-0.05248053
219	0xbd1eeb6c	-0.038798735
220	0xbd9909fe	-0.07472609
221	0x3e58a771	0.21157624
222	0xbdeebd74	-0.11657229
223	0xbc4a1153	-0.012333232
224	0xbd28973f	-0.041159865
225	0xbd94517c	-0.072421044
226	0xbdbe7beb	-0.09300979
227	0xbcbcc1dd	-0.02304166
228	0xbdb19e14	-0.08672729
229	0xbdc3cdc8	-0.09560734
230	0xbdc72b54	-0.09725061
231	0xbd859cc9	-0.06524045
232	0xbdbd0591	-0.09229577
233	0xbd2d37f5	-0.042289693
234	0xbd20a29c	-0.039217576
235	0xbd9741f3	-0.07385626
236	0xba6225e2	-0.0008626861
237	0xbdf29eaf	-0.11846673
238	0x396a667e	0.0002235416
239	0xbd829761	-0.063765295
240	0xbb9af5be	-0.004729002
241	0xbdd45b5a	-0.103689864
242	0xbde25503	-0.11051371
243	0xbd77c37f	-0.060489174
244	0xbd1ff20e	-0.0390492
245	0x3caef9d2	0.021359358
246	0xbcadcbef	-0.021215407
247	0xbb3d9661	-0.0028928744
248	0xbe940b09	-0.2891467
249	0x3dd35dcc	0.10320625
250	0x3d5e3dfa	0.054258324
251	0xbdb00fca	-0.085967615
252	0xbde91b42	-0.11382152
253	0xbc8b9d16	-0.017042678
254	0xbd5b9ef3	-0.053618383
255	0xbd971e05	-0.07378773

network.6.weight f4 [256, 256]
0	0x3c89c3a4	0.016816922
1	0x3d90baf9	0.07066912
2	0x3d36eafa	0.044657685
3	0x3a3dbf37	0.0007238271
4	0xbdbbee38	-0.09176296
5	0x3dee5ff5	0.11639396
6	0x3d81d1ed	0.06338868
7	0x3ceda47f	0.029009102
8	0x3c4ee943	0.012628856
9	0x3db09a9d	0.0862324
10	0x3dc2a5e7	0.095042996
11	0x3c44995f	0.011999457
12	0xbcf78714	-0.030215777
13	0x3dd5607f	0.10418796
14	0x3c84d45f	0.016214548
15	0x3d1f07f5	0.038825948
16	0xbd130646	-0.035894655
17	0xbf0d6573	-0.55232924
18	0x3cf8ecfd	0.030386442
19	0x3d47966b	0.048727434
20	0x3da59742	0.08085491
21	0xbc887fa8	-0.016662434
22	0xbdb14054	-0.08654848
23	0x3d147895	0.03624781
24	0x3cb46c0d	0.022024179
25	0xbbeb083e	-0.0071726134
26	0xbcf964d8	-0.030443594
27	0x3bc38334	0.0059665684
28	0xbdad6c8d	-0.0846797
29	0xbd053037	-0.032516684
30	0x3d8915ed	0.06693635
31	0xbd64855c	-0.055791244
32	0x3f042e39	0.5163303
33	0x3d0a6612	0.033788748
34	0x3d81e8c1	0.063432224
35	0xbd1cc71d	-0.038275827
36	0x3b378857	0.002800485
37	0x3c1bb40c	0.009503376
38	0x3baaa57d	0.005207716
39	0xbdaa4ac3	-0.08315041
40	0x3cfe4a66	0.031041335
41	0x3dc8fbd9	0.09813661
42	0xbcbc17dc	-0.022960596
43	0x3d5da221	0.054109696
44	0x3a326593	0.0006805297
45	0x3cca85d2	0.024722014
46	0xbdba794e	-0.09105168
47	0x3c5409a1	0.012941749
48	0x3d3bd190	0.04585415
49	0x3bf57d01	0.0074917083
50	0x3c38ac64	0.01127157
51	0x3ce924cc	0.028459929
52	0xbd1c9c5c	-0.038235053
53	0x3e471d41	0.19444753
54	0x3c9f0f8c	0.019416593
55	0x3c8227e1	0.015888156
56	0xbe1109a2	-0.14163831
57	0xbd44afe5	-0.04801931
58	0x3c2a7b7d	0.010405418
59	0x3d6cbd99	0.057798002
60	0xbe9a7309	-0.3016589
61	0x3daca38e	0.08429633
62	0xbd077798	-0.033073038
63	0x3ca3a1a1	0.019974532
64	0x3d4c69cf	0.049905594
65	0x3d0a657f	0.0337882
66	0xbd993d85	-0.07482437
67	0xbcd0eca1	-0.025503458
68	0x3d48b532	0.049000926
69	0x3d678cfb	0.056530934
70	0xbe2c6628	-0.16835845
71	0x3be8b8a5	0.0071020895
72	0x3d9b0e7f	0.07571124
73	0xbed27c25	-0.4111034
74	0x3d8e6d47	0.06954437
75	0xbdb55f38	-0.08856052
76	0x3c594746	0.013261622
77	0xbd61243b	-0.054966193
78	0xbd662139	-0.056184027
79	0xbd30da28	-0.0431768
80	0x3d5d622d	0.054048706
81	0x3d249628	0.040182263
82	0x3cd1155a	0.025522877
83	0xbe010629	-0.12600006
84	0xbecca085	-0.39966217
85	0xbcaca181	-0.021073105
86	0x3b656fdb	0.0035009298
87	0x3d03d50c	0.0321856
88	0x3da72f3c	0.08163306
89	0xbcead2c1	-0.028664948
90	0x3d09ef6f	0.033675607
91	0xbaa0c1bc	-0.0012264769
92	0x3c938a01	0.018010141
93	0xbe0fa9b0	-0.14029574
94	0xbd3272f9	-0.043566678
95	0xbda0e476	-0.078560755
96	0x3da04389	0.07825381
97	0x3c27abd5	0.010233839
98	0x3c962099	0.01832609
99	0x3cb206f5	0.021731833
100	0xbb8b761b	-0.0042560226
101	0xbeaac0ce	-0.33350223
102	0xbdc00b0d	-0.09377108
103	0x3cf43469	0.029810147
104	0x3cce2263	0.025162881
105	0x3d85fe25	0.06542615
106	0x3a9027c1	0.0010998176
107	0x3d90fdf9	0.070796914
108	0x3cdc6539	0.026903735
109	0xbd1d9184	-0.038468853
110	0x3d9d0543	0.07667019
111	0xbd2fa0a5	-0.042877812
112	0x3d3f5099	0.046707723
113	0x3cef6837	0.029224498
114	0x3cec9346	0.02887882
115	0xbd7cc112	-0.061707564
116	0x3c10e3e5	0.008843397
117	0xbd2bbc9e	-0.041927926
118	0x3db9cc8b	0.090722166
119	0x3dad1a59	0.08452291
120	0x3aa6a41f	0.0012713707
121	0xbccda6ef	-0.025104014
122	0x3cb2e6f5	0.021838645
123	0x3d3a66a6	0.04550805
124	0x3d7b6ed7	0.061385002
125	0x3cff2880	0.031147242
126	0x3d644a47	0.0557349
127	0xbdd8541b	-0.10562917
128	0x3c5bab5b	0.013407554
129	0x3c2cf661	0.010556788
130	0xbc62128a	-0.013798365
131	0x3d384d8d	0.044995833
132	0xbb876f7b	-0.0041331626
133	0x3d9569e4	0.07295588
134	0x3d279c31	0.04092044
135	0x3ca6348f	0.020288734
136	0xbdc3e8c8	-0.09565884
137	0x3d36906c	0.044571325
138	0x393e9cee	0.00018178273
139	0x3c4596e5	0.012059902
140	0x3dbca455	0.09211031
141	0x3da97b59	0.0827548
142	0xbc8b5895	-0.017010013
143	0xbb8619fa	-0.004092452
144	0x3e3430da	0.1759676
145	0xbb26b45c	-0.0025437092
146	0x3c2ad4c3	0.010426703
147	0x3d72442f	0.059147056
148	0x3d55d134	0.052201465
149	0xbf383744	-0.7195933
150	0x3cc07ca5	0.023496935
151	0x3dcbb62d	0.09946857
152	0xbe8b7363	-0.2723647
153	0x3d07ef35	0.03318711
154	0x3d212dad	0.0393502
155	0x3ce80243	0.028321391
156	0x3da05ed2	0.078305855
157	0x3d20741e	0.039173238
158	0xbd2183b7	-0.039432254
159	0x3dc6dad8	0.0970971
160	0x3db4057a	0.08790107
161	0x3c848823	0.016178196
162	0xbb75d6c9	-0.0037512055
163	0x3d1a5136	0.037675105
164	0xbb700611	-0.003662471
165	0x3c4b1126	0.012394225
166	0x3cfe0f79	0.031013237
167	0xbc8b8c2d	-0.017034614
168	0x3c90e128	0.017685488
169	0x3db4d2b5	0.08829252
170	0xbda4fcff	-0.08056068
171	0x3db2da06	0.08732991
172	0x3d202d59	0.039105747
173	0x3dace48b	0.084420286
174	0xbb5fcc63	-0.0034148924
175	0x3dc4c5b1	0.09608019
176	0x3dc7acd6	0.09749763
177	0xba35ce2f	-0.0006935326
178	0x3d53a128	0.051667362
179	0x3d7f5c20	0.062343717
180	0xbd5f4bf5	-0.054515798
181	0x3d2c6096	0.0420843
182	0x3c8afb8d	0.016965652
183	0x3ea5109f	0.32239243
184	0xbdff40ff	-0.12463569
185	0xbd70bc05	-0.05877306
186	0x3d4e46a1	0.050360326
187	0x3bae22c8	0.005314205
188	0x3d40295e	0.04691445
189	0xbda1af8c	-0.07894811
190	0xbd36a3d9	-0.04458985
191	0xbd8780d1	-0.06616367
192	0x3d6c73d8	0.057727665
193	0xbd073fa8	-0.03301969
194	0x3d0b8323	0.03406061
195	0x3d7b6f08	0.061385185
196	0x3d67c461	0.056583766
197	0x3e3038a2	0.17209104
198	0x3d0f8d7d	0.035047043
199	0x3d3266e3	0.04355515
200	0x3e03ee8c	0.12883967
201	0x3c01d250	0.007923678
202	0x3d3c50ec	0.04597561
203	0x3d5af4ce	0.05345612
204	0x3d116c8c	0.03550391
205	0xbdb7fe15	-0.08984009
206	0xbdb1e6a7	-0.086865716
207	0x3d849422	0.064735666
208	0x3e34b27f	0.17646216
209	0xbddac3df	-0.10681891
210	0xbde9f758	-0.1142413
211	0xbc96ae13	-0.018393552
212	0xbd43c146	-0.04779174
213	0xbc96d065	-0.018409917
214	0x3d00b2ce	0.03142052
215	0x3dad47b1	0.0846094
216	0x3ce43659	0.027857946
217	0xbd999899	-0.07499809
218	0x3d1301cc	0.035890386
219	0xbdbf9583	-0.09354689
220	0x3ddbd437	0.10733836
221	0x3c9312c3	0.017953282
222	0xbd198ce4	-0.03748788
223	0xbce466ac	-0.027880989
224	0x3d206486	0.039158367
225	0x3c284ab3	0.010271716
226	0x3d28e4b7	0.041233744
227	0x3d37bcc9	0.044857774
228	0x3ddd42a8	0.10803729
229	0x3da06422	0.07831599
230	0x3cc040a2	0.02346832
231	0x3d0155b8	0.03157589
232	0x3db0f6cc	0.08640823
233	0x3db316ec	0.087446064
234	0xbc9b0205	-0.018921861
235	0x3d7b1ce1	0.061306838
236	0x3d3c9c4d	0.046047498
237	0x3bbf9103	0.005846144
238	0x3cb5baef	0.022183863
239	0x3d47c856	0.04877504
240	0x3c93a973	0.018025136
241	0x3d6bb2a9	0.05754343
242	0xbdb4d1e6	-0.088290974
243	0x3a372dfe	0.00069877494
244	0x3c28f05d	0.010311213
245	0x3ca75593	0.020426547
246	0xbd4ee22e	-0.05050867
247	0x3d0e1713	0.034689974
248	0xbd9073bd	-0.07053325
249	0xbd2ca1c9	-0.042146478
250	0xbcc0470c	-0.023471378
251	0x3cdaf456	0.026727837
252	0x3de012d0	0.10941088
253	0x3c227461	0.009915442
254	0x3d670f22	0.056410916
255	0x3df8b272	0.12143411
