project4/assets/part_1_img/image1_default/model.pth (torch, 839964 bytes, 10 tensors)

network.0.weight f4 [256, 42]
000000 56 2e a6 bd 55 88 32 bd 6e 7f 00 be d6 71 c8 bd
       -0.08114307 -0.043587048 -0.1254861 -0.097873375
000010 3b 50 45 be 5d aa db bd 1b ee 73 be 3b 20 b0 be
       -0.19268887 -0.107258536 -0.23821299 -0.3439959
000020 b8 fe 4b 3e c2 02 59 3e ff f4 85 be f0 df 82 3e
       0.19921386 0.21192458 -0.2616348 0.25561476
000030 52 4e 4b 3f 6c 7d 38 bf 93 8f 7a 3e b6 d5 b2 3d
       0.7941638 -0.7206638 0.24468832 0.087321684
000040 d3 19 8d be 84 ab 9d be 98 89 e7 bb d1 ad 6a 3e
       -0.27558765 -0.3079492 -0.007065963 0.22917868
000050 f6 36 15 bd f0 51 95 be d5 a2 52 3e 1b 46 6e 3d
       -0.036429368 -0.29164076 0.20569928 0.058172327
000060 b2 34 fe be 0f c3 9f be dd 8e 85 3d f8 fb bb 3d
       -0.49649578 -0.31203505 0.0652139 0.091789186
000070 61 68 8c 3c 77 40 af 3d a5 aa b5 3d 2c 51 36 be
       0.017139615 0.085572176 0.088704385 -0.17804402
000080 8a c2 10 be 0a 29 ed 3b 0f 65 a6 bb 1c 6b 12 3c
       -0.14136711 0.0072375583 -0.005077965 0.00893667
000090 de d2 89 3d fe 58 e6 bc ba 1e b7 3c 38 56 ae 3c
       0.06729673 -0.028118607 0.022353519 0.021281347
0000a0 0a 5d 43 bd 4d f8 11 bc 13 70 26 be db 48 be bd
       -0.04769615 -0.008909297 -0.1625369 -0.0929124
0000b0 a8 d7 cd bd 22 18 63 bd ae 06 69 be 30 fd 9e bd
       -0.10050899 -0.055442937 -0.22756454 -0.077631354
0000c0 9a 79 05 bf 3c 27 42 be a4 23 1f 3e 53 18 d3 3e
       -0.52138674 -0.18960279 0.1554094 0.41229495
0000d0 89 6e c4 bd bf 1e 06 be 1e 36 b7 be 7c ba 27 3e
       -0.095913954 -0.13097666 -0.35783476 0.16379732
0000e0 7f ca 00 bf 12 3c 97 3f 62 37 71 be 41 31 51 bd
       -0.50308985 1.1815207 -0.23556283 -0.051072363
0000f0 fd c9 cc be dd 94 78 be d3 c2 b9 be 23 02 15 3c
       -0.39997855 -0.24275537 -0.36281452 0.009094748
000100 68 e8 0f 3f 14 de 8e 3d 5d 8a 13 3f d4 61 b8 be
       0.56214 0.06975952 0.57633 -0.36012137
000110 06 b8 76 3c 36 2c 58 3e 30 bb 8e 3e 00 7c 36 be
       0.015058523 0.21110615 0.27877188 -0.1782074
000120 38 ad 25 bd f2 19 28 3d c1 2d bc 3d f5 27 38 3d
       -0.040448397 0.04104037 0.09188414 0.04495998
000130 b3 da 86 3b 2e a2 63 3c 39 22 3c bd 24 aa ad 3c
       0.0041154264 0.013893647 -0.045931075 0.021199293
000140 b7 1b 5f bd 6c 90 ba 3b 57 2b 97 bc 87 a0 73 3b
       -0.05446979 0.005693486 -0.018453283 0.003717454
000150 10 11 31 3c e6 2d f2 be 8f 96 8c be 76 d4 71 bd
       0.010807291 -0.47300643 -0.27458617 -0.05904051
000160 8b aa 67 be 8c 2c 0c 3f f7 27 d9 be ca 50 aa 3e
       -0.2262365 0.54755473 -0.42413303 0.33264762
000170 76 40 4a bd e3 30 41 bd b5 8b ab 3e af 9f 3b 3f
       -0.04937788 -0.047165763 0.33505026 0.7329053
000180 2a 8d ee bd 50 7a 8c 3e f7 03 df be a1 b8 7c 3d
       -0.11648019 0.27437067 -0.43557712 0.061699513
000190 fa b0 9d 3e 8f e1 7a be a6 0a 1b bc f9 2a 18 bf
       0.30799085 -0.24500106 -0.009462988 -0.5944057
0001a0 5f 25 d9 3e 16 74 c9 3b 77 3f 4b 3e 48 fd d3 bd
       0.42411324 0.0061478717 0.19848429 -0.10351044
0001b0 43 45 c6 bd c8 e9 36 bd b8 7e c2 bb dc e7 32 be
       -0.096811794 -0.044656545 -0.005935516 -0.1747126
0001c0 1e be 3f bc 0f c5 e6 3c d8 d7 0f 3e a3 9b be bc
       -0.011703042 0.028170137 0.14047182 -0.023267573
0001d0 7b d7 b4 3d 24 7f a7 bd db 6c 1c bd 15 f1 cd 3d
       0.08830162 -0.08178547 -0.03818975 0.100557484
0001e0 1e e7 e3 bd ee f1 02 3d c6 2d 6f bd f7 63 35 bc
       -0.111280665 0.031969003 -0.058393262 -0.011071197
0001f0 18 6b 6d 3c 48 d4 13 bc 54 44 dd bc f8 6f 58 bd
       0.014490865 -0.00902278 -0.02701012 -0.052841157
000200 2f 58 a5 3d f3 53 7c be 21 4a 86 be 12 d6 2d be
       0.0807346 -0.24641399 -0.2622843 -0.16976193
000210 f3 50 10 bf 5c 96 66 bd 4b 3b b4 be b1 6c 29 3f
       -0.5637352 -0.056295738 -0.35201487 0.66181475
000220 29 e4 c3 3e da 80 07 bf 9d 25 ef be c6 02 8f bd
       0.3826001 -0.52930987 -0.46708384 -0.06982951
000230 32 bf 09 bf 31 1d 14 bf 5f 35 72 be 2c ad b0 bc
       -0.53807366 -0.5785704 -0.23653172 -0.02156695
000240 62 1c de 3e 18 33 d5 be 6f 3c 9b 3e 15 29 bf 3e
       0.4338103 -0.41640544 0.30319545 0.3733603
000250 8f bf 24 be 07 ab 12 be 8d 7c 74 be 18 10 9e bd
       -0.16088699 -0.14323054 -0.23875637 -0.077179134
000260 c6 bb 23 3e 62 f8 a9 3d ef 96 5a 3d 27 26 31 3e
       0.15989599 0.082993284 0.053366598 0.1729971
000270 a5 1a b7 3d 66 5a c7 3b e5 06 c3 3d c7 32 0d 3d
       0.08940629 0.0060837744 0.095227994 0.034472253
000280 33 8b b3 3c 52 1d 21 bc 47 60 8c 3c e1 91 29 3b
       0.021916961 -0.009833651 0.017135752 0.0025874304
000290 bb 06 ed 3c 3f 35 bf bb dc c6 e3 3c 3e b0 cf 3a
       0.028933873 -0.005835205 0.027804784 0.0015845371
0002a0 9b e7 a5 3c 57 3c 43 be d2 0d a2 bd 3d d8 3c bd
       0.02025204 -0.19065987 -0.07912792 -0.04610466
0002b0 f8 84 32 3e 78 99 c1 bc 11 39 b4 3e 08 a3 b1 be
       0.17433536 -0.02363275 0.35199788 -0.34694695
0002c0 95 42 0b be b5 95 36 bf 59 dd e3 3e ee 94 24 3e
       -0.13599618 -0.71322185 0.44504812 0.16072437
0002d0 1c c3 9c be ba 3b 5a 3e f8 50 5c 3e 4e 83 33 3e
       -0.30617607 0.21311846 0.21515262 0.17530558
0002e0 b4 5b 74 bd e3 39 c2 be 9f 0e 74 3e 2b 0d 41 be
       -0.059657767 -0.3793479 0.23833703 -0.1885268
0002f0 9f fc d9 be 83 89 b0 be 2a d7 94 be 20 39 28 3e
       -0.42575547 -0.34479913 -0.29070407 0.16428041
000300 0a 7f d9 be 6e bf 43 be e0 67 82 3e 4a e6 9c bd
       -0.42479736 -0.19115993 0.25469875 -0.07661112
000310 41 8f 3e be 8b 68 d9 3c 53 94 9f bd 32 84 ab 3d
       -0.18609335 0.026539108 -0.077919625 0.08374824
000320 42 00 ab 3d 6c 4e 9e bd 60 7b f1 3d f8 07 f0 bb
       0.083496585 -0.077298015 0.1179111 -0.0073251687
000330 06 98 4e 3d c2 9a 6d bd a5 91 91 3c 39 c3 6d bc
       0.05043795 -0.058008917 0.017769644 -0.014511877
000340 6d 9d 17 bc 34 67 9c 3c a4 f2 8b bd 3d f1 01 be
       -0.009253842 0.01909218 -0.068333894 -0.12689681
000350 27 c1 ac be 73 7e c2 3c 90 2d dc 3e 2d fc cf bd
       -0.33741114 0.023741936 0.4300351 -0.101555206
000360 01 f8 87 3e 92 2e bf be 86 1a a4 3e c7 d5 db be
       0.265564 -0.37340218 0.32051486 -0.42936537
000370 ec ee 10 3e b3 cb 1b bf 09 71 86 bc 6d 6b 26 3e
       0.14153641 -0.60857695 -0.016411321 0.16251917
000380 a0 d4 10 be 3f a5 33 3f 49 f3 35 bf 37 5f 21 bf
       -0.1414361 0.7017402 -0.7107435 -0.6303591
000390 35 90 20 bf 7f 4f 74 3e 78 db bd 3d d6 23 fe be
       -0.6272004 0.2385845 0.09270376 -0.49636716
0003a0 d7 2f d0 be da 2b 7e be 6b 8b 53 3d d5 39 80 3e
       -0.406615 -0.24821416 0.05164663 0.25044122
0003b0 df 63 21 3e f6 45 4e 3e 22 87 39 3e 79 8b ff 3c
       0.15760754 0.20143875 0.18117955 0.031194435
0003c0 7b 8c b9 3c 03 e9 81 3c 58 0b 8f bd 23 f6 6f 3c
       0.022649994 0.015858179 -0.069845855 0.014646086
0003d0 12 be e8 bb 89 3a b0 3d d4 d5 da 3c c3 83 a9 3c
       -0.0071027363 0.08604915 0.02671329 0.020692712
0003e0 da c2 b0 3c 02 9c 85 3c 68 8e fc 3b d5 1c 6c bc
       0.021577287 0.016309742 0.007707406 -0.014411171
0003f0 bf 06 2e be 7c dd 32 bf 97 01 61 bf 3b 93 12 bf
       -0.16994761 -0.6986921 -0.8789305 -0.57255906

network.0.bias f4 [256]
000000 c4 fc af 3d 92 62 9a ba 42 d7 56 be 7f d7 ab 3d
       0.08593133 -0.0011778644 -0.20980552 0.08390712
000010 23 e3 92 bc 96 d5 83 be b7 ba b2 be ae 5c c1 be
       -0.017930573 -0.2574889 -0.34908077 -0.3776602
000020 b0 f9 cb be 81 45 46 be 08 35 7a bd e0 d4 8f be
       -0.39838934 -0.19362451 -0.06108573 -0.28092098
000030 18 14 bf be b1 71 21 be c8 1f 02 be dd 10 bf bd
       -0.37320018 -0.15766026 -0.12707436 -0.09329388
000040 47 11 98 bc 82 c8 08 bd 0b ed 97 be 26 6a 0d be
       -0.018562926 -0.033394344 -0.29673037 -0.13810024
000050 f1 62 d9 be 67 bf e1 be a4 90 67 3d 7c ec ae be
       -0.424583 -0.4409134 0.056534424 -0.34164798
000060 18 97 9a be 76 71 cb be 98 f9 ce be 76 39 cc bd
       -0.301934 -0.39735 -0.404248 -0.09971897
000070 6c e3 1a bf 33 23 9b be 02 b3 f7 be 6e dc 30 be
       -0.6050327 -0.30300292 -0.4837876 -0.17271587
000080 57 96 91 be 12 0d db be 74 bc 0b bf 64 e5 bf bd
       -0.28435013 -0.4278341 -0.5458443 -0.09369925
000090 1c 9f 8b be 8d 72 86 bc 3c fd d5 bc 93 fb 4c bd
       -0.27269828 -0.016412044 -0.026121728 -0.050044607
0000a0 55 a5 52 be 73 79 a2 be 39 98 ec be 22 07 2d be
       -0.20570882 -0.31733283 -0.46209887 -0.16897252
0000b0 f1 5c 36 bf b2 f2 24 bf 09 3a 81 be ca f9 e8 be
       -0.7123557 -0.64432824 -0.2523959 -0.45503074
0000c0 68 3b 91 be 68 89 ce be 75 e7 80 be 14 ec ec bd
       -0.28365636 -0.40339208 -0.25176588 -0.11568466
0000d0 d8 ea e4 bd 14 7b 55 bd ea cc 9d be 08 04 16 bf
       -0.111776054 -0.05211933 -0.308204 -0.585999
0000e0 6e 36 a8 be e5 d8 b9 be dc 15 13 bf 44 e5 ed bd
       -0.32854027 -0.3629829 -0.5745523 -0.116159946
0000f0 47 82 92 bd e4 46 57 be 80 5b 96 be 33 71 da bd
       -0.07153755 -0.21023136 -0.29366684 -0.10666122
000100 b9 4b f4 bc e4 ae bb be d4 cb 13 bf 6e a5 08 bf
       -0.029821264 -0.36656868 -0.5773289 -0.53377426
000110 a2 e8 79 be c4 e9 82 be a9 87 b9 ba ff aa 4c bf
       -0.24405149 -0.25568974 -0.001415481 -0.7994842
000120 aa 86 5c be 4f 50 fc be e3 2d 90 be 39 bf f2 be
       -0.21535745 -0.4928002 -0.2816001 -0.47411516
000130 2b c2 39 be 12 60 18 bf c8 23 87 be 3c 01 8b be
       -0.18140475 -0.5952159 -0.26394486 -0.2714938
000140 65 ec b8 bd 94 3d 99 be 7f 35 29 bf d5 cb 31 3e
       -0.09029464 -0.29929793 -0.66097254 0.17362912
000150 ad a2 8a be dd d8 d6 be 0e 59 06 be 96 c7 b1 bd
       -0.27077237 -0.4196233 -0.13119909 -0.08680646
000160 6c 28 97 3c 7f 53 cf be 6d 3f 46 bf 47 21 0e bf
       0.018451892 -0.4049339 -0.7744053 -0.5551953
000170 61 a1 a9 be 99 ac aa bd a4 5c b0 be 25 1b 67 bf
       -0.33130935 -0.08333702 -0.3444568 -0.90275794
000180 9f cf ce bd c1 85 44 be 65 0b d9 bd 8b 04 0f 3d
       -0.10098194 -0.19191648 -0.105978765 0.034916442
000190 50 50 2b be 3e 20 bc 3d 89 a3 e6 be 40 11 aa be
       -0.16729856 0.09185837 -0.45046642 -0.33216286
0001a0 da fc 7c be 0f d5 2a be 76 cc 93 be 8d 61 70 be
       -0.2470583 -0.16682838 -0.2886693 -0.23474713
0001b0 f1 3d fb bd 70 43 9c be 8f ad c3 be 95 28 9b be
       -0.12267674 -0.305202 -0.38218352 -0.303044
0001c0 dc c3 a5 bd 3e bf f1 bd 8b 02 19 bf 46 24 71 be
       -0.08093998 -0.11804055 -0.59769505 -0.23548993
0001d0 53 f4 c4 be b9 85 8f be ce 15 8e be 57 7d 49 be
       -0.38467655 -0.2803171 -0.2775101 -0.1967672
0001e0 ca 65 3a 3e 9f e3 ec bd 36 11 81 be ab 93 ad be
       0.18202892 -0.11566853 -0.25208443 -0.33901724
0001f0 60 38 34 be 17 e0 15 bf 9a b6 db be b8 1f 00 be
       -0.1759963 -0.5854506 -0.4291275 -0.125121
000200 25 78 6e be 77 70 59 be de 3d 12 be ae 86 35 be
       -0.23288019 -0.21234308 -0.14281413 -0.17727157
000210 89 da e0 bd 7d 06 83 be 39 8d 6b be bd 9e d7 be
       -0.10979182 -0.25590888 -0.23003091 -0.42113295
000220 58 fb 1a 3d 93 dd cb bd cc 2d b3 be b4 af 6b be
       0.037837356 -0.09954371 -0.34995878 -0.23016244
000230 d1 06 6a be 7c d4 e1 be 93 41 22 be 62 2b f1 be
       -0.22854163 -0.44107425 -0.15845327 -0.4710341
000240 3c e5 e3 be 04 57 38 bc f4 c2 b6 be f9 71 7f bf
       -0.4451083 -0.011251215 -0.35695612 -0.99783283
000250 aa 1e 6e be 0f 9f e9 be be cb 3d be b2 57 ee 3d
       -0.23253885 -0.45629165 -0.18534753 0.1163782
000260 09 14 a8 bc 5f 5b 82 be 97 85 a7 bd 8a 51 c4 be
       -0.020517366 -0.25460336 -0.08179777 -0.3834346
000270 81 d9 a5 be fa e6 9d bd b2 e9 bf bd 00 04 c2 bd
       -0.32392505 -0.07710071 -0.09370746 -0.09473419
000280 b2 fb c4 be b1 d2 f9 bd cb 73 c9 3d 22 61 86 be
       -0.38473278 -0.12198389 0.09836539 -0.2624598
000290 f8 a2 fa be 55 64 f4 bd ad 56 59 be ee 1c 80 be
       -0.4895246 -0.11933199 -0.2122447 -0.25022072
0002a0 65 dd 8a be 23 81 30 be f4 ef de be f0 98 1e bf
       -0.27122036 -0.17236762 -0.43542445 -0.61952114
0002b0 29 1f 8b be 3d 1a e8 be 06 97 65 be 46 64 4f be
       -0.2717221 -0.45332518 -0.22420892 -0.20253095
0002c0 2a 41 09 bf 65 ae 5a be af f0 38 be 18 96 32 be
       -0.5361506 -0.21355589 -0.18060564 -0.17440069
0002d0 10 5e e0 be 77 23 92 be 53 93 9c be 97 16 90 be
       -0.43821764 -0.28542683 -0.3058115 -0.28142235
0002e0 8e 55 ca be 60 d1 b0 be 0d 6a c1 bd bf 7e 91 be
       -0.39518398 -0.3453474 -0.09444056 -0.28417012
0002f0 73 f4 99 3d 95 74 ae be 11 42 0c bf bd 2d 89 be
       0.07517328 -0.3407332 -0.5478831 -0.26792708
000300 05 f6 8b be c1 35 bf be 9b 4c 9f be ab 55 49 be
       -0.27336136 -0.37345698 -0.31113133 -0.19661586
000310 17 20 ed bd 4f e3 11 3b c4 83 98 be ab 7a e5 be
       -0.11578386 0.002226073 -0.2978803 -0.4482015
000320 d4 09 a6 be af 0d bf be ee c1 d9 be 29 28 13 bd
       -0.32429373 -0.37315127 -0.4253077 -0.03592697
000330 b2 01 e6 be cb 8a aa be 4e f9 86 be 0d 2f fe be
       -0.44923168 -0.33309016 -0.2636208 -0.49645272
000340 9f 78 07 be 48 1a 9e bd 37 a2 8b be dd a8 93 be
       -0.13229607 -0.077198565 -0.27272198 -0.2883977
000350 d7 e4 a1 bd 0d 61 1e bd c6 76 cf be ca d2 11 be
       -0.07904976 -0.038666774 -0.40520304 -0.14240566
000360 6e 03 22 bb 2e 2b 88 be d0 3a ae be 63 da 8d be
       -0.0024721283 -0.26595443 -0.34029245 -0.27705678
000370 79 8e b3 be 0b 91 fc bd 1e a9 4d be 38 6a dd be
       -0.35069636 -0.12332352 -0.20084044 -0.432451
000380 17 65 0d be ed 79 51 be c9 70 e5 bd f1 31 1f be
       -0.13808094 -0.20456667 -0.11203153 -0.15546395
000390 25 44 43 be 32 ad 4e bd db 36 85 be a7 74 95 be
       -0.19068964 -0.05045814 -0.26018414 -0.2919056
0003a0 8a 1f 6b be ea d9 19 be 04 3e df bd 7d 0e 72 bf
       -0.2296125 -0.15024534 -0.109005004 -0.9455336
0003b0 e6 05 75 be 70 4f 99 bc 07 cd 2f bf a4 87 4c bd
       -0.23928031 -0.018714637 -0.6867222 -0.049934044
0003c0 9b 3b 7f be e8 09 18 be 7b 55 ba be cb a2 ed be
       -0.24925081 -0.14847529 -0.3639334 -0.46413264
0003d0 f3 55 cd be a6 17 26 be 45 4b 85 be bf a9 84 bd
       -0.40104637 -0.16219959 -0.2603399 -0.06477689
0003e0 99 01 cd be b9 d4 d7 bd f3 f5 e6 be 51 92 04 bf
       -0.4004028 -0.105386205 -0.4510952 -0.5178576
0003f0 17 8b 9a be 4c 8b 38 be e5 f7 e7 be de fd 6b bd
       -0.30184242 -0.18021888 -0.45306316 -0.057615153

network.2.weight f4 [256, 256]
000000 c1 bc 8a bd 89 a6 a8 bd 7f 46 1e bd 43 61 00 3a
       -0.06774283 -0.08234889 -0.03864145 0.00048973056
000010 36 36 c5 bd a1 c5 bb bd 0e c4 c7 bd 2d 9e d8 bd
       -0.096294805 -0.09168554 -0.09754191 -0.10577045
000020 e9 3a f2 bd 3c d3 70 bd 1f eb aa bd f1 3b 97 bd
       -0.118276425 -0.0587952 -0.08345627 -0.0738448
000030 80 db b8 bd 7d 65 1d bd 89 c5 36 bd 90 1f 0c bd
       -0.09026241 -0.038426865 -0.044621978 -0.034209788
000040 d8 7f 75 bd fc 9b 19 bd 89 10 8e bd 2d 65 a0 bd
       -0.059936374 -0.037502274 -0.069367476 -0.07831798
000050 82 8d 59 bc e9 6a f8 bd 50 10 b7 bd 4c 44 a5 bd
       -0.013278367 -0.121297665 -0.08938658 -0.08069667
000060 20 32 28 bd 49 61 e4 bb 21 85 44 bd a3 f6 f6 bd
       -0.041063428 -0.006969605 -0.047978524 -0.12058761
000070 e4 f6 fa bd 75 f2 81 bd d2 70 b6 bd 1c 6e ba bc
       -0.12254122 -0.06345073 -0.089082375 -0.022757582
000080 62 00 1b bd e3 2b 68 bd f5 3d b4 ba 87 04 be bd
       -0.037842162 -0.05668248 -0.0013751375 -0.09278207
000090 be 60 f3 bb 63 a5 72 bd 6a e3 5c bc 63 16 21 bd
       -0.007427304 -0.059239756 -0.013481954 -0.03932799
0000a0 ef d0 44 bd e4 dd d3 bd 85 01 71 bd 82 54 b1 bd
       -0.048050817 -0.10345057 -0.05883934 -0.08658697
0000b0 c6 b9 a0 bc bd 55 dd bd ed 8b 90 bd 16 69 da bd
       -0.019619834 -0.10807369 -0.07057939 -0.10664575
0000c0 e5 a3 19 bc 10 d5 a4 bc 92 a3 2e bd dd f0 8c bc
       -0.009377454 -0.020121127 -0.04263646 -0.017204696
0000d0 26 0e cb 3a 0e 89 60 bd 23 f0 b3 bd 36 41 4d bd
       0.0015491887 -0.054818206 -0.08786037 -0.050111018
0000e0 05 d7 2c bd 91 ea 04 bc bb 4d e3 bb 6f 46 a4 bd
       -0.042197246 -0.008112566 -0.0069367564 -0.08021247
0000f0 ee cd 9d bd 4a 4b a8 bd c8 a2 02 bd 95 44 9f bd
       -0.077052936 -0.08217485 -0.03189352 -0.07776753
000100 b2 15 e3 bd 1d b5 57 bd 38 9e aa bc 13 ba 84 bc
       -0.110881224 -0.052662957 -0.020827398 -0.016202008
000110 0b c8 b9 bd f7 e8 12 bd 49 7e ee bc 34 1d a1 bd
       -0.09071358 -0.035866704 -0.029112952 -0.07866898
000120 55 b6 9d bc d8 ec 8a bd 67 44 a4 bd 69 5c 63 bc
       -0.019251982 -0.067834556 -0.08020859 -0.013877013
000130 0d f7 c9 bd 59 f0 01 bd 51 64 57 bd ce 56 83 bd
       -0.09861574 -0.031723354 -0.052585904 -0.06413041
000140 d7 0e e1 bd 0d 69 0a bd 2f 01 c5 bd 3a ea db bd
       -0.109891586 -0.03379159 -0.096193664 -0.107380345
000150 19 c8 91 bb 7b bc aa bb ef b2 a5 bc ce 46 d2 bd
       -0.0044489023 -0.005210457 -0.020226924 -0.10267411
000160 a9 66 fa bd 29 34 8b bd 5c 77 47 bc dc 88 de bd
       -0.12226612 -0.06797058 -0.012174454 -0.108659476
000170 2b 19 83 bd d7 fe 4a ba cb ad 99 bd 49 a7 27 bd
       -0.06401285 -0.00077436626 -0.075038515 -0.04093102
000180 a8 c8 d2 bd 52 51 88 bd 98 c4 a6 bb e7 56 45 bc
       -0.102921784 -0.066561356 -0.005089354 -0.012044645
000190 91 cb f8 bd db ca 3e bd 96 fa d3 bb fc c2 6d bc
       -0.12148202 -0.046580177 -0.006469081 -0.01451182
0001a0 fd 19 18 bd ae 71 2b bd ee 87 ab 3a fe f6 c3 bd
       -0.03713416 -0.04185646 0.0013086775 -0.095685944
0001b0 11 db 84 bc 13 a7 6c bd 9d 80 b8 bd 7f 74 54 bc
       -0.01621774 -0.057776522 -0.09008906 -0.012967228
0001c0 63 a3 8b bd ef 55 99 bd 99 35 67 bc af cd 57 bd
       -0.06818273 -0.07487094 -0.0141119 -0.05268639
0001d0 09 77 4a bd bf e7 f9 bd 5a 61 b1 bd 77 a5 14 bd
       -0.049429927 -0.12202405 -0.086611465 -0.036290612
0001e0 5a 0a fe bc d1 fb 47 bd 14 6e a2 bb dc ee bd bc
       -0.031010795 -0.048824135 -0.00495697 -0.023185186
0001f0 5e 5c bb bd 5b 94 92 bd 0a 1e a5 bd 56 5c c4 bd
       -0.09148477 -0.07157203 -0.0806237 -0.09587924
000200 6a ea b6 bd 86 ad dc bd e2 32 97 bd 72 ee fb bc
       -0.0893143 -0.107752845 -0.07382752 -0.030753348
000210 2d 4a d4 bd 40 93 d1 bd 52 17 c9 bc f2 b2 8e bd
       -0.103657104 -0.10233164 -0.024547253 -0.06967725
000220 de 3d 70 bd 37 e3 b5 bd b4 1a 4d bd 3b 80 1c bd
       -0.05865275 -0.088812284 -0.050074294 -0.038208228
000230 17 de 0c bc af e2 05 bd 4c f2 a9 bd 15 0c fa bd
       -0.008597872 -0.032686885 -0.082981676 -0.12209336
000240 47 f3 f7 bd 98 4c e7 bd bc b2 f6 ba ac 8d 48 bd
       -0.12106948 -0.11293906 -0.0018821578 -0.048963234
000250 8d 51 df bb d1 0c f0 bc 71 e8 a4 bd b6 85 cd bd
       -0.0068151415 -0.029302986 -0.08052147 -0.10035269
000260 28 b4 9a bd cd 2a de bd 44 02 d9 bd a7 79 a5 bd
       -0.07553893 -0.10848007 -0.10596135 -0.08079844
000270 29 c8 84 bd 3d 1c de bd 71 26 8e bd 73 a5 97 bd
       -0.0648349 -0.1084523 -0.06940926 -0.07404604
000280 50 ab d8 bd 0b d5 a1 bd 94 1f 14 bd ab 4a 09 bd
       -0.1057955 -0.07901963 -0.036162928 -0.033518475
000290 fc 30 b4 bd ad b2 d9 bd 48 38 b1 bd 96 96 61 bc
       -0.087984055 -0.10629783 -0.08653313 -0.013768813
0002a0 40 d6 86 bd de 81 7a bd 7b 3a 02 bc 09 9c c2 bc
       -0.06583834 -0.061159007 -0.007948513 -0.023756044
0002b0 5e fb 3f bd b1 2c 0a bd 2a 64 1c bb cb b3 1d bc
       -0.04687058 -0.033734027 -0.0023863413 -0.0096253855
0002c0 d9 70 1c bd d6 8b bb bd 87 ba 82 bd 1c fc d3 bd
       -0.038193557 -0.09157531 -0.063832335 -0.103508204
0002d0 d2 c1 38 bd 1b b2 98 bd 25 bc 2b bd 40 4b e6 bd
       -0.045106716 -0.07455846 -0.041927475 -0.112448215
0002e0 e8 ba 54 bd 67 03 46 bc b2 54 28 bb 0a 16 bb bd
       -0.05193606 -0.012085772 -0.0025685248 -0.09135063
0002f0 2b c0 b1 bd 7e 56 ef bd 30 5e d5 bd 0c 07 d9 bb
       -0.08679231 -0.11686419 -0.104183555 -0.0066231545
000300 3c 66 f0 bd 57 7a ed bd 31 16 f7 bd 24 86 b3 bb
       -0.1173825 -0.115956 -0.120647795 -0.0054786373
000310 90 3e 7f bc 66 8f e2 bd 64 de eb bd f0 87 3c bd
       -0.015578881 -0.11062507 -0.11517027 -0.046028078
000320 81 4d ab bd ec b4 8a bd 02 2b ee bc 44 6d d5 bc
       -0.08364392 -0.06772789 -0.029073242 -0.026053078
000330 2d c7 b6 bd 07 7b d0 bd 19 67 e0 bd ff 9a 35 bc
       -0.089247085 -0.101797156 -0.10957164 -0.011084317
000340 e3 fd ea bd 95 1f 98 bd d3 2d f2 bc 70 02 e2 bc
       -0.11474206 -0.07427899 -0.029562866 -0.027589053
000350 0e 0e 38 bd fb 65 e0 bd 27 58 9b bd 85 70 92 bc
       -0.04493528 -0.10956951 -0.07585173 -0.01787592
000360 08 a9 6c bd 2c d7 12 ba 6b 72 f9 39 3e fe 92 bd
       -0.05777839 -0.0005601521 0.0004757823 -0.07177399
000370 82 c1 2c bd 30 9f b3 bc e3 6c c3 3a c4 97 84 bd
       -0.04217673 -0.021926492 0.001490977 -0.064742595
000380 ff eb 7c bd de c2 b4 bc 1b 53 0c bd 47 c8 9d bd
       -0.0617485 -0.022065576 -0.034258943 -0.077042155
000390 91 3c 89 bb 4c 79 c0 bd e1 b8 49 bd 06 96 ab bd
       -0.0041881283 -0.093981355 -0.04924858 -0.08378224
0003a0 e6 c6 96 bc 9b 5c 91 bd 20 e5 94 bc e3 51 07 bd
       -0.018405389 -0.07097741 -0.018175662 -0.033037078
0003b0 4e ea 9f bd 5f 3a ce bc 94 29 e8 bd ab 6a 1f bd
       -0.07808362 -0.025174318 -0.113360554 -0.038920086
0003c0 89 db 6d bd 71 18 39 bd 20 36 45 bd 74 b3 b3 bd
       -0.058070693 -0.045189325 -0.04814732 -0.08774462
0003d0 f2 96 ec bd d0 49 d3 3a 6a 76 3a bd a6 32 d0 bd
       -0.11552228 0.001612002 -0.045523085 -0.101659104
0003e0 0b 74 49 bd b1 87 18 bd 1c f4 a9 bd df 87 24 bc
       -0.049182933 -0.03723878 -0.08298513 -0.01004216
0003f0 47 ab ca bd b8 e1 17 bd 88 18 3b bc 66 62 1f bd
       -0.0989595 -0.037080497 -0.011419423 -0.0389122

network.2.bias f4 [256]
000000 e3 4a 4d bd 16 05 58 bd 46 54 2a bd 32 07 3d bd
       -0.050120246 -0.052739225 -0.041584276 -0.04614944
000010 c5 21 f4 bd 8a 03 c3 bc 60 11 78 bd 29 7d 72 bc
       -0.119205035 -0.023805398 -0.060563445 -0.014800348
000020 9a e5 a3 bd 07 d1 8b bc 97 f8 cf bd aa 57 fb bd
       -0.080027774 -0.017067445 -0.101548366 -0.1227258
000030 6a c5 a6 bd c3 2a 82 bd 77 78 ef bd 2b 49 d1 bd
       -0.081431225 -0.063558124 -0.11692899 -0.10219034
000040 f4 19 bb bd 5b e2 3b bd aa 5d b4 bd 69 4c 94 bd
       -0.091358095 -0.045870166 -0.088069275 -0.072411366
000050 ec 97 ec bc 62 0d 9a bd af 9d b5 bd f3 6f a5 bc
       -0.028881036 -0.07522084 -0.088679664 -0.020194983
000060 21 ba c6 bd 74 f7 d7 bd df dd 83 bd 76 0e f5 bc
       -0.0970347 -0.10545245 -0.06438803 -0.029914122
000070 73 e0 d1 bd 09 57 c6 bd 22 a8 8f 3c 49 54 c6 bd
       -0.102478884 -0.096845694 0.017536227 -0.09684045
000080 cf 91 b4 bc b1 ec a3 bd cb 2b cc bc 2d d7 90 bd
       -0.022042183 -0.0800413 -0.024923226 -0.070722915
000090 09 9b b7 3b 9e ee 96 3c 32 27 0b bd 00 14 67 3b
       0.0056031984 0.018424328 -0.033972926 0.0035259724
0000a0 a6 7b d0 bd db 3d f2 bc 90 8f d2 bd 8a d3 f2 3b
       -0.10179834 -0.02957051 -0.102812886 0.0074104713
0000b0 91 ab c5 bb 7b 79 a7 bd 5b 66 d1 bd b7 ed f4 bc
       -0.006032415 -0.081774674 -0.10224601 -0.029898508
0000c0 86 b6 d7 3a a1 94 80 bd 97 c4 2c bd 70 a9 a9 bd
       0.0016457594 -0.06278349 -0.04217967 -0.08284271
0000d0 5d cf 64 bd 3d 57 01 be f9 92 8e bc 99 30 24 bd
       -0.05586182 -0.12630935 -0.017404066 -0.04008541
0000e0 8b 1e d3 bd ed ad 6d bc ef ac 50 bc 70 7f 92 3c
       -0.1030856 -0.014506799 -0.012736543 0.017883033
0000f0 14 db c0 bd ee a7 bd bd 56 c9 00 bd b9 af 92 bd
       -0.09416786 -0.09260546 -0.03144201 -0.07162423
000100 31 3a ef 3b 46 55 18 bb 70 fe c4 bd 36 fa 13 bd
       0.007300638 -0.0023244186 -0.096188426 -0.03612729
000110 40 5e 63 bc 71 f6 77 bd 22 13 4e bd 28 84 6c bd
       -0.013877451 -0.06053776 -0.050311215 -0.05774322
000120 33 a5 89 bd 42 87 f1 bd 88 63 ca bd da ab 47 bc
       -0.067209624 -0.117933765 -0.09882265 -0.012186969
000130 5b f3 e9 bb 97 4e 3a bd 84 86 44 bd a7 74 9a bd
       -0.007139606 -0.045485105 -0.047979847 -0.07541781
000140 e1 01 f1 bc 8b 05 a4 bb d8 aa 60 bd c5 1c 21 bd
       -0.029419841 -0.0050055436 -0.05485043 -0.039334077
000150 98 58 47 bd 37 f4 c8 bc 69 13 e7 bd 0d 10 29 bd
       -0.048668474 -0.024530513 -0.11282999 -0.041275073
000160 92 2c 99 bd 47 5a d2 3c 97 06 a6 bd b9 a7 39 bd
       -0.07479204 0.025677813 -0.08106726 -0.04532597
000170 ba da 66 bd 89 0e d1 bb 14 8b d2 bd c8 3d c2 bd
       -0.056360938 -0.0063799066 -0.10280433 -0.0948444
000180 53 f2 f8 bd be 46 c6 bd 78 eb af bd ec 26 95 bd
       -0.12155595 -0.09681462 -0.08589834 -0.072828144
000190 8f f0 b8 bd d6 21 a1 bd 09 c7 d0 bc bf e5 54 bc
       -0.09030258 -0.07867782 -0.025485532 -0.012994229
0001a0 0b e2 ef bc 76 a2 e4 bc 90 5e 9b bd 84 e2 85 3c
       -0.02928259 -0.027909499 -0.07586396 0.016343363
0001b0 b1 5e a1 bc c2 7e 35 bd 9d 91 fd bc 71 89 f1 3b
       -0.019698473 -0.04431034 -0.030953223 0.0073711206
0001c0 1d 7c 3b bd ec 15 bf bd a0 c9 4e bd 6e 7f 51 bd
       -0.04577266 -0.09330353 -0.050485253 -0.051146917
0001d0 96 15 9b bd 74 d7 97 bc 40 95 b2 bd 99 74 97 bd
       -0.075724766 -0.018535353 -0.087198734 -0.07395286
0001e0 18 e0 58 bc 0f 0c e3 bc 99 95 fd bd 95 be ac bc
       -0.013237022 -0.02771571 -0.12382049 -0.02108697
0001f0 54 05 52 bc de a0 e0 bd 06 3c 00 be 84 9b b3 bd
       -0.012818653 -0.10968183 -0.12522897 -0.087698966
000200 47 d7 72 3c 60 28 b8 bd 74 08 f6 3b 6f ba 15 bc
       0.014821834 -0.08992076 0.007508332 -0.0091386875
000210 fa d6 9b 3c 44 b7 f2 bd 4b 4a be 3c 95 f4 a8 bd
       0.019023407 -0.118513614 0.023228785 -0.08249775
000220 d9 d7 41 bd 5d 7d c8 bd 03 a6 26 bd 7f 85 fd bd
       -0.04732499 -0.09789536 -0.040685665 -0.12378978
000230 6f a0 5d bd 9a 88 65 bd d9 9a 98 3c 42 45 c9 bd
       -0.05410808 -0.056038477 0.018628525 -0.09827663
000240 ec 40 87 bd 3a 75 9c bd c6 11 5e 3c 38 49 94 bd
       -0.0660418 -0.07639547 0.013554042 -0.07240528
000250 e4 97 34 bd c3 ec ad bd 7f e9 e1 3b 39 03 68 bd
       -0.044090167 -0.08492424 0.00689429 -0.0566437
000260 0d 59 8c bd 84 73 f0 bc 85 60 d4 bd 09 80 ca bb
       -0.068529226 -0.029351957 -0.10369972 -0.0061798138
000270 c5 2d ee bd 61 e3 aa bd 0d b0 58 3b 3a 23 5b bd
       -0.116298236 -0.0834415 0.0033063919 -0.05350039
000280 9b f6 ab bc e2 30 69 bd fe 3f 01 bd d0 55 ca bd
       -0.020991614 -0.056931384 -0.03155517 -0.09879649
000290 0d 7b 77 bd 1f 1f f9 bc f8 9e 5e bd ae 33 cd bb
       -0.060420085 -0.030410348 -0.054350823 -0.006262264
0002a0 63 32 d1 bd 8f 5f d0 bd 84 47 2b bc 17 c4 e2 bd
       -0.10214689 -0.10174476 -0.010454062 -0.110725574
0002b0 45 90 47 bd a9 cf 19 bc b9 c9 72 3a 25 a3 2a bc
       -0.04872157 -0.009387889 0.00092616264 -0.010414873
0002c0 fe 37 28 bd 18 26 92 bd 9e da 04 be 5b 60 fd bd
       -0.041069023 -0.07136172 -0.12974021 -0.12371894
0002d0 79 22 d1 b9 db ec 40 38 e2 81 a6 bd 06 e9 31 bc
       -0.0003988927 4.5996956e-05 -0.08130242 -0.01085878
0002e0 80 2b 33 bc e2 73 b3 bd 72 ee c2 bd 9c 0c 95 bc
       -0.010935664 -0.08762337 -0.09518136 -0.01819449
0002f0 46 9c 05 3d db 0d a0 bd 60 75 44 bd 55 86 8e bd
       0.032619737 -0.07815143 -0.0479635 -0.069592156
000300 e4 64 d2 bd 1a 33 03 3a 06 5c 93 bd 44 75 a6 bd
       -0.102731496 0.0005004868 -0.071952865 -0.081278354
000310 a2 a6 25 bc b8 4d 8e bb 85 14 2a bd f6 e9 7b bd
       -0.010110529 -0.004342761 -0.041523475 -0.06150242
000320 a7 50 9c bc 03 9a 0a bc 07 b4 81 bc ee 7f ac bd
       -0.019081427 -0.008459571 -0.015832914 -0.08422838
000330 e1 32 e0 bd 31 61 4a bd 68 7b d5 bc 7f 3b 8e bd
       -0.109472044 -0.049409095 -0.026059821 -0.06944942
000340 8c f3 ef bd 35 5b aa bd f6 83 80 bd 54 25 f4 bd
       -0.11716375 -0.083181776 -0.062751696 -0.11921182
000350 b8 58 9d bd 1e c3 d7 bd e3 d8 9c bd 38 22 cb bd
       -0.076829374 -0.105352625 -0.07658555 -0.09918636
000360 fc 93 a2 bd cc 77 67 bd b2 a8 c8 bd 31 af 1c bd
       -0.07938382 -0.05651073 -0.09797801 -0.038253013
000370 7f d9 c7 bd 0c b8 15 bc d5 2c 05 bd c1 fc cb bd
       -0.09758281 -0.0091381185 -0.03251346 -0.09960318
000380 c3 87 df bc d4 64 11 bd e0 51 c2 bd 6a 01 9b 3c
       -0.027286416 -0.035496548 -0.09488273 0.018921573
000390 db 30 06 bd 4f c8 78 bc 1d 6c 86 bd b3 c3 5c bc
       -0.032761436 -0.015184476 -0.0656359 -0.013474393
0003a0 8f 0b 95 3a 02 f8 5f bd d0 fa e0 bd f0 43 cf bd
       0.0011371243 -0.054679878 -0.10985339 -0.1012038
0003b0 dc 6e ab bd e2 2c 15 bd 53 a6 12 bd f2 b7 08 bd
       -0.08370754 -0.036419757 -0.03580315 -0.03337855
0003c0 89 09 d2 bd ea fb 17 bc 7d 36 c2 bd 68 ad cb bd
       -0.10255725 -0.00927637 -0.09483049 -0.09945184
0003d0 78 90 ff bb 80 63 a5 bc 84 e6 31 bd b3 dc 40 bc
       -0.0077992044 -0.020189047 -0.043432727 -0.011771369
0003e0 dc 0f da bd ee 6e aa bd f3 40 be bd 9f 65 d5 bd
       -0.10647556 -0.083219394 -0.09289732 -0.10419773
0003f0 ee 57 d9 bc 79 56 94 bd 90 e4 03 bd 0a c2 e3 bd
       -0.026531186 -0.07243056 -0.032200396 -0.111209944

network.4.weight f4 [256, 256]
000000 d5 d1 9a ba 70 53 3a 3c 22 1c 82 3d c6 75 ec 3d
       -0.0011811802 0.011372432 0.06353022 0.11545901
000010 d3 0f d0 3d 23 58 a1 3d d3 41 89 3d 60 37 a0 3d
       0.10159268 0.07878139 0.06702008 0.07823062
000020 3f 65 ca 3d 31 b6 bf 3c db e5 f4 3d e2 73 91 3d
       0.098825924 0.023402305 0.11957904 0.07102181
000030 25 96 fa bc d4 f3 a9 3d 0d c9 08 3d d5 7d 7e 3d
       -0.030589173 0.0829846 0.033394862 0.06213172
000040 0a aa 0c bd b7 13 8c bd 62 cf de bb c6 0f 93 3d
       -0.03434185 -0.06839698 -0.0067996243 0.07180743
000050 d5 4f ba bc 4d a3 21 3d d1 d7 7f bd 56 03 e0 3d
       -0.022743145 0.039462376 -0.062461678 0.10938136
000060 68 d9 81 bd fe 1f 8d 3d f6 ed b8 bc d3 19 a0 3d
       -0.06340295 0.06890868 -0.022574406 0.078174256
000070 fd 20 36 bd 84 f9 b4 bd 02 36 5a bd 2b ba 24 bd
       -0.044465054 -0.08836654 -0.053274162 -0.040216606
000080 cb 49 70 3d 73 c8 98 3c ac 51 86 bd 44 fc 4e bd
       0.058664124 0.01865027 -0.065585464 -0.050533548
000090 36 29 9b bd 01 95 92 bd 38 6f 19 3d ae b4 b8 bd
       -0.0757622 -0.071573265 0.037459582 -0.09018837
0000a0 7e f1 ce 3b 1c 7f aa bd 31 0b 23 bd ff f1 cf bd
       0.006315409 -0.083250254 -0.039805595 -0.10153579
0000b0 7a 11 d9 bc bf 14 58 bd 97 3e f7 3c 8e 67 db 3d
       -0.026497591 -0.05275416 0.030181212 0.10713111
0000c0 37 0b e2 3c 47 de a7 3c d2 81 f4 3d b1 89 cd bd
       0.027593238 0.020491732 0.11938824 -0.10036028
0000d0 68 32 e0 3d 1b 33 12 bd b3 e8 c9 bc a7 36 b7 bb
       0.10947114 -0.03569327 -0.024647092 -0.005591232
0000e0 a1 f0 2a 3c 89 68 f0 3b c6 74 ea 3c b1 6c 94 bd
       0.010433347 0.0073366803 0.028620135 -0.07247294
0000f0 94 37 10 3d a1 3f 4a bd e9 14 a2 bd 9c e9 be 3c
       0.035209253 -0.049377088 -0.079141445 0.023304753
000100 ef 4e 47 bd 48 91 08 bd af 45 9f 3b 0d b3 b1 bd
       -0.04865926 -0.033341676 0.004860602 -0.08676729
000110 f8 4d 31 3c 5c 5e 95 3d 0a 75 2a bb 16 00 21 b9
       0.010821812 0.07293388 -0.0026009702 -0.00015354189
000120 41 9f e6 3d 6f 34 8f 3a 34 75 77 3d dd 8b 64 3c
       0.11260844 0.0010925661 0.060414508 0.013949362
000130 4e bb bf bd 6c a6 40 3d e2 a5 8c bd cb fb 6c bd
       -0.093618974 0.047033712 -0.06867577 -0.057857316
000140 62 da ab 3d 96 d4 b7 bc d7 52 c0 bd 4d 21 e7 3d
       0.083912626 -0.022440236 -0.093908004 0.112856485
000150 6e 9f 90 3d f3 14 1d 3d bc f1 11 3c a8 9d d5 bb
       0.07061659 0.038350057 0.008907732 -0.006519038
000160 81 e6 4b 3d e1 08 b6 bc ad 2b 9a 3c a5 af 77 bd
       0.049780373 -0.02222103 0.018819654 -0.060470242
000170 c7 e8 4a bd c1 a5 9a 3c 8d 6d 75 bc 5e c0 0a bc
       -0.0495384 0.018877866 -0.014979732 -0.0084687155
000180 f2 d9 21 3d b4 75 dd 3d e1 c3 87 3d a0 e2 ea bc
       0.03951449 0.10813466 0.06629158 -0.028672516
000190 bb 0f af 3c 97 22 e4 3d b3 5f 1f bd bc fd 64 3c
       0.021369806 0.1113941 -0.038909625 0.013976511
0001a0 16 48 85 bd b4 0d 0a bd b4 0a ba bd 43 7a 87 bd
       -0.0650789 -0.033704475 -0.09084073 -0.066151164
0001b0 65 f9 ee 3c 46 e1 b6 3c ba 1f 9b 3b 6b ba 7b bd
       0.029171655 0.022324216 0.0047340067 -0.06145708
0001c0 74 f2 ce 3d c6 0c a9 3d 99 2e ba bd 72 3b 45 bd
       0.10104838 0.082543895 -0.09090919 -0.048152395
0001d0 52 2e 59 3d 24 2f 7e bd 93 7c e9 3d 9a 99 9b 3c
       0.05302269 -0.062056676 0.11400714 0.018994141
0001e0 31 a6 7d 3d 14 bc 03 bb 5c 1d 31 3c 38 50 3c 3c
       0.06192607 -0.0020101117 0.0108102225 0.011493735
0001f0 0d 39 fc bc c9 b0 87 3d 20 0b 98 bd 49 39 c9 bc
       -0.030788923 0.06625516 -0.07423997 -0.024563449
000200 3d c9 8a bc 06 2a 94 3d d6 fd 77 bd 59 51 69 bd
       -0.016941661 0.07234578 -0.06054481 -0.056962345
000210 75 0c 9f 3c 5e f8 e6 3d 42 bd d3 bc b1 c6 eb 3b
       0.01941512 0.11277841 -0.025847081 0.0071953167
000220 7d 23 8e 3c b9 01 65 bd c5 2f 7a 3d c4 d6 a1 3d
       0.017350907 -0.055909846 0.061080713 0.079022914
000230 6d e6 57 bc f3 75 8d bc 5f 9b 71 3b 00 14 e9 3d
       -0.013177496 -0.017268157 0.003686629 0.11380768
000240 43 2b 90 bc b3 cc bd 3d 53 33 39 bd f0 39 36 3d
       -0.017598754 0.09267559 -0.045214962 0.044488847
000250 16 0c 9b 3d 24 4a 9c 3c 58 7c 99 bd b8 8f 9e 3c
       0.075706646 0.019078322 -0.0749442 0.01935564
000260 56 88 0f bd 6f 3a 56 3d e1 bb a7 bd 1f 1c 65 3c
       -0.03504213 0.05230182 -0.08190132 0.013983755
000270 66 df 81 bc 5c 6f 94 bc 92 09 9b 3d 7a 3a 53 bd
       -0.015853595 -0.018119507 0.07570185 -0.05156944
000280 27 8e d9 3c 2e 8c cd 3d 9b 2c e9 3b 68 9f 0a 3c
       0.026557041 0.10036503 0.007115913 0.008460857
000290 3f 5f 8a bd 50 08 9f 3b da ae 4b 3d 08 cc 93 bd
       -0.06756448 0.004853286 0.0497273 -0.0721665
0002a0 91 d8 00 3d f9 9c e1 3c 18 77 6a 3d 37 79 42 3c
       0.031456534 0.02754067 0.057242483 0.01186972
0002b0 ee 5b 50 3c e9 9c e2 bc 31 88 cd bd 37 61 05 bc
       0.01271723 -0.027662711 -0.10035742 -0.008140854
0002c0 8e 6c 08 bd d3 9a c7 3d cb 87 d4 3d e5 97 2b 3d
       -0.03330665 0.09746327 0.10377463 0.041892905
0002d0 a4 35 84 39 8e 31 b9 3b 94 12 6d 3c 3f 3a 6f bb
       0.00025216967 0.0056516593 0.014469761 -0.0036503223
0002e0 0c 0a 2d bd 15 e0 85 3d 08 3c b6 bd e2 65 37 3d
       -0.04224591 0.06536881 -0.08898169 0.044774897
0002f0 3d ae b6 bc 14 61 92 3c e8 2d 26 3d ff cd fd bb
       -0.02229988 0.017868556 0.040571123 -0.007745504
000300 5a 7d 53 bd 99 a3 f0 3b 55 75 b6 3c c1 85 92 3d
       -0.051633216 0.007343721 0.022272745 0.07154418
000310 ab 94 06 3d 68 94 e8 bc 4f f8 55 bd 3c ec 6c 39
       0.032856625 -0.028391078 -0.05223876 0.00022594718
000320 56 02 99 bb 31 3b b1 3c 6a 40 21 3c dd 1e 9c bd
       -0.004669468 0.02163467 0.009842018 -0.07623074
000330 b4 c7 82 bd b7 85 d0 3c f4 ed 44 3d 1c e5 01 3d
       -0.063857466 0.025454385 0.048078492 0.031712636
000340 d2 68 8e 3c 88 bf a3 3d 73 91 17 bd 81 5d c4 3d
       0.017383967 0.07995516 -0.037003946 0.09588147
000350 54 66 43 3d fb 35 96 3c 95 7b dd 3d c1 16 42 3d
       0.04770501 0.018336287 0.10814587 0.04738498
000360 2c da 53 3c 59 90 86 3c 93 70 a4 bc e6 81 94 bd
       0.012930434 0.016426252 -0.02007321 -0.07251339
000370 a0 fa 79 3d 9b 9f e3 3d 40 28 9f 3d a3 5b ae 3d
       0.06103003 0.11114427 0.07771349 0.08513572
000380 77 ab 32 3b 6f 0b ac bc 4d d3 90 bd 85 91 a7 3a
       0.0027262846 -0.021001546 -0.070715524 0.0012784457
000390 ac 46 18 bc 47 b4 6d 3d 1a ab 4e bd 7e 28 db 3c
       -0.009294193 0.058033254 -0.050456144 0.026752707
0003a0 b3 97 a8 bd aa b0 41 3c a6 d3 b5 3d e2 fb 89 bd
       -0.08232059 0.011821905 0.08878259 -0.06737496
0003b0 44 58 d2 3d c6 db 8b bc 91 bd af bd 10 37 cc 3c
       0.102707416 -0.01707257 -0.08581079 0.0249286
0003c0 c4 26 aa 3d 70 c4 d8 bd db 47 8e bd 99 70 f4 bb
       0.08308175 -0.105843425 -0.06947299 -0.0074597117
0003d0 d1 a6 44 3d bc 13 a4 bd f8 74 96 bd 4c 9c e0 bc
       0.04801065 -0.080115765 -0.07346529 -0.027418278
0003e0 6d 70 e0 3d 26 83 20 bd 01 84 e7 3d f8 04 82 3d
       0.109589435 -0.039187573 0.113044746 0.06348604
0003f0 37 e5 4e bd b7 7a 7a 3d 11 5a 00 bd 04 7c 00 3d
       -0.050511565 0.061152186 -0.031335894 0.03136827

network.4.bias f4 [256]
000000 3d 95 3e bd a0 48 06 bd f8 bc 70 bd 47 38 02 bd
       -0.046529043 -0.032784104 -0.058773965 -0.03179195
000010 1f 51 98 bd b5 0c 0c bd 0b c8 e0 bd 3d e9 91 bd
       -0.074373476 -0.034191806 -0.10975655 -0.07124565
000020 cc 64 b5 bd f3 de b4 bb ea 2e f5 be 51 73 49 bd
       -0.08857116 -0.0055197417 -0.47887355 -0.04918224
000030 75 e8 f7 bd dd 3c 0c bd c4 58 a0 bd 54 74 2a bc
       -0.121048845 -0.03423773 -0.07829431 -0.010403711
000040 db ac de bc 29 88 d4 bd 78 f8 8f bd 6f df 85 bd
       -0.027182033 -0.10377533 -0.070298135 -0.06536757
000050 86 55 9e be 74 4d 88 bd 7a 09 81 bd e3 96 58 bd
       -0.30924624 -0.06655398 -0.06300636 -0.05287827
000060 34 7d b8 bd 42 06 74 bc 39 94 5d bd 22 a1 c0 be
       -0.090082556 -0.01489407 -0.054096434 -0.37622935
000070 44 fb c9 bc 8c 99 1e 3d 66 fd d3 bd ed 46 65 bd
       -0.024655946 0.038720652 -0.10351066 -0.055975843
000080 b6 21 41 bd 22 ab 19 be d8 4f 9e bd c3 a8 ad bd
       -0.04715129 -0.15006688 -0.07730073 -0.08479454
000090 5e ee 17 bd 85 e2 fc bc 4d 0e bc be 2a 40 1c 3e
       -0.03709256 -0.030869732 -0.3672966 0.15258852
0000a0 5f 87 d0 bd 7e 73 26 bd 26 a4 c1 bd cd 9c 16 be
       -0.1018207 -0.040637486 -0.09455137 -0.14708252
0000b0 e2 9e 85 bd e6 7a 1a 3c a4 28 be bd a5 c4 b2 bd
       -0.06524445 0.009428715 -0.09285095 -0.08728913
0000c0 11 41 aa bd 81 b0 2c bc c5 6a da bc 4a 2f 9d bc
       -0.08313192 -0.010540129 -0.02666224 -0.019187588
0000d0 99 df 2e bd 15 37 81 bd 4c cf 54 be b1 b1 b3 bd
       -0.042693708 -0.06309334 -0.20782202 -0.08774126
0000e0 fc 27 fa bd bb d5 1f bd 46 bd a5 bd ee 5f 41 bd
       -0.12214658 -0.03902219 -0.08092742 -0.047210626
0000f0 88 eb 6d be 82 bc be be e1 94 b9 bd a5 37 bf bd
       -0.2323438 -0.37253195 -0.090615995 -0.09336785
000100 6e 38 7d bc 2e 5c 20 bd 99 c4 7d be 2e 35 41 bd
       -0.015455348 -0.03915041 -0.24782027 -0.047169857
000110 63 1f b1 bd 1b cf a1 be 43 6b ec bd b3 b5 80 bd
       -0.08648565 -0.3160332 -0.11543896 -0.062846564
000120 f6 68 4e bd 79 14 2b bd 0f 94 81 bd 5c a9 c3 bd
       -0.050393067 -0.04176757 -0.06327068 -0.09553787
000130 a8 ae 00 bd 1d 1d 0b 3e 6e c9 a4 be 83 8c 6b bd
       -0.031416565 0.13585325 -0.3218493 -0.05750705
000140 a4 e8 17 bd ef fc b1 bd 71 2a 52 bd 30 d6 a1 bd
       -0.037087098 -0.086908214 -0.051310007 -0.07902181
000150 4b 7f b7 be a9 64 0f be 86 0d b5 bd 08 6a a1 bd
       -0.35839304 -0.14003243 -0.0884047 -0.07881552
000160 c4 a2 22 bd 13 8f 89 be c7 8a 40 bd 68 f2 29 bd
       -0.039706007 -0.2686697 -0.04700735 -0.041490942
000170 35 40 1b bd 2d b2 bc bd 66 cd 91 bd d2 a1 ae bd
       -0.03790303 -0.09213672 -0.07119255 -0.085269585
000180 ce 09 d1 bd d2 94 1a bd 27 95 c5 bd 53 d3 26 bd
       -0.10206948 -0.037739582 -0.09647589 -0.04072888
000190 51 88 9e bd 83 b0 ce bd 43 e5 8f be c6 3a cc bd
       -0.07740844 -0.10092261 -0.281046 -0.09972148
0001a0 9a 88 d7 bd 65 9f 94 bd ab 09 fc be 3a a7 31 bc
       -0.105241016 -0.072569646 -0.49226126 -0.010843093
0001b0 7a 0f 6f bd 9d 36 2f bd 3d bb c4 bd 51 52 7d bd
       -0.05836437 -0.042776693 -0.09606025 -0.06184608
0001c0 1e cc 88 bd bb e8 15 be c4 a3 1e be 1f e5 82 bb
       -0.06679557 -0.14639561 -0.15492159 -0.0039945985
0001d0 38 b0 55 bc 8d 7f be bd 42 50 6c bd 24 25 ca bd
       -0.013042502 -0.09301672 -0.057693727 -0.09870365
0001e0 05 da 66 bb f2 ad b1 bd 82 05 16 bd 6a c0 ad bd
       -0.0035225165 -0.086757556 -0.036626346 -0.08483966
0001f0 e6 b7 5d bd fa b8 aa bd 68 05 4c bd a7 29 df bd
       -0.054130457 -0.08336063 -0.049809843 -0.108966164
000200 b2 43 31 be b6 f9 2a bd 8c 20 66 be 8d 39 3c bd
       -0.1731098 -0.04174205 -0.22473353 -0.045953322
000210 4f 1f 59 bd 11 b4 19 bd 76 4a d0 be 50 7b 43 bd
       -0.053008374 -0.03752524 -0.4068181 -0.04772502
000220 76 73 96 bd 18 04 63 bd 97 de 47 bd dd 63 12 bd
       -0.07346241 -0.055423826 -0.048796263 -0.03573977
000230 19 6c 4a bd 46 9a a3 bd fa 09 0b bd 3d 10 8d bd
       -0.049419496 -0.0798841 -0.03394506 -0.06887863
000240 a7 2b 82 bd d9 82 15 3e 12 73 1a bf e6 8b 77 3d
       -0.06355982 0.14600696 -0.60331833 0.060436152
000250 ea 4a 1e bd de fd 8c bd 93 75 b6 39 46 6f c5 be
       -0.038645662 -0.06884359 0.00034801345 -0.38561457
000260 83 db b2 bc ea ee c6 bd 69 cc 93 bd 44 02 b2 bd
       -0.021833187 -0.09713538 -0.072167225 -0.086918384
000270 40 36 68 be c7 3a a0 3c ab c0 b7 bd 1d e2 8e bd
       -0.22676945 0.019559277 -0.089722954 -0.069767214
000280 c2 3c 52 bd 4d c2 29 bd fa a3 5e bd 93 b4 80 bd
       -0.051327474 -0.041445065 -0.0543556 -0.06284442
000290 ed bf 2c 3b 11 f5 8b bd 61 42 88 bd c3 5f e1 bd
       0.0026359514 -0.06833852 -0.06653286 -0.11004593
0002a0 29 45 1b bd b3 51 7a bd 82 73 89 bd 41 5b a7 bd
       -0.037907753 -0.06111307 -0.067114845 -0.08171702
0002b0 c1 4d 7f bd 87 14 06 bd 5f a4 77 3d 33 a3 6d bd
       -0.06233001 -0.03273442 0.06045949 -0.058016967
0002c0 5f ab 84 bd b9 ee 1f bd 56 40 2c bd 54 3a 63 bd
       -0.06477999 -0.039046023 -0.042053543 -0.055475548
0002d0 c0 5b 2d bb 29 31 5c be e6 cb 1d bd 37 cf db bd
       -0.0026452392 -0.21503128 -0.03852453 -0.107328825
0002e0 c9 cd a1 bc 0c 40 89 bd 26 f7 bb 3a ad 7a cc bb
       -0.019751446 -0.06701669 0.0014340624 -0.00624021
0002f0 0b 1c 62 bd de c2 20 bd 30 d3 55 bd ee a9 af bd
       -0.055202525 -0.03924834 -0.052203357 -0.085773334
000300 67 d1 ad be 2b 1b 09 bc 57 4f 13 bd 11 95 b2 bd
       -0.33948824 -0.008368294 -0.035964336 -0.087198384
000310 9c 46 06 be 3a ad 1f bd f6 43 b3 be 1e c6 4f bd
       -0.13112873 -0.03898356 -0.35012788 -0.05072605
000320 ec 35 a9 bd 9c 05 1b bd 2e 07 b6 bd 8b a5 cc bd
       -0.08262238 -0.037847146 -0.08888088 -0.09992512
000330 4f 2e c6 bd 0c 27 94 bd ad 74 e5 be 9e f4 ce be
       -0.096768014 -0.0723401 -0.4481558 -0.40421003
000340 e3 c9 88 bc 9b 6b 22 bd 56 a1 f9 bd 51 4f 59 bd
       -0.01669783 -0.0396534 -0.121889755 -0.053054158
000350 00 e2 c4 bd b5 c7 ac bd db 8d 37 bd f5 ba 95 bd
       -0.096134186 -0.084365286 -0.04481302 -0.0731105
000360 d0 42 16 bd b4 a1 c4 bd 02 ad 7d bc 4d 03 a3 bd
       -0.03668481 -0.09601155 -0.015483143 -0.07959614
000370 0a 22 eb bd a6 a5 c7 bd df 37 91 bd b9 d2 56 be
       -0.11481102 -0.09748392 -0.07090735 -0.20978822
000380 46 a9 40 bd 1d 95 84 3e d7 9e b5 bd 4d f1 05 bd
       -0.04703643 0.25895014 -0.08868187 -0.032700825
000390 72 6d cc bd 7e 2b c8 bd cd a6 e4 bc a2 a4 16 bd
       -0.099818125 -0.097739205 -0.027911568 -0.0367781
0003a0 e9 c3 c2 bd c9 40 cd bd e0 93 ff bd 1c d7 bb bd
       -0.09510023 -0.100221224 -0.12479377 -0.09171888
0003b0 40 b7 92 bc a4 7b cb bd 54 a3 e2 bd 1b fa 7d bd
       -0.017909646 -0.09935692 -0.110663086 -0.062006097
0003c0 4a 41 88 bd d5 45 4f bd 1e 5c e8 bd bb dc 51 bd
       -0.06653078 -0.050603706 -0.11345695 -0.051235896
0003d0 4a a9 cd bd 3f 7b 3a bd 83 54 8d bd 78 6a 72 bd
       -0.10042055 -0.045527693 -0.06900885 -0.059183568
0003e0 ac 87 8b bd 27 62 c1 bd e5 98 d3 3e 6a 7f 0a bf
       -0.06812987 -0.09442549 0.41327587 -0.5410067
0003f0 2a 3c ec bd 89 14 59 bd 06 2e 81 be af ac 67 be
       -0.11534913 -0.0529981 -0.25230426 -0.22624467

network.6.weight f4 [256, 256]
000000 22 cb 6b bd 4d 22 2e 3c a1 79 3c 3c b3 89 ce bd
       -0.05756677 0.010628295 0.011503608 -0.10084858
000010 b4 8b 15 bd 37 a5 30 bd ce a1 58 bd 23 c2 16 3a
       -0.036510184 -0.04312631 -0.052888684 0.00057509745
000020 5c 2b 01 3c f0 f8 00 3d d1 a9 54 be 74 3f b1 3d
       0.007883873 0.031487405 -0.20767905 0.08654681
000030 d4 41 f0 3d e5 50 9a 3d 23 75 c1 bc 6e 6d e0 3d
       0.11731306 0.07534961 -0.023615425 0.10958372
000040 a5 bb 8c bc 80 de 73 3c 45 93 37 bd 48 46 e6 bb
       -0.01717932 0.014884591 -0.04481818 -0.007027421
000050 16 ca e9 be 57 9d 89 bd 50 03 57 bd 2f c5 13 bd
       -0.45661992 -0.06719463 -0.052493393 -0.03607672
000060 12 90 90 bd 99 ef dd bb 6d 72 bb bd fd 50 37 be
       -0.07058729 -0.006772947 -0.09152684 -0.17901988
000070 4a 16 35 3b 0b 8e fa bc f6 c2 11 bd dd 91 96 bc
       0.0027631694 -0.03058531 -0.03558632 -0.0183801
000080 14 30 bc bc 1a 15 c0 bd 77 ec 9d bc c9 54 44 3c
       -0.022972144 -0.09379025 -0.019277794 0.011983105
000090 73 39 d4 bb ce 8f a4 3d dd 53 00 3d 3a a1 9b 3d
       -0.006476575 0.08035241 0.03132998 0.07599111
0000a0 5e 79 75 3d e0 cf b8 bd 0d 57 46 3d a5 a2 ac 3b
       0.059930198 -0.09024024 0.04842286 0.005268412
0000b0 63 92 16 bd 83 84 82 3c e8 3f 02 3c 1e d1 27 bd
       -0.0367607 0.015932327 0.007949807 -0.040970914
0000c0 1c 52 23 bd 47 aa 48 bd 64 a3 48 bd 14 ff f2 3c
       -0.039873227 -0.048990514 -0.048983946 0.029662646
0000d0 48 31 40 3d cb cb a3 3c dd 18 cb 3c 69 a5 d1 b8
       0.046922 0.019994637 0.02479213 -9.996707e-05
0000e0 65 88 14 3d e9 28 72 3d 73 d7 ce 3d ba bf a6 3d
       0.03626289 0.059121046 0.100996874 0.08142038
0000f0 b0 09 db b9 6d 3f 89 bc 5b a3 ad bd 03 27 d7 bc
       -0.00041778153 -0.016753877 -0.08478423 -0.02626372
000100 86 11 f3 3d 8b d7 16 b9 8f 9c 21 be aa 1a 16 bc
       0.11868577 -0.00014385411 -0.15782379 -0.009161631
000110 8e 90 81 3b f3 25 dc be 0d 89 aa 3c c4 bb 45 3d
       0.003954 -0.42997703 0.020817304 0.04827477
000120 af f0 cb bd 60 2f a0 3c 36 b0 be 3d 85 02 cd 3d
       -0.09958016 0.01955384 0.09310953 0.10010246
000130 d5 2e a2 3d ea 99 0f 3d dc 87 52 be c2 6f a5 bd
       0.07919089 0.035058893 -0.20559639 -0.08077957
000140 4c e1 68 bd 2e 50 59 bd 08 7b 43 bd 27 21 6e 3d
       -0.056855485 -0.05305498 -0.047724754 0.058137085
000150 d0 27 2f bd 63 c9 7c 3e d4 4e 28 3c 56 8b 6d 3d
       -0.042762578 0.24686198 0.0102727 0.05799421
000160 7e 22 82 bd 61 eb 8d bb cd 70 93 3b 15 b5 e4 bc
       -0.06354235 -0.004331038 0.004499531 -0.027918378
000170 8d 82 b2 bc 4e fd 4e bd 6f 9b f9 bc 1d 78 98 3c
       -0.021790767 -0.05053454 -0.030469624 0.018611962
000180 d8 d7 22 be 93 ec d0 3d 1c 9d 88 bc 39 1f a4 bd
       -0.1590265 0.10201373 -0.016676478 -0.08013768
000190 c8 9c ab bd 76 29 c8 bb 49 eb 9a bd cc 39 1a 3d
       -0.08379513 -0.006108458 -0.07564408 0.037652776
0001a0 48 99 04 bd 9e 0d 36 3d c6 f0 16 bd c1 4b 3e be
       -0.032372743 0.04444658 -0.036850713 -0.18583585
0001b0 bd b2 c8 3d 85 c8 ce bd 98 1a 70 3d 98 57 cd bd
       0.097997166 -0.1009684 0.05861911 -0.10026473
0001c0 ba ce 06 bc 6b 27 d6 bc c6 b6 ad b9 17 50 fa bc
       -0.008227998 -0.026141843 -0.00033133308 -0.030555768
0001d0 71 3d e2 bc 54 ac a7 bd 63 ee 7e bd 4b 7e 4e 3d
       -0.027617188 -0.08187166 -0.062239062 0.05041341
0001e0 4b b6 6c bd 17 5c 84 bd c2 ac ed 3c 0d 86 63 bd
       -0.057791036 -0.06462877 0.029013041 -0.055547763
0001f0 c2 57 b7 3d 0e f8 8f 3d 8b 18 87 bd d6 9d 90 3d
       0.08952285 0.070297346 -0.06596478 0.07061355
000200 24 fc 05 be 05 51 49 bb 79 c7 36 3b bc ff c5 bc
       -0.13084465 -0.0030718457 0.002788989 -0.024169795
000210 35 ce e1 3d c1 9a 17 3d e8 d5 1e be be 70 36 3c
       0.11025659 0.03701282 -0.15511286 0.011135278
000220 f4 0a e3 3d 24 77 c7 bb f8 0e 70 bd 9c d9 07 bc
       0.110860735 -0.0060872007 -0.058608025 -0.008291628
000230 85 57 14 3d 51 62 47 3c ab a3 85 bd 19 e3 bb bd
       0.036216278 0.012169437 -0.06525358 -0.09174175
000240 c0 c8 f3 3d 18 c3 3f be 03 d8 3c bf 28 8a 03 3c
       0.119035244 -0.18726766 -0.7376711 0.0080285445
000250 4d 5e de 3c 9b 19 66 bc 8e 42 f9 bc c5 bc 8f 3e
       0.027144575 -0.014044191 -0.030427244 0.28073707
000260 bf 46 35 3d 7b 32 77 3c 62 20 ce 3b 8f 29 21 3d
       0.04425692 0.015087719 0.0062904814 0.039346274
000270 40 e0 58 bd 56 a0 1c bc 13 53 39 3c 3c fd 08 bc
       -0.052948236 -0.009559711 0.01131131 -0.008361157
000280 5d 7c b4 bd 9a 3b 9c 3c c3 37 1b 3c ed bf c7 bc
       -0.08812783 0.019071389 0.009473744 -0.02438351
000290 9e 62 9c 3d 3c 6e 47 3c 7c 51 ef 3c fb d4 24 bd
       0.07635997 0.012172278 0.02921366 -0.040242177
0002a0 89 c7 ff bc 5c 35 c6 bd c9 cf 68 bd a7 1c 6d 3b
       -0.031223075 -0.09678146 -0.056838784 0.0036180408
0002b0 b4 a4 e6 3c c7 c4 e1 bc 35 b9 21 3d 77 46 d4 bd
       0.028154708 -0.027559651 0.039483268 -0.103650026
0002c0 68 a3 4c 3d e8 3a 95 3b 67 4d a1 3d 34 4b 00 3d
       0.049960524 0.0045541413 0.078760915 0.03132172
0002d0 db 75 68 bb 4c 92 58 be 05 b9 96 3d 0c ee a2 bc
       -0.0035470638 -0.21149558 0.073595084 -0.0198889
0002e0 50 d5 4f bd f2 74 9e 3b 73 cd b0 3d 92 22 a2 3d
       -0.05074054 0.0048357183 0.08632936 0.0791675
0002f0 15 7a f5 3c 87 7a 81 3d 12 16 86 3d c8 33 d6 bb
       0.02996544 0.06322198 0.06547178 -0.0065369345
000300 1e 6e 66 3d 9e 30 ff bc 64 46 c4 3d a1 5a 74 3d
       0.05625736 -0.031151112 0.095837384 0.059656743
000310 df 15 69 3e f1 ca 5d 3d 57 37 be be 85 65 3f 3d
       0.2276225 0.054148618 -0.37151596 0.046727676
000320 35 b1 a7 3d 8f f4 f2 3d 42 22 b3 bc f7 52 b5 bd
       0.081880964 0.11863052 -0.021866921 -0.08853715
000330 8f 0b 4d 3c 33 bc a0 bd 77 a9 f1 be fa 07 10 bd
       0.012514963 -0.07848396 -0.47199604 -0.035163857
000340 7a 00 92 bd 67 92 23 bd 72 9b 87 3c e4 f4 72 bd
       -0.07128997 -0.039934542 0.016553614 -0.059315577
000350 9b 2e 30 3e e9 9c 83 3c f9 81 55 bc 3b bd 21 bc
       0.17205279 0.016066032 -0.013031476 -0.009871776
000360 ac ce 89 bd 45 ef 86 bd 81 5f a8 bd 3a c0 b7 bd
       -0.06728873 -0.06588606 -0.08221341 -0.08972211
000370 2b cc ba bd 7c f8 86 bd 27 a0 09 bd 50 a5 88 bd
       -0.09120973 -0.065903634 -0.0336 -0.06672156
000380 68 dd 34 bd 0f 0e b3 3d c4 df 8c 3b 0a 4b 57 bd
       -0.044156462 0.08742916 0.004299136 -0.052561797
000390 35 1e 6e bd 09 dd 89 3c 36 b9 00 bd 5a eb 44 3d
       -0.058134276 0.01682903 -0.03142663 0.04807601
0003a0 37 f8 9e 3c 8a 6c 7f b9 4b 02 d3 3c 96 39 64 bd
       0.019405467 -0.00024359129 0.02575793 -0.05571898
0003b0 48 0c 3a bd 00 77 98 bd 27 31 d8 3d 6e f4 7d bd
       -0.04542187 -0.074445724 0.1055625 -0.062000684
0003c0 0d fe 1a bd 00 98 bd 3d 07 b5 8a 3d a5 27 71 3d
       -0.037839938 0.09257507 0.067728095 0.0588757
0003d0 af ce ba bd 13 b8 8d bd 46 72 83 3b a7 80 86 3c
       -0.09121453 -0.06919875 0.004011425 0.016418768
0003e0 b6 60 b2 bd fa d0 87 bc 0f ae 6c 3e eb ae a6 be
       -0.087098524 -0.01657914 0.23113273 -0.32555327
0003f0 79 80 33 3d b0 35 7c 3c 6c 2b c6 bd 3b 6d 35 3e
       0.043823693 0.0153936595 -0.09676251 0.1771745
