project4/assets/part_1_img/freq_10_width_64/model.pth (torch, 65052 bytes, 10 tensors)

network.0.weight f4 [64, 42]
000000 32 8a 84 3a d7 a2 56 3d ad f0 3f 3d ea 4a f5 3d
       0.0010111986 0.05240139 0.046860386 0.11977179
000010 4a 2d e0 bd 36 37 4f 3c 90 fa e4 be 10 13 14 3d
       -0.10946138 0.012647441 -0.44722414 0.036150992
000020 a9 5e d5 3e f1 fe b7 be 4c 85 20 bf 3a f9 f7 3e
       0.41673782 -0.35936692 -0.62703395 0.48432332
000030 9a 6e 03 3f 26 33 c9 bd c7 c3 15 3f 2c 7a a2 be
       0.5134064 -0.09824209 0.5850186 -0.31733835
000040 66 40 4b be 06 44 05 3e 84 e9 38 3f fc 44 c8 3d
       -0.19848785 0.1301423 0.72231317 0.09778783
000050 1e 3a 6f bd a5 36 47 be ff c6 5e 3e f2 eb 7c bd
       -0.058405034 -0.19454439 0.21755598 -0.061748452
000060 dd a4 a7 bc 5b 91 8d be 42 55 5a bd 37 03 17 bd
       -0.020464355 -0.2764996 -0.053303964 -0.0368683
000070 43 3c 18 be f8 54 08 3d 37 56 95 3d 1c 00 76 bc
       -0.14866738 0.033284158 0.07291835 -0.0150146745
000080 99 79 7d bd 17 17 40 3c 41 1f 0e 3c 7f 77 11 bb
       -0.061883543 0.011724255 0.008674444 -0.002219647
000090 9c 6a 7d ba 81 e7 c8 bb 6a 93 dd bc 18 c4 ef 3b
       -0.000966707 -0.006131113 -0.027047832 0.0073170774
0000a0 3a 97 75 3b fb 66 ea bb 6a 37 df bc c8 f8 8e 3d
       0.0037474171 -0.0071533895 -0.027248103 0.06981045
0000b0 df a6 cc be fe d4 0a bf 12 56 68 be 7a b9 cf be
       -0.39971063 -0.5423125 -0.22689083 -0.40571195
0000c0 3f 54 1a 3f 74 fe 50 3f c0 cc d4 3e 11 3d c1 3e
       0.602848 0.81638265 0.41562462 0.37741902
0000d0 0d a9 d1 be 37 2f 10 bf 6e 3a 81 bd 66 ac e5 bd
       -0.40949288 -0.56322044 -0.06309973 -0.11214523
0000e0 c0 67 d4 be 35 09 3c bd 7a c8 3a 3d 63 f9 9c 3e
       -0.41485405 -0.045907218 0.045601346 0.30659017
0000f0 40 ae 94 be bf b6 98 bd 4c 29 82 be 6d 72 e2 3e
       -0.29039192 -0.07456731 -0.25422132 0.44227925
000100 95 05 39 3e 85 36 03 3e 76 4e 05 3e 24 cb ff 3d
       0.18068536 0.12813766 0.13018212 0.12489918
000110 d1 97 43 3d 14 0b 07 3d ad 3a 08 be 5e 25 f8 3d
       0.047752205 0.03296955 -0.13303633 0.12116502
000120 cf c6 48 3d 23 5e cf 3c 18 b9 a5 bd 6d 36 7d 3d
       0.049017724 0.025313443 -0.080919445 0.061819483
000130 6f d6 d8 3c b8 86 0c 3c bf 3e 4b bd f7 4d 82 3b
       0.026469437 0.008577041 -0.049620386 0.0039765793
000140 37 77 3c bb aa 3d 28 3c cc 19 5e ba 46 69 ab 3b
       -0.002875758 0.010268608 -0.0008472472 0.0052310554
000150 72 7e 48 be 2a 4d 20 be db be 8e bd a3 5b d9 3d
       -0.19579485 -0.15654436 -0.069699965 0.106131814
000160 1d e6 4e be d5 6e b4 3e 9b bd 97 bd e4 2f 33 3e
       -0.20204969 0.35240808 -0.07409211 0.17498738
000170 00 3f dd 3e 91 e7 f8 be 03 d5 56 3d a4 3e 17 3e
       0.43212128 -0.4861417 0.052449238 0.14769989
000180 2f e7 9f be 2f 7b 59 bf ce fc 71 3e 27 d4 57 bf
       -0.31231067 -0.8495359 0.23631594 -0.84308094
000190 47 74 59 3d 1f 7a b3 3e 80 70 19 b8 ff 71 23 be
       0.053089406 0.35054109 -3.6582816e-05 -0.15961455
0001a0 cb 57 38 3d eb b3 35 3f f4 18 38 3d 5d fd cc bd
       0.0450056 0.7097766 0.044945672 -0.10009263
0001b0 8c 33 8b bd bf a8 ad bd 50 ec 19 3d 3e a9 93 bd
       -0.06796941 -0.084794514 0.03757888 -0.07210015
0001c0 5f 0f 36 bc 01 c5 10 be f8 f4 5c bc 4c d2 6b bc
       -0.011112063 -0.14137651 -0.0134861395 -0.0143934
0001d0 85 e0 92 3b 15 d0 90 bd bd 7e 17 3c 8c c9 71 3c
       0.004482331 -0.070709385 0.009246525 0.014757525
0001e0 ee e6 89 3b 47 92 5b 3c e2 cf 81 3b 55 8a 68 bc
       0.004208437 0.013401574 0.003961549 -0.014193137
0001f0 22 17 02 3b e2 ff 8f 3c 76 3d c6 bd 92 6f fb be
       0.0019850214 0.01757807 -0.096796915 -0.4910856
000200 b5 60 c9 bc be 9f 17 3e 85 f0 1d bf a2 5b a1 3e
       -0.024582246 0.1480703 -0.6169513 0.31515223
000210 6b 30 cb be d7 82 f0 bd ae f1 25 3e 18 40 25 bf
       -0.39685377 -0.11743706 0.16205475 -0.64550924
000220 83 d7 d8 be 43 e2 a7 3e a8 18 dd be d7 9e 21 3f
       -0.42351922 0.32789811 -0.43182874 0.63132995
000230 1d 37 00 be 0e 11 5e bd 4a 4e f7 3e a9 82 59 be
       -0.12521024 -0.054215483 0.48301917 -0.21241249
000240 d5 10 28 bf d0 79 2c bd 9c 1c f0 3e c5 7c 16 bf
       -0.65650684 -0.042108357 0.46896827 -0.58784133
000250 9d f1 a0 3e 5f fd 6a 3e 29 d9 8b be 69 bd 20 be
       0.31434336 0.22948216 -0.27314118 -0.15697254
000260 00 0a 33 3d dd ff d9 3d fb 69 cb 3d 23 19 12 bc
       0.04371071 0.10644505 0.099323235 -0.008917126
000270 66 f1 44 3d 55 8f 6a bc 5a 69 97 bd 1e 3f c1 bd
       0.048081778 -0.0143164 -0.07393141 -0.09435867
000280 a6 c8 a2 bb b1 99 53 3c f2 2a c9 bb e6 9b 83 3c
       -0.004967767 0.012915061 -0.0061391527 0.01606555
000290 80 40 55 bb 4c 22 fa bc 99 6a 83 bc 5a 42 82 3b
       -0.0032539666 -0.030533932 -0.01604204 0.003975195
0002a0 e4 5f 4f be 89 fa 19 be e7 e7 a1 be b4 67 1d be
       -0.20251423 -0.15036978 -0.3162224 -0.15371591
0002b0 64 5e f5 be e3 3b f4 3d ca b3 28 be 13 6f 12 be
       -0.47923577 0.11925485 -0.16474834 -0.14300184
0002c0 4e 12 16 3f d6 94 98 bd 72 8e 14 3c db 15 4f bf
       0.5862168 -0.07450263 0.009067165 -0.80892724
0002d0 b8 d2 de 3d 50 3a e7 be e2 27 9c be 64 80 2b 3c
       0.10880035 -0.45161676 -0.30499178 0.010467622
0002e0 59 36 27 bf 01 99 64 bf a7 a7 2e bf 6a 0a 5b be
       -0.653173 -0.89295965 -0.6822457 -0.21390691
0002f0 11 bc 26 bf b9 bf c9 bd 70 ae 18 be 45 8d 56 be
       -0.65130717 -0.09851021 -0.14910293 -0.20952328
000300 da 47 ec 3d 76 3d 9d 3d a2 9a 91 be 92 1f 05 bd
       0.11537142 0.07677738 -0.28438288 -0.03250081
000310 f6 d1 1b bd b2 18 d7 bd 1c 35 6f bb 69 14 b1 3d
       -0.03804203 -0.10502757 -0.0036500162 0.08646471
000320 0a 08 a0 3b 09 86 48 bd 7f e1 f2 3b 15 d4 87 bc
       0.004883771 -0.04895595 0.007412135 -0.01658062
000330 3c e8 f6 bc 91 5b 6f bc 25 87 f6 bc 81 79 37 3c
       -0.030140035 -0.0146092335 -0.030093739 0.011198402
000340 af b7 cc 3c ef 44 fa bb 24 3c 7d be 57 8c eb be
       0.02498993 -0.007637612 -0.24729973 -0.46005508
000350 1a b3 9f be 48 68 c2 be 94 69 f3 3d aa c8 a4 3e
       -0.3119133 -0.37970185 0.11885372 0.32184345
000360 53 d2 f3 be c1 3e ad be 82 df 05 3e 73 e6 ea 3e
       -0.47621402 -0.3383694 0.13073543 0.45878944
000370 0d 6b 92 be c7 00 9b be ec 41 43 3c 79 04 9c 3e
       -0.28597298 -0.3027403 0.0119175725 0.30472162
000380 de b4 28 3e 92 b8 46 3e 92 e6 41 bd 52 1b a2 be
       0.16475245 0.19406345 -0.04733903 -0.3166147
000390 16 e1 0a be 38 71 77 3d 4e 1c da 3e 06 f1 85 3e
       -0.13562426 0.06041071 0.4259972 0.2616045
0003a0 e0 f3 5a 3e 65 e1 b7 3e 42 70 94 be c2 2f 56 be
       0.21382093 0.3591415 -0.28991896 -0.20916656
0003b0 f3 98 05 3e 2a 7c 3d 3e 8a 6e 00 bd d7 65 d3 3d
       0.13046627 0.18504396 -0.03135542 0.10322159
0003c0 a8 0b 0f 3d 16 6f a6 bd a4 76 55 3c 5c 90 f5 bc
       0.034923226 -0.08126657 0.013028774 -0.029976062
0003d0 4b 7b d3 bb 1e ee 1f bc 65 10 29 3c f1 b2 82 3c
       -0.0064539067 -0.009761361 0.01031885 0.015954467
0003e0 20 2a a5 3b a9 9e 6b 3b f0 93 87 3c 8c fe 7f 3b
       0.005040422 0.0035952723 0.016550034 0.0039061634
0003f0 19 5c 23 3e 79 e9 c6 bd ae d3 80 3c 6f 73 8e bd
       0.15953101 -0.097125 0.015725937 -0.06955611

network.0.bias f4 [64]
000000 38 c0 31 3d d8 4e a5 bd 2f d2 1e be 97 fe ab be
       0.043396205 -0.08071679 -0.15509866 -0.33592674
000010 a7 d9 b0 be 0f 4b 6f bd e3 22 3f be d9 78 a7 bd
       -0.34541056 -0.05842119 -0.18665652 -0.08177347
000020 75 31 9f be 71 d0 66 be e3 f9 a2 be 9b 91 a8 be
       -0.3109242 -0.22540452 -0.31831273 -0.32923588
000030 c8 36 07 bd f0 7e 58 be 60 a5 98 3d 28 51 16 be
       -0.033011228 -0.21142173 0.07453418 -0.14679396
000040 e4 fb 63 be 49 1d 12 bf ea 42 35 bd 3d 1f 2a 3d
       -0.22264057 -0.57075936 -0.044253267 0.041533697
000050 77 9b 80 bd 62 6d a1 be 3d 2e 4b 3d 70 52 10 be
       -0.062796526 -0.31528765 0.049604643 -0.14093947
000060 bb 0d 4d be 7b f3 c9 bd 72 aa e3 bd ba dd e1 bb
       -0.20024769 -0.09860893 -0.11116494 -0.006892887
000070 57 48 92 bd ef b6 e7 3d ac a6 c3 be ad bb 3f be
       -0.07142704 0.11314189 -0.38213098 -0.18723936
000080 83 5c 01 be 8a 2a d5 bc 1c 52 1a 3e 5c 5d 96 3d
       -0.12632947 -0.02602126 0.15070385 0.07342026
000090 22 9f 4e be b6 3b 96 bd 99 3f f0 bd 76 6d 78 bd
       -0.20177892 -0.07335608 -0.1173088 -0.060651265
0000a0 37 1c 4a be cd 84 c0 be 9d 99 f4 be 72 62 91 be
       -0.19737326 -0.3760132 -0.47773448 -0.2839542
0000b0 79 b8 41 3e 3f 88 20 be 7c 69 d4 3d 00 a1 1f be
       0.18918027 -0.15676974 0.10371682 -0.1558876
0000c0 bc 0f 0c 3e 48 4b b5 bd 07 c0 86 3d 03 ff 19 be
       0.13677877 -0.088522494 0.06579595 -0.15038686
0000d0 45 95 e2 bd fc 32 a7 be 9e 93 39 be 33 fa b9 bd
       -0.11063627 -0.32656085 -0.18122718 -0.09080925
0000e0 41 57 4f be 01 58 87 be 54 3e 7f bd 0b 04 b2 be
       -0.20248128 -0.2643433 -0.0623153 -0.3476871
0000f0 19 4a 41 be 06 fd f3 be 14 9c 89 be ee 0f cf bd
       -0.18875922 -0.4765398 -0.2687689 -0.1011046

network.2.weight f4 [64, 64]
000000 f8 d7 fc 3d 66 2a ac bd 97 88 fb bd 5d 30 bd bc
       0.1234588 -0.08406524 -0.12281912 -0.02309435
000010 45 5e 4a 3e fb af 6d bd 76 0f 94 3e ee d5 97 bd
       0.19762523 -0.058029156 0.28918046 -0.07413851
000020 43 78 d1 bb 6a 99 c2 be 94 66 dd bd 92 73 99 be
       -0.00639251 -0.3800767 -0.10810581 -0.29970986
000030 cc e4 6d bd 3c b8 e5 3e 16 aa c4 be 43 a3 15 3e
       -0.058079526 0.44867122 -0.38411015 0.1461306
000040 42 6a 93 3d 8b 3a b8 3c c0 70 55 3e 70 e4 f5 3d
       0.071980014 0.022488853 0.20843792 0.120064616
000050 27 c4 d3 3c af a8 0d 3d fc 58 af bd 63 49 19 bd
       0.025850369 0.034584697 -0.08561894 -0.037423503
000060 48 55 1f be ab 0d ca be c1 0f 25 3e f6 02 d2 bd
       -0.15559876 -0.39463553 0.16119291 -0.10254471
000070 a4 c5 c6 3c 96 88 21 bd 80 27 ca bd ef a1 97 3d
       0.024264164 -0.0394369 -0.09870815 0.07403933
000080 08 f3 f0 3d 32 06 44 3e 8a e5 4a 3e 3e 04 dc bd
       0.117651045 0.19142988 0.19814125 -0.10742997
000090 ee 57 dd 3d f7 17 2f 3e e5 12 80 be 26 f0 34 3e
       0.10807787 0.17098986 -0.25014415 0.17669734
0000a0 36 0d cb 3d 9b 7f ba 3d 07 bc c5 bd d0 53 39 be
       0.09914629 0.0910637 -0.09655004 -0.18098378
0000b0 57 fb b4 3d 46 a4 f6 3a fc 51 d8 3d 94 ad 36 bd
       0.08837002 0.0018817268 0.10562512 -0.04459913
0000c0 32 14 89 3e d3 a7 42 be 90 57 24 be 7b b0 7a 3e
       0.2677322 -0.19009332 -0.16049027 0.24481384
0000d0 1b a0 2d 3e d7 0f 0c 3d b3 63 1a 3e 02 15 cc bc
       0.16955607 0.034194794 0.15077095 -0.024912361
0000e0 8b 3d 86 bd a3 eb 81 be da 5a 59 bd 22 d7 37 3e
       -0.06554707 -0.2537509 -0.05306516 0.1795316
0000f0 f5 5a b8 3e 2c 15 49 3d de 97 e8 bb 8a 74 9d be
       0.36006895 0.049092457 -0.007098182 -0.30752975
000100 be 51 a2 3e b7 22 39 3e 8b 22 14 3e de 68 b9 3c
       0.3170299 0.18079649 0.14466302 0.022633012
000110 66 99 0e 3e ea dd 67 be 22 d3 12 bd 66 8b 5b bc
       0.13925704 -0.22643247 -0.035845883 -0.013399934
000120 eb b2 0d 3e 8a 29 0e 3d 48 4d 96 3d 17 44 80 3e
       0.13837783 0.034707583 0.07338959 0.25051948
000130 a6 ce d9 bd 3a a1 95 3d b0 f7 6b be 30 5e ff 3e
       -0.10635118 0.07306142 -0.23043704 0.49876547
000140 ae 9e 95 3e fb 93 55 bc 59 a1 47 3d 84 2c 82 3e
       0.29222625 -0.01303577 0.048737857 0.25424588
000150 82 e0 b2 3e 09 21 b0 bd d7 92 1f 3e 44 57 5c bf
       0.3493691 -0.08600051 0.15583359 -0.86070657
000160 f4 e9 c1 3d d2 96 19 3d dd 70 b6 3d dc 97 bb be
       0.09468451 0.03749735 0.08908246 -0.36639297
000170 94 66 17 3e a8 f8 05 bd 00 79 17 3d e1 3a fc 3d
       0.14785224 -0.03270784 0.03698063 0.12315918
000180 ce 6f 3f 3e 08 ad 1d 3e a6 d4 ee bd 08 97 bb 3c
       0.18694994 0.15398037 -0.11661653 0.022899166
000190 c5 0d 14 3d 5c 23 85 bc 6b 35 40 be 36 a2 3d be
       0.036145944 -0.016252212 -0.18770377 -0.1851891
0001a0 7f b9 c7 3b 83 95 5d be a4 e6 98 be 7d ec 25 be
       0.006095111 -0.21639065 -0.29863465 -0.16203494
0001b0 31 47 81 3e 72 28 5d bd 1c ad c0 bd 31 a3 c7 3d
       0.25249627 -0.05399365 -0.09408018 0.09747923
0001c0 36 0c f9 3d a7 c3 ab bd 03 ca dc 3c 6b 4d 3e be
       0.12160532 -0.08386927 0.026951795 -0.1858422
0001d0 65 4d 60 3d f1 80 42 bd 54 a6 d0 bd 3b 31 04 bd
       0.05476131 -0.04748625 -0.101879746 -0.032273512
0001e0 92 1f 86 3e d3 5f 2d 3d 1d aa 01 3e 5f b4 29 3d
       0.2619596 0.042327713 0.1266255 0.04143178
0001f0 7e f7 21 3e 0b ed 44 3e 2e 63 e4 3d 8c ff 0d 3c
       0.15817067 0.1923105 0.111517295 0.008666884
000200 76 e3 88 3e a1 6b a9 bc 55 38 1e 3f 59 2b 01 bd
       0.2673604 -0.020681204 0.61804706 -0.03153548
000210 95 d5 8c 3e 5a 4b 23 3e c4 7a ff bd 0a d9 af be
       0.275067 0.15946713 -0.124745876 -0.34345275
000220 c6 dd 87 be c3 72 02 bc be aa 22 bf a7 4c 3d 3d
       -0.26536387 -0.007961932 -0.6354178 0.04621568
000230 08 6d 03 bf 8c 8c 34 be 3a 32 0b 3e 4d 3c 08 3e
       -0.51338243 -0.1763174 0.13593379 0.13304253
000240 10 9c 9d bd a3 bc ad 3e aa f2 65 be 25 6f e8 bd
       -0.07695782 0.3393298 -0.2245585 -0.11349324
000250 33 28 3a 3e 3f 22 d2 3c 2a 96 b8 be 59 ba a0 3d
       0.18179397 0.025651095 -0.36052066 0.07848043
000260 84 4d db be 49 c2 bf be 69 86 92 bd 89 fa d4 3e
       -0.42832577 -0.37452915 -0.07154543 0.41597393
000270 45 a8 7d be 62 f4 09 be f9 9e 1b be 52 76 8e 3e
       -0.24771221 -0.13472131 -0.15197362 0.27824646
000280 f4 24 34 3e ea 6c 61 3e 0d ad d9 3d 4b c2 0c be
       0.17592221 0.22014204 0.1062871 -0.13745992
000290 11 4b 20 be a7 40 bb 3e 31 7f 01 be dd ac 14 3e
       -0.15653636 0.36572763 -0.12646176 0.14519067
0002a0 18 b9 1f 3e c2 2d 9e be 58 a4 4e 3e 2e 8b ce bd
       0.15597951 -0.30894285 0.2017988 -0.1008514
0002b0 63 fb 96 bd ab b9 8b bd ba c9 90 bd 38 8b 73 3e
       -0.07372167 -0.06822523 -0.07069726 0.23783576
0002c0 27 79 4c 3e 20 11 e6 3c dc f9 d6 bd 46 5d 0d 3f
       0.19968091 0.028084338 -0.10496876 0.5522045
0002d0 bd 1f 33 be 5b 80 15 3e c6 f6 48 3e 2a 8a 82 3d
       -0.17492576 0.14599745 0.19625387 0.06374009
0002e0 1e 12 cb 3e e3 d8 fd bd ae d3 48 3e 9f 50 2a bf
       0.3966226 -0.123948835 0.19612 -0.6652927
0002f0 a5 f4 3b bf af 88 d3 bd 07 ea f5 3d 03 58 dc be
       -0.7342017 -0.10328805 0.12007528 -0.43035898
000300 d3 99 5b bd 04 59 15 bf 87 f5 46 3e a0 bb 2e 3c
       -0.053613495 -0.5833895 0.19429599 0.0106648505
000310 a1 3d 13 3e bb 36 21 3f 0e 29 db bd 90 98 c2 3b
       0.14378978 0.6297414 -0.1070119 0.005938597
000320 d8 f8 c0 3e 2b c4 93 3e b9 2a 18 3e 24 ce 2a 3f
       0.37689853 0.28860602 0.14860047 0.66720796
000330 54 53 4b 3e c2 1a 73 3d fa a3 f3 bd 7e 4c 13 3e
       0.19856006 0.05935169 -0.118965104 0.14384648
000340 1a e2 4a be 53 ae a4 3e 67 14 c9 3e 62 89 e8 3d
       -0.19812813 0.3216425 0.39273378 0.11354329
000350 6f aa 18 bf d0 7e 03 bf 4d 59 6d be 4b cf 9d bf
       -0.5963506 -0.51365376 -0.23178597 -1.2328886
000360 31 1b 31 bd e0 81 2c 3b f0 31 62 be 6d 94 f0 be
       -0.043238822 0.0026322529 -0.22089362 -0.4698824
000370 1e d6 d3 be ad 6e bc be c8 92 92 bd b2 6a 80 bd
       -0.41374296 -0.3680319 -0.071569026 -0.062703505
000380 69 52 15 3e cb 6a e5 3d 62 26 11 be 69 8d 41 bf
       0.14582218 0.1120201 -0.14174798 -0.756064
000390 ad c6 78 3e 25 e2 a1 3e 2f f1 ad be b0 75 89 be
       0.24294539 0.31617847 -0.3397307 -0.268476
0003a0 c8 dd a2 bc 37 ad 09 bf a8 29 69 3e ef 0e 41 be
       -0.019881144 -0.5377993 0.22769797 -0.18853353
0003b0 3c 4a dc be fd 46 a5 be b4 63 86 3e e9 d8 59 3f
       -0.43025386 -0.32280722 0.26247942 0.85096604
0003c0 12 b3 63 3e 8f e1 98 3d f6 de b1 3d 0c 1e bb be
       0.22236279 0.07464897 0.086851045 -0.3654636
0003d0 32 c5 5b 3e 10 0b 1d bd db e3 15 be ed 83 1e 3c
       0.21461943 -0.03834063 -0.14637701 0.009675008
0003e0 96 a9 dd 3e 9b b0 9b be 38 87 c7 bc 70 90 cb 3e
       0.43293446 -0.30408177 -0.02435647 0.39758635
0003f0 50 6e a1 3d dd c5 98 bd 87 64 89 bd 11 a2 06 be
       0.078823686 -0.074596144 -0.06708627 -0.13147761

network.2.bias f4 [64]
000000 bb 8f 6f be d8 70 b1 3e 4e ca a2 bd 3d 8b 2d be
       -0.23394673 0.34656405 -0.07948743 -0.16947646
000010 02 e7 ae be 60 08 40 3e 41 d9 cc 3c 6d 79 2f be
       -0.3416062 0.18753195 0.025005938 -0.17136164
000020 26 ca 85 bd e5 08 30 be 38 19 9e bd 8a 05 0b bd
       -0.065326974 -0.17190893 -0.07719654 -0.03394083
000030 57 3a 9f be e0 98 0b 3d 4a 43 8f 3e 84 f7 91 3b
       -0.31099197 0.03408134 0.27981025 0.004454555
000040 ab 31 c4 bd 1d d7 41 be 50 ca 85 bc b6 47 5d bd
       -0.09579786 -0.18929715 -0.016331822 -0.054023467
000050 16 bd 6d be cf 71 db 3d a2 48 cd bd a9 e9 2b 3d
       -0.23216662 0.10715067 -0.10023619 0.041970883
000060 76 08 ac 3c 73 bd 0f 3c ba 28 2f be 29 78 e3 b9
       0.021000128 0.008773196 -0.1710538 -0.0004338634
000070 b3 02 c2 bd ec cd ee 3d 94 53 be bd 39 d7 a6 bd
       -0.09473171 0.1166037 -0.09293285 -0.08146519
000080 61 54 bd 3d 98 d8 36 3e b5 54 21 be 2c 33 41 be
       0.092446096 0.17856061 -0.1575497 -0.18867177
000090 e2 5c 9c 3d d8 ea ed 3d ac 9a 9e be 6c cb 39 be
       0.076349035 0.116170585 -0.3097738 -0.18144006
0000a0 f1 ad 2e be ce bd 03 be 92 89 42 be b0 de 8f bd
       -0.17058541 -0.12865373 -0.18997791 -0.07024896
0000b0 aa 9f 35 3e bf 5a 26 be 32 62 37 3d 30 a1 13 be
       0.17736688 -0.16245554 0.04477138 -0.14416957
0000c0 da 67 d4 be 30 73 8a bd 81 21 4c bd f2 46 83 3d
       -0.41485482 -0.067602515 -0.04983664 0.06410016
0000d0 64 b8 e2 3d 27 dc 0e be 11 73 52 be 8e a5 8f 3d
       0.11070326 -0.13951169 -0.20551707 0.07013999
0000e0 69 84 d1 be 02 26 25 bc 83 b5 0c 3c 8e ca ba bd
       -0.40921333 -0.010079863 0.008588198 -0.091206655
0000f0 f5 3f 0e be 55 1a a4 3d 04 7e 3e 3d 7d 82 0f bd
       -0.13891585 0.08012835 0.046506897 -0.035036553

network.4.weight f4 [64, 64]
000000 f3 13 14 3d a8 21 a7 bd 21 3c 4b 3e ad dc c4 3c
       0.036151838 -0.08160716 0.19847156 0.024031008
000010 cd 21 0a b9 37 5a d6 be 57 ae c8 3c eb 04 a3 bd
       -0.00013173297 -0.41865703 0.024497194 -0.079599224
000020 fa ea 98 3c 5a 1f b2 3d 75 a0 48 3c 6e 3a e1 3d
       0.018666733 0.08697386 0.012245287 0.10997473
000030 9d 54 27 be 33 98 cc bc a8 95 b2 3e a4 fb 76 bc
       -0.16340871 -0.024974918 0.34879804 -0.015074644
000040 9d d6 2b 3e 36 5f 88 bc 39 17 41 3e da 90 1c be
       0.16781087 -0.016646963 0.18856515 -0.15289631
000050 96 16 11 be dc 13 a3 be 85 d7 66 bd ce 5b 7d 3c
       -0.14168772 -0.3185109 -0.05635788 0.0154637825
000060 bf 38 41 be 88 9c 14 3e 30 ba ab 3d 77 7f 25 3e
       -0.18869303 0.14512837 0.08385122 0.16161905
000070 52 88 c7 bd 7f 96 c3 bc 6b 5f 63 3c d8 b1 c2 3e
       -0.09742798 -0.023875473 0.01387773 0.3802631
000080 49 9e 42 3e f8 3f 45 3e 8f be 97 3c 43 41 07 40
       0.19005693 0.19262683 0.018523483 2.1133583
000090 09 aa e3 3d 65 a8 22 3e 62 db 02 3f c9 2d 5d be
       0.11116416 0.1588455 0.51116 -0.21599497
0000a0 5b 87 fd 3c d0 8a 07 3e 07 4b 89 bd a2 d6 38 3d
       0.030948332 0.13236547 -0.067037635 0.045126565
0000b0 59 2d b1 be 45 3b bc bd 3e 0b b7 3d a6 b3 91 bc
       -0.3460491 -0.09190992 0.08937691 -0.017785858
0000c0 fd d9 85 bc 52 2f e6 3e 10 4b 2a 3e 05 08 ea 3d
       -0.016339296 0.44957978 0.16630197 0.11427311
0000d0 a4 67 54 3d 48 2b c1 bb 63 5e c8 bd 90 42 9f bc
       0.051856652 -0.005895052 -0.09783628 -0.01944092
0000e0 88 52 01 bd 13 22 95 3e e8 7d d3 bd 9f e3 c2 3d
       -0.03157285 0.2912756 -0.10326749 0.095160715
0000f0 92 23 40 3e 77 72 48 3f cd 9d 66 be 1f 7a 5f bd
       0.18763569 0.7829966 -0.22521134 -0.054559823
000100 f4 ef ad bc 53 ad 35 3e 46 7b a3 3d bd c2 2c bb
       -0.021232583 0.17741899 0.07982497 -0.002636119
000110 9f f3 d0 3d a7 42 ca bd d0 5e 9c 3d 59 56 25 3d
       0.10202717 -0.09875994 0.076352715 0.04036555
000120 69 9d f6 3d ad ef 2c 3d ee 84 28 3e e6 49 8d be
       0.12041742 0.04222076 0.16456959 -0.27595443
000130 1e ff c3 bd f6 ee 8a bd f3 b0 27 3e c5 ef 28 3e
       -0.09570144 -0.067838594 0.16376095 0.16497715
000140 33 18 94 3d 50 15 54 3d b5 36 b2 3d 0e f7 c2 3d
       0.07231178 0.051778138 0.08701841 0.09519778
000150 0e 58 89 bc 13 b5 2e 3e c6 60 12 3e 81 d6 ec 3c
       -0.01676562 0.17061262 0.14294729 0.028910877
000160 d4 a5 1a 3e d3 43 6c 3e f7 9c 55 bd 99 38 28 3e
       0.15102321 0.23072748 -0.052151646 0.1642784
000170 3a 02 c6 3e ba f9 4e 3e 9f 5c f2 3d 28 b5 03 3e
       0.38673574 0.2021245 0.11834072 0.12862074
000180 de 91 b9 3d 88 d9 16 3e e0 0d a5 3d ab 35 2f 3f
       0.09061025 0.14731419 0.08059287 0.68441266
000190 b8 aa ab bd 41 22 0f 3e f3 e1 9d be 00 84 6e be
       -0.083821714 0.1397791 -0.30836448 -0.23292542
0001a0 af 3e 15 3e ba 73 07 3e 8c bc d9 3d b3 28 63 3d
       0.14574693 0.1322774 0.106316656 0.055458736
0001b0 fa 57 59 3e 1c cb d7 3c f4 c6 36 3e 99 11 01 bd
       0.21224967 0.026341967 0.17849332 -0.031510923
0001c0 ec 54 7e be a4 d3 da be 1d 2b f9 3c 01 b8 26 3e
       -0.24837083 -0.42739594 0.030416066 0.1628113
0001d0 db 80 95 3e 63 bc 13 3d 43 29 af 3d 50 d3 10 3c
       0.2919987 0.03606833 0.08552792 0.008839443
0001e0 a4 88 10 3e 7f 8f 6d 3e 61 8c e3 bd 34 4a 58 3e
       0.14114624 0.2319927 -0.111107595 0.21122056
0001f0 e5 e5 53 3d 7a 6a 5e 3e 37 9f 57 3e a3 b2 7b 3c
       0.051732916 0.21720305 0.2105683 0.0153624145
000200 37 b2 16 be 8a 27 5f 3e 92 51 35 3e 6a 6b 33 be
       -0.14716421 0.21792427 0.17706898 -0.17521444
000210 5d c8 04 3c 03 0f c0 3d 42 51 a0 3c 76 6b de 3d
       0.008104411 0.09377863 0.019569997 0.1086034
000220 56 b9 58 bd 13 f3 d7 3c 5b 89 cd 3d bf be 1d be
       -0.052911125 0.026361024 0.10035964 -0.15404795
000230 4b 40 28 3c f8 d1 5a 3e c8 26 8f bd c4 f7 d5 bd
       0.010269235 0.21369159 -0.06989819 -0.10447648
000240 8e 53 47 bd 04 0d ce bd 70 f3 14 bc 1e c7 9d bd
       -0.04866367 -0.10061076 -0.009091243 -0.07703994
000250 40 08 a7 bd 25 36 08 be 1b e9 0b 3e a6 c5 18 3e
       -0.081558704 -0.13301904 0.13663141 0.14919147
000260 a8 a6 ee 3d 5c f3 4b 3e 88 09 a2 bd 70 2f cd 3c
       0.11652881 0.19917053 -0.07911974 0.025047034
000270 da 0f 38 bd 53 c2 93 bd 32 cd 0d bd d3 03 3c 3e
       -0.044936992 -0.07214799 -0.034619518 0.18360834
000280 1f 8f 9c 3d fc 50 d7 bd 81 15 24 3e 8b 54 15 3f
       0.07644486 -0.105134934 0.16023828 0.5833213
000290 0b 9a 3a be 0c 9f a9 3d 8e 07 28 3d 58 46 00 bd
       -0.18222825 0.08282289 0.04102283 -0.031317085
0002a0 ed 9d 00 bd ff 73 96 3a 08 a0 0d bb d0 d9 a9 3d
       -0.03140061 0.0011478661 -0.0021610279 0.082934976
0002b0 09 e7 66 3e 95 68 b0 3d a9 2a 39 3e 24 c5 c0 3d
       0.2254907 0.086136974 0.1808268 0.094126016
0002c0 60 6f e2 bd f4 04 aa be fd 4f 45 bb 6c 35 48 3e
       -0.11056399 -0.33206904 -0.0030107491 0.19551629
0002d0 49 59 0d 3e f2 d0 80 3c d5 bd 9e 3d c9 2a 1c 3e
       0.13803591 0.015724633 0.07751051 0.15250696
0002e0 e8 31 81 3d 23 18 ab 3d 23 1a 42 bc 19 d9 03 3e
       0.06308347 0.08354213 -0.011847052 0.12875785
0002f0 0e fc 06 3d c2 70 d2 be 4c 65 f9 3c 2c 97 89 bc
       0.03295522 -0.41101652 0.03044381 -0.016795717
000300 c0 f0 48 3d 17 92 a9 3e 24 3a 19 bd 16 5e 77 3e
       0.049057722 0.3311927 -0.037408963 0.24156985
000310 09 74 23 3e 69 43 8a be ec a1 6b 3c c4 ca 15 bd
       0.15962233 -0.27004555 0.014381867 -0.036570325
000320 5c 56 14 3e 6c 7a 9d bc 05 8e 06 bc 65 84 8e 3d
       0.14486068 -0.019223414 -0.008212571 0.06958846
000330 28 3a 87 bd f6 c7 22 bd 7b 04 24 bd 2f 64 df bd
       -0.06602889 -0.03974148 -0.040043335 -0.109077804
000340 a9 94 4a be ef 0f cd 3c dd e2 07 be 40 97 c0 3c
       -0.19783272 0.025032012 -0.13270135 0.023509622
000350 10 8d d5 bc 0b e0 96 bd d6 17 f2 3d 06 a5 58 3c
       -0.02606824 -0.073669516 0.118209526 0.013222938
000360 d2 6c d9 bc 18 6c 9f be c2 30 57 3d 90 c8 ad 3d
       -0.026541147 -0.31137156 0.052536733 0.0848552
000370 d0 a0 f9 bc 92 93 4a bd e1 eb 70 3d 05 60 09 3d
       -0.03047219 -0.04945714 0.0588187 0.033538837
000380 10 32 04 bc 7e f6 11 3d cd 0a e4 bc 4d 39 bb 3e
       -0.008068576 0.035635464 -0.027837181 0.36567155
000390 79 73 78 bd 10 fa 8b 3e 86 cd 0f be 11 42 01 3e
       -0.060657 0.2733922 -0.14043245 0.12622859
0003a0 8d 6f 6a 3d 8f c4 e0 3c ea c2 d1 3d 02 e6 71 3d
       0.05723529 0.027437476 0.10242255 0.059057243
0003b0 b4 44 40 3e 78 3f 87 3d 40 6c 28 3e 6b 66 46 3c
       0.18776208 0.066039026 0.16447544 0.012109379
0003c0 4e 9c b6 bd 10 9b 15 3f 35 cf 08 3e b4 8d 82 bd
       -0.089165315 0.5843973 0.13360293 -0.06374684
0003d0 fa 99 01 3d cb fa a9 3d 9b 19 45 3d 2d 1a 0a 3e
       0.031640984 0.08299788 0.048120122 0.13486548
0003e0 51 45 81 be eb 29 68 be dc a0 76 3d ed 52 a2 3d
       -0.25248197 -0.2267224 0.060212 0.07925973
0003f0 49 7d 1b bd 4c 64 b8 3e 0d 55 f2 bd 87 08 35 3d
       -0.037961278 0.3601402 -0.118326284 0.044197585

network.4.bias f4 [64]
000000 40 2d 63 3c 9d ee 87 bd b5 74 cb ba f3 20 75 3c
       0.013865769 -0.06637309 -0.0015522452 0.014961469
000010 14 69 7e bd ec ef 3c bf 58 59 d5 3e c3 5b 81 bd
       -0.06211193 -0.7380359 0.41669726 -0.0631633
000020 9d ab 21 be 1a 03 8e 3e 9c 1e 6b be f5 ef 06 bd
       -0.15788122 0.2773674 -0.22960895 -0.032943685
000030 80 0c ac bd 10 c9 0c 3e 3e 3c 46 be dd 8d 03 be
       -0.08400822 0.13748574 -0.19358918 -0.12847085
000040 cc 0f 04 be e7 7f 98 be ea c3 b9 3b c6 1e 36 3d
       -0.12896651 -0.29785082 0.0056691067 0.04446294
000050 dd 82 68 3d 31 37 fa bd 47 2a ca bd b7 6e 56 3e
       0.056765426 -0.12217558 -0.09871345 0.20940672
000060 71 eb ec bd 2d 06 01 bd e2 80 7d bd 56 6c b1 bc
       -0.115683444 -0.03150003 -0.06189049 -0.021658104
000070 d7 74 b9 be d8 d0 83 bd fb af 4c 3e 08 37 1e be
       -0.36221954 -0.06436318 0.19989006 -0.1545068
000080 e8 97 62 be 4c 7a 07 be 0c 3d 9e bd 05 c4 b3 bd
       -0.2212826 -0.13230246 -0.077264875 -0.08777622
000090 98 ea a2 be 68 9f 7d 3e 0a 06 68 bd 35 5f 55 bd
       -0.31819606 0.2476784 -0.056646384 -0.05209275
0000a0 ea 5b 17 be 8d dd 4f bd 94 1e 5b 3d aa ca 27 be
       -0.14781156 -0.050748397 0.05349596 -0.16385904
0000b0 8b c2 94 bd ae 19 ef bd 7a 06 81 3e 05 b5 88 bc
       -0.072636686 -0.1167482 0.25200254 -0.01668788
0000c0 d6 cb 2f be 79 22 bd bd e3 1c da bd 23 04 fb bd
       -0.17167601 -0.09235091 -0.10650041 -0.122566484
0000d0 25 ab ce bd 7b 37 86 3d c5 d0 f6 bd 4d 2e 18 be
       -0.10091237 0.06553551 -0.120515384 -0.14861412
0000e0 05 02 9d 3e 80 47 a8 bd 47 28 13 be 65 1f 13 be
       0.30665603 -0.082167625 -0.14370833 -0.14367445
0000f0 f3 4d bd bd f9 a7 d8 bd 5d d6 1c be 8d b6 2a 3e
       -0.09243383 -0.10578913 -0.15316148 0.166712

network.6.weight f4 [64, 64]
000000 c0 39 19 be 4c 0f 14 be 75 ba dc bd ed ab f7 bd
       -0.14963436 -0.1445896 -0.10777751 -0.12093339
000010 10 8b 0e bd ae 3b 48 bd 93 3e 77 3d eb 11 ec bd
       -0.03480059 -0.04888504 0.06036241 -0.11526855
000020 38 6f 83 3d d4 9e 3c be 31 d7 2b be 97 82 5d 3b
       0.06417698 -0.18419963 -0.16781308 0.0033799761
000030 fe ce 22 bd 15 93 42 3d df 3d 3b be db ae 6e 3d
       -0.039748184 0.04750355 -0.1828532 0.058272224
000040 2b 50 0f 3c 53 fe 02 be 95 d1 5c 3d 8c bb 1b be
       0.008747141 -0.1279233 0.05391081 -0.15208262
000050 26 62 29 be 15 84 84 3b 03 ac 3e b9 13 d6 6d bd
       -0.16541347 0.0040440657 -0.00018183891 -0.058065485
000060 cf 29 d5 bd 25 65 46 bd 96 e1 87 bd 88 44 66 3d
       -0.10408365 -0.048436303 -0.06634824 0.0562177
000070 0b 63 c8 bd 0e 8d dc 3c da bb 37 be 33 60 a9 3c
       -0.09784516 0.026922729 -0.17942753 0.020675754
000080 2f c7 f7 bd 0a 0c bc bd 94 7a 0e be b0 fb ee bd
       -0.12098538 -0.09181984 -0.13913947 -0.11669099
000090 22 07 85 bd 1f 54 46 bd 60 2e 01 be 38 b0 c3 bd
       -0.06495501 -0.048420068 -0.12615347 -0.095550954
0000a0 55 89 37 3d 7a 57 8b bd 0e 85 09 be 90 01 31 bd
       0.044808704 -0.06803794 -0.13429663 -0.04321438
0000b0 82 cc a7 bd 0a 41 96 bd e8 22 06 be 5d 9f 0b 3d
       -0.08193304 -0.07336624 -0.13099253 0.034087528
0000c0 ef 63 9a bd a2 28 d1 3c 3a ad 4f 3d 32 87 ee bb
       -0.07538592 0.02553207 0.05070231 -0.0072793
0000d0 b9 c7 1e be 6f 0c d6 bd 6d 86 cc ba d5 5e ec bd
       -0.15505876 -0.1045159 -0.0015604027 -0.11541525
0000e0 c0 84 c4 bc 20 55 02 3d 36 dc e1 bd 67 81 b9 bb
       -0.023989081 0.031819463 -0.1102833 -0.005661178
0000f0 cb 53 1b 3d b4 fe 8d bd a5 25 d2 bd 74 7c 62 bd
       0.037921708 -0.069333464 -0.102610864 -0.05529447
000100 99 8a 90 3d 04 64 1f 3e 33 cf 1b bc f4 27 03 3e
       0.070576854 0.15565497 -0.009509849 0.1280821
000110 8d 17 0f 3e 72 ef 82 be d7 ae d1 be 65 fa c6 ba
       0.13973828 -0.25573307 -0.40953705 -0.0015180825
000120 1e f7 c8 3d d3 3e a9 3d 4b 6d d8 bd 15 3f 30 3d
       0.09812759 0.08263936 -0.10567721 0.04302891
000130 7a 5f ec 3c f6 39 d6 bd 97 b4 43 3e 32 19 82 be
       0.02885412 -0.10460274 0.19111858 -0.25409847
000140 cc b2 6f 3f 53 1a 15 bd 85 75 7f bd d7 65 41 3e
       0.936322 -0.036402058 -0.062367935 0.18886505
000150 e7 f9 f9 3d 14 3a 3b 3f 63 d5 66 bd 53 03 03 3f
       0.12205868 0.73135495 -0.056355845 0.5117695
000160 59 4a 22 3e f6 b0 21 3d 32 d9 23 3e 55 e2 0c 3c
       0.15848674 0.039475404 0.16000822 0.008598884
000170 f3 f7 bc 3c ba 04 21 3e 0b 78 57 bd 7e b5 00 3e
       0.02306745 0.1572446 -0.052604716 0.12569234
000180 fa af e4 bd 93 a6 b3 bd 71 27 47 3e df 38 08 3e
       -0.11166377 -0.08772006 0.1944864 0.13302945
000190 8d 99 b1 be e4 f9 e6 3e a8 9d 52 3d 5b 0e 98 3d
       -0.34687462 0.45112526 0.051419884 0.07424613
0001a0 86 e9 c6 3d 45 3c f3 3d 76 46 63 3e cc c0 1d 3d
       0.0971251 0.1187673 0.22194847 0.038513944
0001b0 04 65 65 bd a3 21 23 3e 31 03 a2 3c 57 78 d7 3d
       -0.05600454 0.159308 0.019776912 0.10521
0001c0 6d af 8d bd 8d 43 2a 3e 4a c2 9f 3c 4d 2d 27 3e
       -0.069182254 0.16627331 0.019501824 0.16325875
0001d0 70 d7 d7 3e 29 10 8c bb 7b 54 8c bc 5c 9e ad bd
       0.42156553 -0.0042743874 -0.017130127 -0.0847747
0001e0 db 29 1d bf 9d aa d6 3b e1 34 88 3d dc 8d 60 3d
       -0.6139199 0.0065511004 0.06650711 0.054822788
0001f0 e7 d5 58 3b a4 63 70 3b 66 13 01 3d 64 51 88 3e
       0.003308648 0.0036680484 0.03151264 0.26624596
000200 3c 15 59 bd 4a 0a 61 bd 50 d3 99 bd ba 19 65 be
       -0.052998766 -0.054941453 -0.07511008 -0.22373095
000210 23 29 2e be 2b 88 3a 3d 4e cd 55 3d 6c cb 7f bd
       -0.1700788 0.045540016 0.052197747 -0.062449858
000220 46 25 81 bd ef dc 02 bd ea 69 26 be ca 4e 98 bd
       -0.063059375 -0.03194898 -0.1625134 -0.07436903
000230 76 26 ea bc dc 15 6b bd f8 82 a7 bd f1 c8 0b 3d
       -0.028582793 -0.057393894 -0.08179277 0.03412718
000240 28 67 3e 3d 1d c5 01 be 63 00 ee bd d9 cc b2 bd
       0.046485096 -0.12672849 -0.116211675 -0.08730478
000250 02 a4 e4 bc 34 35 4a bd d6 23 04 be 43 13 d2 bd
       -0.027910236 -0.049367145 -0.12904295 -0.1025758
000260 9a cb 4d be af 3a 06 be 20 79 28 be ab 9f 2f be
       -0.20097199 -0.13108324 -0.16452456 -0.17150752
000270 f4 67 fe bd 2a 1c 94 ba 71 5a fe bd 0e 2e 2c be
       -0.12422171 -0.0011299897 -0.12419594 -0.16814443
000280 14 0d e2 3c 07 52 c1 bd 5a 70 15 bd a3 e7 a9 bd
       0.027594127 -0.094394736 -0.0364841 -0.08296134
000290 9c 18 85 3d d4 47 33 be 81 6c 30 3d f0 d7 2b bd
       0.064988345 -0.17507869 0.043072227 -0.04195398
0002a0 a3 39 cf bd 27 4b a5 3c 5f 7c 8c bd a1 18 b6 bd
       -0.10118415 0.020177437 -0.068596594 -0.08891416
0002b0 03 48 be bc cf ae 7b 3c 94 c2 13 be 6c 5e 0d be
       -0.023227697 0.015361502 -0.14429694 -0.1380555
0002c0 ff 80 57 bd 2c ea 77 bc 51 46 b1 bc 12 fa 4c be
       -0.052613255 -0.0151315145 -0.021639975 -0.20017269
0002d0 c1 1b 8b bd e3 23 39 be fd fd 58 bd 76 97 ff 3b
       -0.06792403 -0.18080096 -0.052976597 0.007800038
0002e0 85 85 a2 bd ea 22 4a 3d ab f7 29 bd 4e 18 a1 3c
       -0.07935623 0.049349703 -0.04149596 0.01966491
0002f0 c5 08 20 be 6a 7e e5 39 4d c3 97 bd 6a aa c5 3d
       -0.15628345 0.0004377247 -0.074102975 0.096516445
000300 c1 7a ec 3d 7f fa db bd 60 77 42 bc 62 f0 4c 3e
       0.11546851 -0.10741138 -0.0118692815 0.20013574
000310 cd be b8 3c 6f f2 76 be bf 0e 5c bf 68 74 23 3e
       0.022551918 -0.24115919 -0.8596 0.15962374
000320 14 cb f1 3d b7 15 84 bd 24 64 fd 3d ed cc 05 3e
       0.11806312 -0.06449454 0.12372616 0.13066454
000330 b7 45 95 3e 7e a6 a8 bf fd f5 91 3d fc d0 ff bd
       0.2915475 -1.3175809 0.07126997 -0.124910325
000340 da ae 1d bd 21 ed 9f 3d ae ff 6a bd ad 8f bd 3d
       -0.03849683 0.078089006 -0.05737274 0.092559196
000350 18 f9 fe bc 39 e1 d8 3d fb 53 ff bc 46 02 b5 bf
       -0.031124637 0.10589833 -0.031167975 -1.4141319
000360 a1 a1 09 bd 5f 7a b3 3d 14 2b ee 3d 0a 44 7f 3c
       -0.033601407 0.08763575 0.1162931 0.015580187
000370 94 88 16 3d c7 b4 b2 3d 63 64 1d bd 21 a5 a7 bd
       0.036751345 0.08725887 -0.038425814 -0.08185793
000380 26 dd 07 3e 5b 5d a5 bd 97 c9 a2 3d 9d 7d 61 3d
       0.13267955 -0.08074447 0.079486065 0.055051435
000390 aa 70 ec bc 83 2a 43 3c 74 98 d8 ba 45 99 73 be
       -0.028862316 0.011911991 -0.0016524927 -0.23788936
0003a0 bf 96 47 3d 03 b1 95 bd 12 f7 14 bf fe 6a 23 3e
       0.048727747 -0.07309153 -0.581895 0.15958783
0003b0 ea 74 d6 3d 2d c7 cb 3c 9b 75 38 bd 5d c3 49 3e
       0.10471518 0.024875248 -0.045034032 0.19703431
0003c0 84 9a d8 bd 34 42 0b 3e be e2 66 3d 93 0e 3c 3e
       -0.105763465 0.13599473 0.056368582 0.18364935
0003d0 44 48 cc bf da dc 44 3e ea f2 32 3e 66 5b 9f 3d
       -1.5959554 0.19224873 0.17475477 0.07781105
0003e0 ff be b4 bf 57 12 37 3e 85 f1 1a 3e c3 7c e7 bc
       -1.4120787 0.1787809 0.15131195 -0.028257733
0003f0 ed cd c4 3d f2 de 5f 3b c5 ec ad 3c 54 93 f0 be
       0.0960959 0.0034159985 0.021231065 -0.46987402

network.6.bias f4 [64]
000000 14 72 5d 3c 2b af 49 bd b8 10 21 bd d4 ef 4f bd
       0.013515968 -0.04923932 -0.039322585 -0.050765827
000010 cc 35 d7 3b 9d fa 21 bd ab a4 5e 3e 95 a0 b0 3b
       0.0065676924 -0.039545644 0.21742503 0.0053902366
000020 97 66 42 bd 4e ce af bd 59 d0 45 bd f9 30 c7 bd
       -0.04746112 -0.08584271 -0.0482944 -0.09726138
000030 0d a6 80 3e 47 f8 9d bd 34 3b b6 be fb 0c 90 bc
       0.25126687 -0.07713371 -0.35592043 -0.017584315
000040 16 64 27 3d 34 48 4c 3b 64 99 61 be 06 01 40 be
       0.040866934 0.0031170966 -0.2203117 -0.1875039
000050 cf 0f 36 bc e9 85 bb bd f9 87 cc bd 00 8c cb bd
       -0.0111121675 -0.09156401 -0.09986872 -0.09938812
000060 5e 65 0e bd 58 28 69 bd 2c 5a f3 bd 98 c8 0e be
       -0.03476464 -0.05692324 -0.11882433 -0.13943708
000070 e7 27 02 3e 82 82 2e bd b3 e8 e4 bc b5 83 e1 be
       0.12710534 -0.04260493 -0.02794299 -0.44045797
000080 f6 be 93 3e 60 25 2c 3f d4 75 0d be 22 2a 38 be
       0.2885663 0.6724453 -0.13814479 -0.17984822
000090 fd a7 1d be 1a b4 13 be 69 b4 9a bd b9 92 12 bc
       -0.15396114 -0.14424172 -0.07553942 -0.008946114
0000a0 97 a8 8c bd e3 fd 47 3d 44 e9 e7 3d 40 bb 05 be
       -0.068680935 0.04882611 0.11323789 -0.13059711
0000b0 c5 29 17 be 35 2e cb bc 7e d3 9c bd f9 6e bd 3d
       -0.14762028 -0.024802307 -0.076575264 0.09249682
0000c0 9a 81 2c be fe 82 2e be 3a 72 6a bd 68 88 a3 bd
       -0.16846314 -0.17042157 -0.05723784 -0.07985002
0000d0 04 5d 85 3d 9b 9c 95 bd a9 18 ef bc 55 da 86 3c
       0.06511882 -0.07305261 -0.029186564 0.01646153
0000e0 46 c4 be 3e 86 c5 f7 bd 8e 21 7c bc 36 93 71 bd
       0.3725912 -0.120982215 -0.015388859 -0.058978282
0000f0 c6 16 10 be 29 86 2e be fa 5d bd 3c d5 3b 1e be
       -0.14071187 -0.17043366 0.0231161 -0.15452512

network.8.weight f4 [3, 64]
000000 df 74 08 be cf cc 0b be c6 95 96 bd 44 7e 3f bd
       -0.13325833 -0.13652347 -0.07352786 -0.046751276
000010 f0 be 13 bd 2d ca 91 bb 22 ad 1a 3b 7a 02 bf 3c
       -0.036070764 -0.00444915 0.002360173 0.02331661
000020 92 66 4f bd 35 e7 5d 3c c7 00 1e bb b2 1e 3f 3c
       -0.050634928 0.013543894 -0.002410935 0.011665033
000030 e3 ad 00 bf 48 ac 0c 3d 0f a7 19 3f 32 c1 fa 3c
       -0.5026533 0.034343988 0.60020536 0.0306097
000040 c5 c8 e7 bd 84 f9 02 be 9e 95 0d 3d cc 92 00 3f
       -0.113175906 -0.12790495 0.034566514 0.50223994
000050 c0 80 ad bd dd aa 42 bc 65 24 f9 bc 2f 50 7a 3b
       -0.08471823 -0.011881557 -0.030412862 0.0038194766
000060 d4 d2 a9 bd ed 5d 4d 3c 91 d9 34 3e 6e e8 c9 3d
       -0.082921654 0.012534601 0.1766112 0.098587856
000070 72 51 94 3e 51 11 2f bd 9d 39 c7 3c ee d6 24 3e
       0.28968388 -0.042741124 0.024319464 0.16097614
000080 81 4b 60 3e 25 17 ac 3e 19 41 90 3e 3b c7 9d 3d
       0.21903802 0.33611408 0.28174666 0.07704016
000090 bc 18 31 bd e7 33 9a bc f1 b5 0a be c1 01 0f bd
       -0.04323648 -0.018823577 -0.13545968 -0.034913782
0000a0 49 0c 9f 3b 32 43 85 3d 53 21 cb 3d e4 d2 84 bd
       0.0048537594 0.06506957 0.099184655 -0.06485537
0000b0 2e 72 2a 3c 8a 38 65 bd 9a f5 10 bd 00 fc 69 36
       0.010403199 -0.055962123 -0.035390474 3.486639e-06
0000c0 71 8b 90 3c e2 55 a7 bc e7 12 3c be e1 81 b9 bd
       0.017644616 -0.020426694 -0.18366586 -0.090579756
0000d0 c8 49 3d bd db 20 8a 3c 83 54 79 3b bc f4 ff bc
       -0.04621294 0.01686137 0.0038044758 -0.031244628
0000e0 5d 97 4d 3e 33 12 4e bd ef 56 8a 3d 63 27 09 be
       0.20077272 -0.050310325 0.067548625 -0.13393931
0000f0 7e e2 d3 bc be 0a ce 3d f5 da 11 3d d1 1a 37 bd
       -0.025864836 0.10060643 0.035609204 -0.04470331
000100 b3 1b c2 bc e5 d1 66 bd bd 38 2d bc 23 56 d3 3d
       -0.023694849 -0.056352515 -0.0105726095 0.10319164
000110 6b fc fa bd 88 6d 8c bd 3d 9a 9f 3d 8a 3a 96 3d
       -0.12255176 -0.06856829 0.077930905 0.07335384
000120 25 eb 75 bd 57 ba c2 bd 8d 54 3f bd 47 66 84 bd
       -0.060038704 -0.09508198 -0.046711493 -0.0646482
000130 07 15 d1 be d6 b4 02 bd c0 f6 de 3c bd 45 f2 bd
       -0.40836355 -0.03191074 0.027217269 -0.11829708
000140 ce 19 bc bd 19 9d a5 bd 2c b3 6a 3d 08 f5 06 bd
       -0.09184609 -0.080866046 0.057299778 -0.032948524
000150 d0 54 08 bd 11 e8 3f 3d 8c 9a 50 bd f0 c2 e2 bc
       -0.03328401 0.046852175 -0.050928637 -0.027680844
000160 18 6f df bd 55 0d 6f bd c0 be cd bc 48 00 35 3c
       -0.10909861 -0.058362324 -0.02511537 0.01104743
000170 5f d6 8b 3e 0f b1 2b bd be de e3 bd 13 68 1c 3e
       0.2731199 -0.041916903 -0.11126469 0.15274076
000180 c9 23 d0 3c 72 31 f4 3e d3 59 bb 3e 57 84 1d 3d
       0.025407689 0.47693974 0.36591968 0.038456287
000190 71 af 69 3d bc 27 95 3d c4 19 57 3d a2 65 46 3d
       0.05705208 0.07282969 0.052514806 0.04843677
0001a0 96 99 9d bc ba 00 7d 3d 97 d0 a9 bb 33 0a 2c 3d
       -0.019238275 0.06176827 -0.0051823366 0.042001914
0001b0 f9 88 a7 bd af 99 bf bc d7 de ce 3b 42 87 3a 3d
       -0.08180422 -0.023388712 0.0063131857 0.04553915
0001c0 a6 18 b5 bd d0 9f 62 bd 66 53 3f be 56 23 a0 bd
       -0.08842592 -0.05532819 -0.18684158 -0.0781924
0001d0 24 49 f8 39 98 83 58 bd 5f 55 ae bd 70 b0 0a 3d
       0.0004735674 -0.052859873 -0.08512377 0.03385967
0001e0 e7 2a 31 3e d0 ae 73 3d 06 87 02 bd 11 a6 4f 3d
       0.17301522 0.059492886 -0.03186705 0.050695483
0001f0 83 8d 83 3d 2e 55 c9 3b f6 44 d6 3c 48 15 88 bd
       0.064234756 0.0061441874 0.02615593 -0.06644684
000200 df 17 e8 3c 9b 07 e1 bc 3f 53 b7 bc 7a 37 4c be
       0.028331695 -0.027469447 -0.022378562 -0.19943038
000210 d2 20 f1 bc e8 06 0a 3d 27 c7 06 3e 5f 0e c5 bd
       -0.029434595 0.033697993 0.13161908 -0.09621882
000220 93 54 69 3b 4f fd 6a 3d 4b 19 a8 bd db 20 21 3d
       0.0035603389 0.05737048 -0.08207949 0.039337974
000230 04 1e 03 bf 58 8c 4d bd ca 39 87 be 53 d7 96 bc
       -0.51217675 -0.05018267 -0.26411277 -0.018413221
000240 f8 28 20 bd 42 26 52 be 8e 95 bf 3b 1f f1 9f be
       -0.03910157 -0.20522407 0.0058466857 -0.31238648
000250 65 0c e6 bd d3 ee b7 bb 1d 5e 74 3d ae cd 0a 3d
       -0.11232833 -0.005613187 0.059660066 0.033887558
000260 1e ca 1a be f8 db 02 bd a6 e1 66 bc 0d 1d 80 3d
       -0.15116164 -0.03194806 -0.014091885 0.06255541
000270 8c 24 69 3e cc 23 09 bd 2b 38 93 bd dc df 50 3c
       0.22767848 -0.033481404 -0.071884476 0.012748685
000280 53 fe 38 3e 78 e6 dc 3e d5 6e d1 3e b6 fb 19 bd
       0.18065767 0.43144584 0.4090487 -0.037593566
000290 23 62 dc bc 67 af e5 bc 00 ba b9 39 fe 94 83 bd
       -0.026902264 -0.02803774 0.0003542453 -0.064249024
0002a0 29 17 95 bd 53 68 01 bd 83 28 04 be c4 f2 e2 3c
       -0.07279808 -0.031593632 -0.12906079 0.02770365
0002b0 6f 27 3a bd ec c2 6a 3d ee bd b5 bd c9 a8 fc bd
       -0.045447763 0.0573148 -0.08874117 -0.12336881
0002c0 0c 09 d4 bd 4c 5e e6 3d dd 3d cd 3d 07 60 a3 bc
       -0.10353288 0.112484545 0.10021565 -0.01994325
0002d0 b0 3b 93 bd 69 07 68 3c 16 b6 19 be c6 b5 48 bd
       -0.07189119 0.014161923 -0.15010867 -0.049001478
0002e0 3c 87 60 3e 29 2e d6 bc a5 3a 67 bd 9e d3 f1 bc
       0.21926588 -0.026145058 -0.056452412 -0.029519852
0002f0 f5 f4 d3 3d dc 42 6d bc 4e b1 5e bd e6 28 dd 3d
       0.10349456 -0.014481273 -0.05436831 0.107988164

network.8.bias f4 [3]
000000 ab 15 13 3e fb 38 b1 3d a2 42 23 3e
       0.14363734 0.08653446 0.15943387
